models/R25CamNetwLiDAR___-91.09avg__1737371200.pth (torch, 101151 bytes, 4 tensors)

weight f4 [8, 1, 3, 3]
0	0xbdb4e074	-0.088318735
1	0xbf048629	-0.5176721
2	0x3e40b715	0.1881984
3	0x3d994b12	0.07485022
4	0x3e89c2bd	0.26906386
5	0xbf03ed7f	-0.51534265
6	0xbe904d52	-0.2818399
7	0x3e13b5a3	0.14424758
8	0xbe931d85	-0.2873346
9	0x3ebb3276	0.36561936
10	0x3d727d71	0.05920166
11	0xbd561a6e	-0.0522713
12	0xbf4c26dc	-0.79746795
13	0xbeb0b527	-0.34513208
14	0xbee16c82	-0.44028097
15	0xbe45d880	-0.1932087
16	0x3ec36246	0.38160914
17	0xbe74b49a	-0.23897019
18	0xbf4d0ff2	-0.80102456
19	0x3ee017b6	0.4376809
20	0x3df866c2	0.121289745
21	0xbe1a14ac	-0.15046948
22	0xbf26629d	-0.6499422
23	0x3f0e3970	0.5555639
24	0x3e581e14	0.21105224
25	0xbecbffa4	-0.39843476
26	0xbd4e893b	-0.050423842
27	0x3d258e9e	0.040419213
28	0xbeacc1fd	-0.3374175
29	0xbcb95f26	-0.022628378
30	0xbe54ff8a	-0.20800605
31	0xbddfd7c0	-0.10929823
32	0xbebefaea	-0.37300807
33	0xbd9c4e18	-0.07632083
34	0x3d32f03a	0.04368613
35	0xbd0c3555	-0.03423055
36	0x3ef81c22	0.48458964
37	0xbf1df17b	-0.61696595
38	0xbeac2113	-0.33618984
39	0xbe35b503	-0.17744832
40	0xbeb907f9	-0.36138895
41	0xbe85b85a	-0.26117212
42	0xbf3e0735	-0.7422975
43	0x3d5118d9	0.051049087
44	0xbc47cd6b	-0.012194972
45	0xbc981afc	-0.018567555
46	0x3df28363	0.11841466
47	0xbf15ff3d	-0.5859259
48	0x3f035455	0.51300555
49	0xbf160e4c	-0.58615565
50	0x3e932ce0	0.28745174
51	0xbe1eb3d6	-0.1549829
52	0xbd95e1e1	-0.073184736
53	0xbeead250	-0.4586358
54	0x3daa5b9c	0.08318254
55	0xbdb6a4b7	-0.089181356
56	0x3e74ae01	0.23894502
57	0xbf0088f0	-0.5020895
58	0xbf1127a4	-0.5670111
59	0x3b0e75fa	0.00217378
60	0xbe8d784b	-0.2763084
61	0xbe89a60f	-0.26884505
62	0x3c591247	0.013248987
63	0x3c6dc611	0.014512555
64	0xbf644a48	-0.89175844
65	0x3f0e4ea5	0.5558875
66	0xbe27da86	-0.16391954
67	0x3e29cecd	0.16582794
68	0x3d3e0f97	0.046401586
69	0xbe0a4da0	-0.13506174
70	0x3ea480a3	0.32129392
71	0xbe05293c	-0.13004011

bias f4 [8]
0	0xbe86f3fb	-0.26358017
1	0x3e1435ce	0.1447365
2	0xbd605d9b	-0.05477677
3	0xbdbac66e	-0.09119879
4	0x3eb72090	0.3576703
5	0xbe1db4cc	-0.15401
6	0xbe9bec2b	-0.3045362
7	0xbd49b67a	-0.04924629

weight f4 [4, 6144]
0	0x3dd5d425	0.10440854
1	0x3ebf6f30	0.37389517
2	0x3debe4f3	0.11518278
3	0x3e8a8fd0	0.27062845
4	0x3e14f7c8	0.14547646
5	0x3c1c37da	0.0095348
6	0x3d726d4d	0.05918627
7	0x3c890332	0.016725156
8	0x3cada4ce	0.021196749
9	0xbc850d9e	-0.016241845
10	0x3d94797b	0.07249733
11	0x3dbdfbc6	0.092765376
12	0x3c12123a	0.008915478
13	0xbd05fac1	-0.03270984
14	0xbd347121	-0.0440532
15	0xbd1ad352	-0.037799187
16	0xbd210b0e	-0.039317183
17	0xbd14fb13	-0.036372256
18	0xbcc219c9	-0.023693936
19	0x3d90d2a7	0.07071429
20	0x3e4f1dbd	0.20226188
21	0x3dc02942	0.09382869
22	0x3db0133a	0.08597417
23	0x3d632076	0.05545088
24	0x3cc1dc22	0.023664538
25	0x3d8caee1	0.06869293
26	0x3dcfa81b	0.101394854
27	0x3da6a631	0.08137167
28	0x3e2a8e04	0.16655737
29	0x3c1eec62	0.009699913
30	0x3e170143	0.14746575
31	0x3d8caa04	0.068683654
32	0x3ebccad0	0.36873484
33	0x3e7a4a55	0.24442418
34	0x3f0882d8	0.5332465
35	0x3f38fef7	0.72264045
36	0x3f340122	0.7031423
37	0x3ec15e6e	0.37767357
38	0x3ecac983	0.39606866
39	0x3f084b89	0.5324026
40	0x3f01bed4	0.50681806
41	0x3edc5d78	0.4304006
42	0x3ec56c59	0.38559225
43	0x3e6de8c2	0.23233321
44	0x3e1c34c4	0.15254503
45	0x3d3baa3a	0.045816638
46	0xbb9243b4	-0.0044636372
47	0xbc083ae7	-0.008314825
48	0xbc8c3a9d	-0.017117793
49	0xbc389c6f	-0.011267765
50	0x3d981649	0.074261256
51	0x3e93103f	0.28723332
52	0x3e7c1eb1	0.24621083
53	0x3ee7e292	0.45290047
54	0x3e9a9f5c	0.30199707
55	0x3e0e36c0	0.13888073
56	0x3e82aea5	0.25523868
57	0x3e86b673	0.26311073
58	0x3ec3ef49	0.38268498
59	0x3ee05c51	0.43820432
60	0x3e414d42	0.18877128
61	0x3e24a2de	0.16077754
62	0x3e216b3c	0.15763563
63	0x3e2a72e0	0.16645384
64	0xbd71e457	-0.059055652
65	0x3ea79bc6	0.32736033
66	0x3f28d072	0.6594306
67	0x3f323933	0.6961853
68	0x3f5f6968	0.8727021
69	0x3f550387	0.8320851
70	0x3f068cd5	0.5255864
71	0x3ee48752	0.4463449
72	0x3f079512	0.5296184
73	0x3f02fe28	0.5116906
74	0x3ef39aed	0.47579136
75	0x3eb299b4	0.3488289
76	0x3e622cc1	0.22087385
77	0x3e115559	0.14192714
78	0x3d070c46	0.03297069
79	0xbaefcb63	-0.0018294867
80	0xbbee027b	-0.0072634793
81	0x3d803476	0.06260006
82	0x3e94ddfd	0.29075614
83	0x3eae0786	0.33990115
84	0x3ee7d5a9	0.45280197
85	0x3e88cea4	0.26720154
86	0x3e5278bf	0.20553873
87	0x3e98b164	0.29822838
88	0x3eb2f843	0.34955034
89	0x3eed3465	0.46329036
90	0x3ee50461	0.44729903
91	0x3eba54f4	0.3639294
92	0x3f0a9666	0.5413574
93	0x3bc6c7df	0.006066307
94	0xbef78c2d	-0.48349133
95	0x3cd7e5c8	0.026354685
96	0xbc2d6fd1	-0.010585741
97	0xbdb2fc04	-0.087394744
98	0x3e442a58	0.19156778
99	0x3ebc2629	0.36747864
100	0x3e73e313	0.2381709
101	0x3f3fba33	0.7489349
102	0x3f415969	0.75527054
103	0x3f09ee05	0.53878814
104	0x3ee57821	0.44818214
105	0x3eeba7e3	0.46026525
106	0x3f015514	0.50520444
107	0x3ee759a2	0.45185572
108	0x3e627cf9	0.22117986
109	0x3e5d2f18	0.21599996
110	0x3cb9ac5d	0.022665197
111	0x3d04803f	0.032348868
112	0x3ccb0349	0.02478184
113	0x3eaba0ee	0.33521217
114	0x3e96c10a	0.29444152
115	0x3ee2a037	0.4426286
116	0x3ea22ce8	0.31674886
117	0x3e820f18	0.2540214
118	0x3efdb628	0.49553037
119	0x3eeabc86	0.45846957
120	0x3ef25772	0.4733234
121	0x3e9c76c2	0.30559355
122	0x3ee2f7ca	0.44329673
123	0x3ed33911	0.41254476
124	0xbe5fc120	-0.21851015
125	0x3e84bf86	0.2592737
126	0x3dff990f	0.124803655
127	0x3e208317	0.15675007
128	0xbc8b0d20	-0.016974032
129	0xbdd4ddcf	-0.10393869
130	0xbac9b058	-0.0015387638
131	0xbd862bd3	-0.065513276
132	0x3da13a92	0.078724995
133	0x3e97b72f	0.29631945
134	0x3ea2eef4	0.31822932
135	0x3f795c9a	0.97406924
136	0x3f3120cd	0.69190675
137	0x3f119c8e	0.5687951
138	0x3f002327	0.5005364
139	0x3f104739	0.5635868
140	0x3ec3e082	0.38257223
141	0x3e8fb1e8	0.2806542
142	0x3e1aae09	0.15105452
143	0x3d2f9e4f	0.042875584
144	0x3de78d85	0.113062896
145	0x3ea28920	0.31745243
146	0x3eec8891	0.46197942
147	0x3e88d8eb	0.26727995
148	0x3eacc7c6	0.33746165
149	0x3f124837	0.5714144
150	0x3ef292bc	0.47377574
151	0x3ebf3779	0.3734701
152	0x3f01e6be	0.5074271
153	0x3f33deb5	0.702617
154	0x3e6e2148	0.23254883
155	0x3c988b45	0.018621096
156	0x3e8c9ab6	0.27461785
157	0xbe8e698a	-0.27814895
158	0xbd8cfbd7	-0.06883972
159	0x3d47bd7a	0.048764683
160	0xbdcdbe26	-0.100460336
161	0x3d2e055c	0.04248558
162	0xbd82238b	-0.063544355
163	0xbcaceddc	-0.021109514
164	0x3c7a837e	0.015290139
165	0xbe81ed25	-0.2537624
166	0xbbfd5bae	-0.0077318763
167	0x3eb176b7	0.34660885
168	0x3f1348b6	0.57532823
169	0x3f5b65f4	0.85702443
170	0x3f23763a	0.63852274
171	0x3f0188ef	0.5059957
172	0x3f168f15	0.58812076
173	0x3ec19a46	0.37813014
174	0x3e768b4d	0.24076577
175	0x3e3196d8	0.17342699
176	0x3ea7fd62	0.32810503
177	0x3ed812e7	0.4220192
178	0x3ec57cde	0.3857183
179	0x3e90eeb7	0.28307125
180	0x3f1531c4	0.5827906
181	0x3e98f818	0.2987678
182	0x3f195be8	0.5990586
183	0x3ed97201	0.4246979
184	0x3e2f0e23	0.17095236
185	0xbdfd1e17	-0.12359255
186	0x3e282f79	0.1642436
187	0xbde4e58d	-0.11176596
188	0xbea80c1f	-0.32821748
189	0xbcb7f91d	-0.022457654
190	0x3e5d7295	0.21625741
191	0x3b9abb28	0.004722018
192	0xbd1f6b69	-0.038920794
193	0x3ca6a036	0.020340066
194	0xbd6b8369	-0.05749837
195	0x3d872083	0.06597998
196	0x3de8ed09	0.11373336
197	0x3dd06507	0.101755194
198	0xbc98bb22	-0.01864392
199	0x3df2f784	0.11863616
200	0x3e2a10a9	0.16607918
201	0x3eb23f33	0.34813842
202	0x3f472cb4	0.77802587
203	0x3f26476e	0.64952743
204	0x3f112321	0.5669423
205	0x3ed60cc1	0.41806605
206	0x3e626694	0.22109443
207	0x3ea6cab7	0.32576534
208	0x3eb58ae0	0.35457516
209	0x3e89f42f	0.2694411
210	0x3ea8d42f	0.32974383
211	0x3f148822	0.5802022
212	0x3f0f10b0	0.5588484
213	0x3f54f607	0.8318791
214	0x3f7bcbf7	0.983581
215	0x3cf2294f	0.029560713
216	0x3e0dea1c	0.13858837
217	0xbd2e7645	-0.04259326
218	0xbdf88991	-0.12135614
219	0x3dc54975	0.096331514
220	0x3d6ae69f	0.057348844
221	0x3e4b1d9b	0.19835512
222	0xbe5ca5bc	-0.21547598
223	0xbe830b87	-0.25594732
224	0xbb699103	-0.0035639412
225	0xbeb8c566	-0.36088103
226	0x3e6cf490	0.23140168
227	0x3c5d42cb	0.013504694
228	0x3d865cf9	0.06560702
229	0x3d9630d5	0.07333533
230	0xbbda0a7c	-0.006654082
231	0xbe15a077	-0.14611994
232	0xbdcbe3ee	-0.099555835
233	0x3d91426b	0.07092746
234	0xbdbf51d0	-0.09341776
235	0x3e9471b4	0.28993
236	0x3f429d0b	0.7602088
237	0x3f16b591	0.588708
238	0x3eea81aa	0.4580205
239	0x3ee81365	0.45327297
240	0x3e98f5b4	0.29874957
241	0x3ed84e96	0.42247456
242	0x3f2cf95b	0.67567986
243	0x3f5b2064	0.855963
244	0x3f4baee4	0.79563737
245	0x3e9222ad	0.2854208
246	0x3e8a1ee1	0.26976684
247	0x3c08094b	0.008302997
248	0xbe02aad6	-0.12760481
249	0x3da65403	0.08121493
250	0x3e2ec797	0.17068325
251	0xbe02793b	-0.12741558
252	0x3d169e29	0.036771927
253	0xbe7d2483	-0.2472096
254	0x3dd88fe3	0.10574319
255	0xbedc7258	-0.43055987

bias f4 [4]
0	0x3de551b7	0.111972265
1	0xbe6dd596	-0.23226008
2	0x3d102952	0.035195656
3	0x3d147bf9	0.036251042
