models/R25CamNetwLiDAR_angle10s.pth (torch, 101151 bytes, 4 tensors)

weight f4 [8, 1, 3, 3]
00000000: 7629 a8bd b9ec 0bbf 004b 25bc 5594 323e
00000010: 2356 f53e d48b 0cbf b04e 24be 436f 723e
00000020: a266 f0be 3037 9b3c c02a 3cbe 4b0e 5bbe
00000030: 3e14 18bf 2117 cdbd 737d 1bbe a5f3 e53d
00000040: 4d9b f33e 6284 06bf 6af1 47bf f19b 953e
00000050: e321 96b9 d7d5 06be e870 dcbe e443 0b3f
00000060: 8197 013f b2e9 fabe d1ec 2c3d 9fc5 803e
00000070: c968 5e3e 97c5 823e 9759 febe 1d17 e3be
00000080: 9f5a 4ebf f28d 08be 8f32 753d e525 a53e
00000090: 1bfa 673e 712d 1dbf 55a6 413c e8ff d03e
000000a0: 603a 36be 7f82 0ebf 0a1b 20bf 50f1 673e
000000b0: cd14 953e f283 1cbd 24d6 09bd 4b37 1bbf
000000c0: 232d 023f 4f04 bdbe 210e 343e e7ef 8cbc
000000d0: 49da 52be d0bc cabe a64a 053e af08 dfbc
000000e0: 6690 7c3e 5667 02bf ab4c 42be 1a5d 6cbe
000000f0: e084 8abe 64f3 22bf 7b27 4f3c 83fa 23bf
00000100: fab5 38bf 2d77 173f 7ae4 cc3d d969 683e
00000110: f337 cf3e 1771 533c c6e4 c53e 9566 1fbe
-0.08211033 -0.54658085 -0.010088682 0.17439397 0.4791728 -0.5490086 -0.16045642 0.23675255
-0.46953303 0.018947214 -0.18375683 -0.21392171 -0.5940589 -0.10014177 -0.15184574 0.11228112
0.47579423 -0.5254575 -0.78102744 0.29220536 -0.00028635477 -0.13167511 -0.4305489 0.5440047
0.506218 -0.4900642 0.042218033 0.25150773 0.2171966 0.25541374 -0.49677727 -0.44353572
-0.80607027 -0.13335398 0.05986267 0.32255474 0.22654001 -0.61397463 0.011819442 0.4082024
-0.17795706 -0.5566787 -0.6254126 0.22650647 0.29117432 -0.03821177 -0.033651486 -0.60631245
0.50850123 -0.3691735 0.17583515 -0.017204238 -0.20591082 -0.39597178 0.13016757 -0.02722582
0.24664459 -0.5093893 -0.18974559 -0.2308239 -0.270545 -0.63652635 0.01264369 -0.64054126
-0.72152674 0.5916622 0.10004516 0.22696628 0.40472373 0.012905381 0.38651103 -0.15566476

bias f4 [8]
00000000: 4f6d 03be 9958 00bd 5473 9dbd 0a57 f3bd
00000010: a74c 7cbd e796 bf3d bcf6 babe 0216 7abe
-0.12834667 -0.031334493 -0.07688013 -0.11881836 -0.06159654 0.09354954 -0.36516368 -0.24422458

weight f4 [4, 6144]
00000000: 3caf 4fbe cf0f cf3e f519 82be faae a43e
00000010: 4b8f bd3e e97d c93e f155 243d e3e6 6b3e
00000020: a111 5ebd d273 b73d 95e6 bb3d 5905 ed3d
00000030: 7dd5 073e c688 043e f20a 5e3e 00ae 75bb
00000040: 7121 a9bb 23be 94bd 249d 3c3c 1eeb 8e3c
00000050: a5a4 243e f2cf a13e 3853 263f 9150 023f
00000060: f443 2e3d 9609 b23e 845f a83e 3ce0 a03e
00000070: e0b2 0d3f fc03 713e 5f18 c33e 4aee af3d
00000080: 2e24 ddbe d2c7 6dbe aec4 803e bde6 8dbe
00000090: b60a 76be 7217 103f 64f5 e33e 78aa 8b3e
000000a0: 8e91 3a3e 667d adbc 6bff ae3d 48b3 f53d
000000b0: a8d5 273e 51f9 613e 3a3e 893e 1d04 ed3d
000000c0: cf1c 19bc 1bd5 56bb a7b2 273e 6e4e bf3d
000000d0: fb23 5e3e 901c c33e 63d2 113f 5d5c 193f
000000e0: 7015 ae3e 39e5 953e a97c 043f 8509 fc3e
000000f0: 0271 d73e 8861 fe3e ba2c fa3d 5fc0 833e
00000100: 85c2 663e 9d86 df3d 02c7 9ebe 83ff 233e
00000110: 82da 2abe 44ad 9ebe 0945 103f 180d ea3e
00000120: 2aac 803e 62b2 b43e 762c 0abe 3cbb 303e
00000130: 2da6 fc3d 0c16 943d 6f60 613e ecf4 6f3e
00000140: 26c1 b13d 34fb e03b 7290 f23d a150 153e
00000150: 8b52 d53e e50e 163f 7153 113f c8a4 633e
00000160: d3a0 c43e decd 283f 72fa e43e 52cf fc3e
00000170: 4d3a 403e 2946 4a3e 9700 afbd ea66 1a3e
00000180: ddac 443e dd40 8bbd 72a5 65bc cd9f cebd
00000190: b53c 8b3e 42a7 79be 343c 4fbe ead4 1c3f
000001a0: 49b1 df3e eb29 823e ae9e bd3e f2b0 10be
000001b0: d8fe 3d3e 998d 473e 67a8 143e ccbf 483e
000001c0: eb51 1f3e 0688 303e f018 1d3e eeb3 f23e
000001d0: 14f4 0a3f aab9 d63e fdad 793e 1aa2 153f
000001e0: c71c 003f b7a6 ba3e 73b6 f93e c708 e4bd
000001f0: 2ce7 703f 3d32 043e b40d 593e 2802 06be
00000200: 0690 f1bc 71c9 b23d b250 343e 6e6d f33d
00000210: 02ac f33d 2ed5 ebbd 033b 133d 6ff1 cfbd
00000220: cf9e 203f 6af4 023f 61ad bb3e 641f 66bd
00000230: 77e1 f4bc fedc 1c3e 1826 063e 04f7 603e
00000240: 4e56 523e e0e9 893e 66c0 d03e 9079 fe3e
00000250: a3a2 cf3e 32ad 033f d4ba 073f 17cc 043f
00000260: 4311 0b3f 7050 e13d 4319 9cbe 12de 473e
00000270: 7fa3 043d 18b8 413e f9ff 373e 9af8 093e
00000280: 2ee1 3abd 1449 94bd 9194 c73d 640d 913d
00000290: f7fc 2c3e df2f a0bc a5d3 c93e fe69 113e
000002a0: 633e 82be 5965 ff3e b176 e63e 19a5 ca3e
000002b0: e628 a0bd c953 efbd 6b0f 2e3e 9070 b03e
000002c0: b51d 9a3e d66d f73e be40 313f 767e 2d3f
000002d0: 7c91 9d3e 12c8 203f 7747 1e3f 15dd 16bd
000002e0: e8fe afbd 70c3 203f 77aa 6b3e 5578 0b3e
000002f0: 80bd 913e 8571 a3bd e4fc 6d3e 3111 653e
00000300: b5eb f43d 99a0 22be eaa7 5dbd 6ecc d83d
00000310: 8f25 c1bd f393 95bc 45a7 d93d 5d8a 273d
00000320: eeaf 513e a29c a63d bb74 043e e373 ce3e
00000330: e7e4 f03e 0637 97bd 2c45 9abd 7546 3c3e
00000340: b6ab c73e 2d0a d13e e5ce 2d3f 2458 2a3f
00000350: 3637 3d3f 8788 b43e ef6c c63e 4192 c63e
00000360: cb03 f73e 73cb debd 8d6c 46be 4620 3a3e
00000370: 35ed 683e b41e 863e 2ce6 5a3d 635d 2b3d
00000380: 064f 45be f498 343b ad3b 803e 881a db3d
00000390: 77e7 7f3d 5b91 87bd 5966 f4bc 85cc c33d
000003a0: 9553 ab3c b6d7 b63d 55c7 fdbd 8079 8b3d
000003b0: 6ebb 053f d95c 863e 2b8e a03e 9187 1dbd
000003c0: 57ea 0e3f f3c7 273f 3fd7 b93e 280e 2e3f
000003d0: 339a 293f 808b 833f 7bef 123f 8cba 793e
000003e0: aec8 d83d dd0e 393e d160 183c 49cc 9f3d
000003f0: f89b 2f3e 7cad 0f3f 3cdf fbbe f3b7 f03e
-0.2028169 0.40441748 -0.2541043 0.32164747 0.37023386 0.39353874 0.040121023 0.23037295
-0.05421603 0.08957638 0.091748394 0.115732856 0.13265033 0.129428 0.21683863 -0.0037487745
-0.005161457 -0.07262828 0.011512075 0.017446097 0.16078432 0.31603962 0.6497073 0.50904185
0.042545274 0.34772938 0.32885373 0.31421077 0.55351067 0.23536676 0.3810453 0.08590372
-0.43191665 -0.23220757 0.25150055 -0.27715102 -0.24027523 0.56285775 0.44523156 0.27278495
0.18219587 -0.021177959 0.08544811 0.11997086 0.16390097 0.22067763 0.26805288 0.1157305
-0.009345247 -0.003278083 0.16376744 0.09341131 0.21693413 0.3810773 0.5696165 0.5990656
0.3400073 0.29276446 0.51752716 0.49226013 0.42078406 0.49683785 0.12215562 0.25732705
0.22535141 0.10914347 -0.31011206 0.16015439 -0.16684917 -0.30991566 0.5635534 0.45713115
0.2513135 0.35292345 -0.13493523 0.17258924 0.12336383 0.072307676 0.22009443 0.23433274
0.08679418 0.0068658832 0.11843957 0.14581539 0.41664538 0.5861648 0.56767946 0.22230828
0.3840395 0.6593913 0.44722325 0.49376923 0.1877224 0.19753326 -0.085450344 0.15078321
0.19206567 -0.06799481 -0.014016496 -0.10089073 0.27194753 -0.2438021 -0.2023781 0.6126238
0.43689945 0.25422606 0.37035125 -0.1413 0.18554246 0.19487609 0.14517365 0.19604415
0.15558593 0.17239389 0.15341544 0.474029 0.54278684 0.41938525 0.24382778 0.5845047
0.5004391 0.36455318 0.4877201 -0.11134487 0.9410274 0.1290979 0.21196634 -0.1308676
-0.029487621 0.08729828 0.17608908 0.118861064 0.11898042 -0.1151527 0.03594495 -0.10153472
0.6274232 0.51154196 0.36655715 -0.05618228 -0.029892666 0.15318677 0.13100469 0.21969229
0.20540735 0.26936245 0.40771788 0.4970212 0.4055377 0.5143615 0.5301945 0.51873916
0.54323214 0.1100167 -0.30488023 0.19518307 0.032382485 0.18917882 0.1796874 0.1347374
-0.045624904 -0.07240501 0.09745134 0.07082632 0.16893373 -0.019554077 0.39419284 0.14200589
-0.25438222 0.4988201 0.4501243 0.39579085 -0.07820301 -0.116859026 0.16998069 0.34460878
0.3010079 0.48325986 0.69239414 0.6777109 0.30775058 0.62805283 0.61827797 -0.036831934
-0.085935414 0.62798214 0.23014246 0.13620122 0.2846489 -0.079806365 0.23241001 0.22369839
0.1195902 -0.15881576 -0.054115213 0.10585867 -0.09430992 -0.018259024 0.10627607 0.040903438
0.20477268 0.08135344 0.12935154 0.4032279 0.4704964 -0.07383542 -0.07532725 0.18386252
0.38998193 0.40828076 0.6789382 0.6654074 0.7391237 0.35260412 0.38754985 0.38783458
0.4824508 -0.108786486 -0.19377346 0.18176374 0.22746737 0.261953 0.053442165 0.041837107
-0.19268426 0.0027556987 0.2504553 0.1069842 0.0624766 -0.06619521 -0.02983396 0.095604934
0.020913878 0.08927862 -0.12391535 0.06810284 0.5223912 0.26242712 0.31358466 -0.038459364
0.55826324 0.65539473 0.36297032 0.6799035 0.66250914 1.0276947 0.5739667 0.24387568
0.105851516 0.18072076 0.009300427 0.07802636 0.17149341 0.5612409 -0.49193752 0.47015342

bias f4 [4]
00000000: 0576 6a3c 73d2 a4be b1ca 58bd 8bcf 9dbd
0.014310365 -0.3219181 -0.052927677 -0.07705601
