models/R25CamNetwLiDAR__-142.20avg__1735039448.pth (torch, 101151 bytes, 4 tensors)

weight f4 [8, 1, 3, 3]
0	0x3d769409	0.06019977
1	0xbefa58ee	-0.48895973
2	0x3eb4df90	0.35326815
3	0x3e959638	0.2921617
4	0x3e909306	0.2823717
5	0xbf2ef880	-0.6834793
6	0xbf3571d5	-0.7087682
7	0xbdb777de	-0.0895841
8	0xbf3175c9	-0.6932035
9	0x3f34bbc1	0.7059899
10	0x3d0cdf74	0.03439279
11	0xbea25f5b	-0.31713375
12	0xbf6e3ee2	-0.930647
13	0xbd38ed62	-0.04514826
14	0xbd000f7f	-0.03126478
15	0xbf086e0f	-0.53292936
16	0x3ea50bd0	0.32235575
17	0x3c0427c9	0.008066126
18	0xbef77290	-0.48329592
19	0x3ebd87f5	0.3701779
20	0x3df09d00	0.117486954
21	0xbe53e18c	-0.20691508
22	0xbf098130	-0.5371275
23	0x3f14fdde	0.5819987
24	0x3f48efb9	0.7849079
25	0xbf2f742f	-0.6853666
26	0xbde4cd1e	-0.111719355
27	0x3ecbd1b8	0.3980844
28	0xbf3ac541	-0.72957236
29	0x3e57bc85	0.21068008
30	0xbf990d94	-1.1957269
31	0xbf384514	-0.71980405
32	0xbf813548	-1.0094385
33	0x3edd037d	0.43166724
34	0x3f408bbc	0.7521322
35	0x3f2dbf7e	0.6787032
36	0x3f68767b	0.90805787
37	0xbf4ffcb6	-0.8124498
38	0xbe6a225a	-0.22864667
39	0x3e3bdbb8	0.18345535
40	0xbd117e01	-0.035520557
41	0xbe277ddf	-0.1635661
42	0xbf6adafc	-0.91740394
43	0x3eb5bc75	0.35495344
44	0x3ebb2931	0.36554864
45	0x3e8de7d8	0.27715945
46	0x3ece40d3	0.40283832
47	0xbe7a0180	-0.24414635
48	0x3c99afc2	0.018760566
49	0xbf492f90	-0.785882
50	0x3e0700e6	0.13183936
51	0xbf115947	-0.5677685
52	0xbe4c052c	-0.19923848
53	0xbea26b2c	-0.3172239
54	0x3e1ebbcb	0.15501325
55	0xbcbdfa45	-0.023190627
56	0x3ea8fde4	0.33006203
57	0xbf366f8c	-0.7126396
58	0xbf0946ce	-0.53623664
59	0x3dbb960d	0.09159479
60	0xbed0fc93	-0.408177
61	0x3e3b2760	0.18276739
62	0x3e83f2d7	0.2577121
63	0xbef080cd	-0.46973267
64	0xbf61ebc4	-0.88250375
65	0x3f3c7f1c	0.73631454
66	0x3e19d337	0.15021978
67	0x3c914cab	0.017736753
68	0x3e2652cd	0.16242523
69	0x3c18bb7f	0.009322046
70	0x3e80fd2f	0.25193164
71	0xbea2c5ef	-0.31791636

bias f4 [8]
0	0x3e0603a4	0.13087326
1	0xbc8ec251	-0.017426642
2	0xbcff0b04	-0.031133182
3	0x3d663cda	0.056210376
4	0x3db2a487	0.08722787
5	0x3ca7a65f	0.020465074
6	0xbdc0bf0d	-0.0941144
7	0xbbc93385	-0.006140175

weight f4 [4, 6144]
0	0xbd367a61	-0.044550303
1	0xbdaf73d0	-0.08567011
2	0xbd1f1e6f	-0.038847383
3	0xbcf7dd83	-0.030256992
4	0xbdc1e4fa	-0.09467502
5	0x3ca724d6	0.020403307
6	0x3d5be8e6	0.053688906
7	0xbbe7f61c	-0.007078899
8	0xbabe062c	-0.0014497689
9	0xbc04d571	-0.008107529
10	0xbc35b284	-0.011089925
11	0xbbb3be3d	-0.0054853247
12	0xbc19b302	-0.009381058
13	0xbb37c2bb	-0.0028039652
14	0xbc4e6d17	-0.012599251
15	0xbbcfe4d4	-0.006344417
16	0xbc00d187	-0.007862455
17	0xbba122c3	-0.004917474
18	0x3be11498	0.00686891
19	0x3baabbab	0.00521036
20	0xbbee4b92	-0.0072721923
21	0xbc7354fd	-0.014851806
22	0x3e023931	0.1271713
23	0x3e50d968	0.20395434
24	0x3e0934db	0.13399069
25	0x3cba2a3e	0.02272522
26	0xbdab3dbb	-0.083613835
27	0x3df22ec5	0.11825327
28	0x3d9fe1c0	0.0780673
29	0x3e097c29	0.1342627
30	0x3e167cdd	0.14696069
31	0x3c0ef287	0.008724815
32	0xbd908f52	-0.07058586
33	0xbd31f6af	-0.043448146
34	0xbda16736	-0.07881014
35	0xbd9b6981	-0.07588483
36	0xbd4639f3	-0.04839511
37	0xbdd7f1c7	-0.10544162
38	0x3d24c84c	0.04023008
39	0x3d80af0b	0.06283387
40	0x3a38237a	0.00070243294
41	0xbc100def	-0.0087923845
42	0x3bbabee1	0.005699024
43	0xbc0213cc	-0.00793929
44	0xbc2440df	-0.010025232
45	0x3c09e701	0.008416892
46	0x396b4676	0.00022437595
47	0xbb548d1d	-0.0032432743
48	0xbc455db0	-0.012046263
49	0xbbc3ec32	-0.0059790844
50	0xbc544441	-0.012955726
51	0xbc4054f5	-0.011739005
52	0xbba34219	-0.0049822447
53	0x3dedf324	0.11618641
54	0x3e059aac	0.13047284
55	0xbd10f35d	-0.03538834
56	0x3c8f730b	0.017510911
57	0xbc95f5c7	-0.018305672
58	0xbbaf8093	-0.0053559034
59	0x3e08b221	0.13349201
60	0x3e04a858	0.12954843
61	0x3e349da4	0.1763826
62	0xbdbe1e2e	-0.092831
63	0xbdb71713	-0.08939948
64	0xbde09d06	-0.1096745
65	0xbddfa6a1	-0.10920454
66	0xbd6ac231	-0.0573141
67	0xbdba80b1	-0.09106577
68	0xbdab5117	-0.08365076
69	0xbd3beb2a	-0.045878567
70	0xbde6dc03	-0.11272433
71	0xbdcd0ccd	-0.10012207
72	0x3d7e458e	0.06207805
73	0x3d0f0140	0.0349133
74	0xbc015864	-0.007894609
75	0xbc812528	-0.015764788
76	0xbbcf1ec6	-0.006320807
77	0xbc7df2a6	-0.015499746
78	0xbb884db3	-0.004159653
79	0x3b49a73e	0.003076985
80	0xbb016bc2	-0.0019748067
81	0x3b887997	0.0041648853
82	0xba4b5290	-0.0007756138
83	0x3b17bf8d	0.0023154945
84	0x3e003571	0.12520386
85	0x3de4b215	0.11166779
86	0x3dc0ffde	0.09423803
87	0x3d7458dd	0.05965506
88	0xbcc5f196	-0.024163049
89	0x3c77f763	0.015134665
90	0x3d67ea82	0.05662013
91	0x3e6df510	0.23238015
92	0x3d593afb	0.053034764
93	0x3d20a821	0.03922284
94	0x3d520242	0.051271684
95	0x3ce4e40b	0.02794077
96	0xbe1abca6	-0.15111026
97	0xbdbdbb2b	-0.09264215
98	0xbde268b6	-0.11055128
99	0xbdf6089c	-0.12013361
100	0xbd8d13bb	-0.06888529
101	0xbdc36017	-0.09539812
102	0xbdb0c47e	-0.08631228
103	0xbde9dc6d	-0.11418996
104	0xbdd6371b	-0.10459729
105	0x3d80d573	0.06290712
106	0x3d815757	0.06315487
107	0x3b9ef538	0.0048510097
108	0x3b799795	0.0038084735
109	0xbc28ef6c	-0.010310989
110	0xbbf42f32	-0.007451915
111	0xbb3ba17a	-0.0028630183
112	0x3bf96920	0.007611409
113	0x3b46febe	0.003036424
114	0xbc28aac2	-0.010294618
115	0x3de5d4e3	0.112222455
116	0x3de587e6	0.11207561
117	0xbcd32234	-0.025773145
118	0x3dfe2dcb	0.12411078
119	0x3c60aa55	0.013712485
120	0x3e706c6f	0.23478864
121	0x3e344362	0.1760383
122	0x3ddf2fbc	0.108977765
123	0xbd8991af	-0.0671724
124	0xbd1b580c	-0.037925765
125	0x3e40b04b	0.1881725
126	0x3dfbb7a7	0.12290888
127	0xbdd7e32f	-0.10541379
128	0xbda7d435	-0.08194772
129	0xbe37ccc5	-0.17949207
130	0xbe422a12	-0.18961361
131	0xbda0f549	-0.078592844
132	0xbdeae31d	-0.114691
133	0xbde7ec60	-0.11324382
134	0xbd89617f	-0.06708049
135	0xbd95acdd	-0.07308362
136	0xbd992469	-0.07477648
137	0xbde51627	-0.11185866
138	0x3d1f65e4	0.03891553
139	0x3d7c70f2	0.06163115
140	0xbbd621ce	-0.0065347916
141	0x3b173895	0.0023074497
142	0xbc766a13	-0.0150399385
143	0x3bce8c68	0.006303359
144	0xbb03cf3d	-0.0020112537
145	0xbb3e5b99	-0.0029046296
146	0x3d34e6d3	0.044165444
147	0x3e134673	0.14382343
148	0x3d2858af	0.0411002
149	0x3db5757e	0.088603005
150	0x3cd734bd	0.026270265
151	0x3e4d0499	0.20021285
152	0x3e0311b0	0.12799716
153	0x3d038ea2	0.032118447
154	0xbc7643d6	-0.015030822
155	0x3e836826	0.25665396
156	0x3df23e07	0.11828237
157	0x3deced9a	0.115687564
158	0x3eb12945	0.346018
159	0x3e7ea0d8	0.24866045
160	0x3e09c961	0.13455726
161	0x3d38190d	0.044945765
162	0xbd0eb6af	-0.03484219
163	0xbe49c58d	-0.19704266
164	0xbe24f5fa	-0.16109458
165	0xbe353f96	-0.17700037
166	0xbdd47643	-0.10374119
167	0xbdee0387	-0.116217665
168	0xbdc72215	-0.097232975
169	0xbdc56ec5	-0.09640268
170	0xbde05190	-0.10953057
171	0xbdb43f78	-0.08801168
172	0x3d68dfed	0.056854177
173	0xbb81ae7d	-0.003957568
174	0x3afdeed7	0.0019373548
175	0xbc5afb1d	-0.013365534
176	0xbc62a08e	-0.0138322245
177	0x3cc4e11c	0.024033122
178	0x3e10e84e	0.14151117
179	0x3c29c525	0.010361944
180	0x3d71bafc	0.059016213
181	0x3d3faaa0	0.04679358
182	0x3dba1da2	0.09087683
183	0x3dfbfcbe	0.12304066
184	0x3d22274d	0.03958826
185	0x3e801626	0.25016898
186	0x3e063d09	0.1310922
187	0x3db93e30	0.090450644
188	0x3eb0f1e1	0.3455954
189	0x3ef0a7dc	0.47003067
190	0x3f42cb39	0.76091343
191	0x3e8e2f9a	0.27770692
192	0x3f35567f	0.7083511
193	0x3ef921d9	0.48658636
194	0x3e1ce7c3	0.15322785
195	0x3e78f57e	0.24312398
196	0x3ca54c06	0.020177852
197	0xbe26d17a	-0.16290846
198	0xbe184f2c	-0.14873952
199	0xbe4321e9	-0.19055904
200	0xbdce755f	-0.100809805
201	0xbde3dc45	-0.111259975
202	0xbdcdc81a	-0.10047932
203	0xbdeb43c8	-0.114875376
204	0xbdc002e0	-0.09375548
205	0x3d49335b	0.049121242
206	0xbc3cd175	-0.011524548
207	0x3a7a9af0	0.00095598307
208	0x3c2b0fff	0.0104408255
209	0x3d47eb65	0.048808474
210	0xbbd7f6c5	-0.0065906965
211	0x3dd3b74c	0.103376955
212	0x3d8ff1ff	0.07028579
213	0x3e71fea1	0.2363229
214	0x3e0da6bc	0.13833135
215	0x3e1418bf	0.14462565
216	0x3e24ca16	0.16092715
217	0x3e53c4e8	0.20680583
218	0x3ee94c6b	0.45566115
219	0x3f240883	0.6407549
220	0x3f1315f2	0.5745536
221	0x3f2f268e	0.68418205
222	0x3ec91c7c	0.39279544
223	0x3d816c24	0.06319454
224	0xbd1a6e17	-0.037702646
225	0xbe800e59	-0.25010946
226	0xbdfcfed6	-0.123532936
227	0x3e126d0d	0.14299412
228	0x3f0c0823	0.54699916
229	0x3e8d0ffe	0.27551264
230	0x3e56eebf	0.20989512
231	0xbd8e6bbd	-0.06954143
232	0xbe48e87a	-0.19619933
233	0xbe12dbdc	-0.14341682
234	0xbe3c468f	-0.18386291
235	0xbde0f492	-0.10984148
236	0xbdbad1fa	-0.09122081
237	0xbdd68533	-0.104746245
238	0x3d3f93f1	0.046771947
239	0x3c2c51cc	0.010517549
240	0x3d67fcea	0.056637682
241	0x3dd7aeb8	0.10531372
242	0x3da72d65	0.08162955
243	0x3e0674b8	0.13130462
244	0xbc415310	-0.011799589
245	0x3e2f393d	0.17111678
246	0x3e2be2e3	0.16785769
247	0x3e8e8c02	0.27841192
248	0x3f08e2b0	0.534709
249	0x3f34120d	0.70340043
250	0x3f263a20	0.6493244
251	0x3ebf1fa9	0.37328842
252	0x3ef54eb3	0.47911605
253	0x3f146124	0.57960725
254	0x3e1c207f	0.15246771
255	0x3f81daf4	1.0144944

bias f4 [4]
0	0x3e1750e1	0.14776947
1	0xbbe37f50	-0.006942667
2	0xbcd375d7	-0.025813026
3	0x3d140f24	0.03614725
