models/R25CamNetwLiDAR_noAngle.pth (torch, 101151 bytes, 4 tensors)

weight f4 [8, 1, 3, 3]
0	0x3e47e771	0.19521882
1	0xbf281311	-0.65654093
2	0x3e2538d6	0.16134962
3	0x3df66c8c	0.120324224
4	0x3e3dc074	0.18530446
5	0xbee6eee1	-0.45104125
6	0xbe570822	-0.20999196
7	0x3e1b7b54	0.15183765
8	0xbe88922a	-0.26674014
9	0x3e8566be	0.2605495
10	0xbe10f072	-0.14154223
11	0xbea5121e	-0.32240385
12	0xbf2263c8	-0.63433504
13	0xbea48b52	-0.32137543
14	0xbe977a48	-0.2958548
15	0xbca0b6c5	-0.019618401
16	0x3e6e13c3	0.23249726
17	0xbee9a378	-0.4563253
18	0xbf2893ea	-0.658507
19	0x3b9d273e	0.004795938
20	0xbea916a9	-0.330251
21	0xbea1ac4f	-0.31576774
22	0xbf2e2d02	-0.68037426
23	0x3e12f523	0.14351325
24	0x3ee66562	0.44999224
25	0xbf18afb5	-0.5964311
26	0xbe6d640a	-0.23182693
27	0x3d2d987b	0.042381745
28	0xbea0f276	-0.31434983
29	0xbe91e2b0	-0.2849326
30	0xbe8e503d	-0.27795592
31	0xbe605830	-0.21908641
32	0xbed19091	-0.40930608
33	0xbe590a06	-0.2119523
34	0x3e451fa6	0.19250354
35	0xbe56c0ce	-0.20971987
36	0x3d8b3f7f	0.0679922
37	0xbf03fe4f	-0.5155992
38	0xbebc3405	-0.36758438
39	0x3e98442d	0.29739514
40	0xbebf0be0	-0.37313747
41	0xbec0162d	-0.3751692
42	0xbefed010	-0.49768114
43	0x3e917750	0.2841134
44	0x3e7dffaf	0.24804567
45	0x3dcfe076	0.101502344
46	0x3dc7b22d	0.09750781
47	0xbf04fdff	-0.5195007
48	0x3ebc9d59	0.36838797
49	0xbf185f43	-0.5952036
50	0xbe3619ab	-0.17783229
51	0xbdba52a4	-0.09097794
52	0xbf06dcd2	-0.52680695
53	0xbedbbfc2	-0.42919737
54	0x3dd0d6c1	0.10197211
55	0xbe1e3caa	-0.15452829
56	0x3e837294	0.25673354
57	0xbf0dd595	-0.55404025
58	0xbe82222a	-0.2541669
59	0x3c0198a4	0.0079099275
60	0xbdf83295	-0.12119023
61	0xbe8b5d50	-0.2721963
62	0x3dc620df	0.096742384
63	0xbe87f792	-0.2655607
64	0xbef7f677	-0.48430225
65	0x3e95ff0d	0.2929615
66	0xbcaf925b	-0.021432092
67	0xbe2d7282	-0.16938213
68	0x3c817a75	0.015805462
69	0xbe0a2505	-0.13490684
70	0x3d83379b	0.0640709
71	0xbeac7edc	-0.33690536

bias f4 [8]
0	0xbe9cec1a	-0.3064888
1	0x3db3d300	0.087804794
2	0xbe72bc39	-0.23704614
3	0xbd5f93cb	-0.054584306
4	0xbe32e652	-0.17470673
5	0x3d768849	0.060188565
6	0xbef00329	-0.4687741
7	0xbec6153f	-0.38688084

weight f4 [4, 6144]
0	0xbe2757cd	-0.16342087
1	0xbeb1af2c	-0.34703958
2	0x3e8efcfe	0.27927393
3	0x3a93f5f0	0.0011288505
4	0xbd48c993	-0.04902036
5	0x3d379964	0.04482402
6	0x3cc68de8	0.024237588
7	0xbd296893	-0.041359495
8	0xbc4e093c	-0.012575444
9	0x3af5bf36	0.0018749002
10	0xbd07b36a	-0.033130087
11	0x3cbb3335	0.022851566
12	0x3e0465da	0.12929478
13	0x3d05d793	0.03267629
14	0x3d97e2ea	0.07416327
15	0xbd3683c4	-0.044559255
16	0xbd803035	-0.06259195
17	0xbd745063	-0.059646975
18	0x3ce78e0c	0.028265975
19	0x3ea0a8ca	0.31378776
20	0x3eac8d25	0.33701435
21	0x3df426f1	0.1192149
22	0x3d85ae6c	0.06527409
23	0x3e8cdafa	0.27510816
24	0x3e06afbd	0.13152976
25	0x3dfb2c18	0.122642696
26	0x3d44d4e4	0.04805459
27	0x3e923a51	0.28560117
28	0x3e36b70f	0.17843269
29	0x3dfe6d92	0.12423243
30	0x3de21099	0.11038322
31	0xbcd6053f	-0.026125548
32	0xbe1f4d5a	-0.15556851
33	0x3e611d0d	0.21983738
34	0xbcfa2365	-0.030534456
35	0x3e323044	0.17401224
36	0x3d0ab21f	0.033861276
37	0x3cb30e61	0.021857442
38	0x3db1271e	0.08650039
39	0x3d48ce63	0.04902495
40	0xbb1283d2	-0.0022356403
41	0xbbbabfc2	-0.005699129
42	0x3d1fde0b	0.039030116
43	0xbcc4a2b0	-0.024003357
44	0x3ddb91da	0.10721178
45	0x3e338200	0.1753006
46	0x3e0ced15	0.13762315
47	0xbd1947cf	-0.037421998
48	0xbd3d4308	-0.046206504
49	0xbd0cde2f	-0.03439158
50	0x3e85b85a	0.26117212
51	0x3eb366b2	0.35039288
52	0x3e8e0a79	0.27742365
53	0x3dce353d	0.10068748
54	0x3de3c51a	0.111215785
55	0x3e555771	0.20834137
56	0x3d9da031	0.0769657
57	0x3e5636b7	0.2091931
58	0x3eb11ce2	0.34592348
59	0x3ed918bb	0.4240168
60	0x3ed7b3c3	0.42129335
61	0x3ecc7e5f	0.39940163
62	0x3dd94fe5	0.10610942
63	0x3c862229	0.01637371
64	0x3d960d1d	0.0732672
65	0xbdb32c27	-0.08748656
66	0xbec6b8eb	-0.38812956
67	0xbd745a8a	-0.059656657
68	0xbcfd835f	-0.030946432
69	0x3cc6cf8f	0.024268894
70	0x3c2fca97	0.0107294535
71	0x3d510702	0.051032074
72	0x3d8b10a0	0.0679028
73	0x3c1fec5c	0.009760942
74	0xbbc01aeb	-0.005862584
75	0x3c8febe4	0.017568536
76	0x3c70b5bb	0.014691765
77	0x3e23b805	0.15988167
78	0x3e254c61	0.16142417
79	0x3e0f4035	0.13989337
80	0xbd141f9e	-0.036162965
81	0x3e92223f	0.28541753
82	0x3ed0d347	0.40786192
83	0x3e7ed320	0.24885225
84	0x3e368f20	0.17828035
85	0x3dc7ac5b	0.09749671
86	0x3e8cc503	0.27494058
87	0x3e1b80b6	0.15185818
88	0x3e9396ab	0.28825888
89	0x3ec5ec91	0.38657048
90	0x3ef6c342	0.48195845
91	0x3eb40413	0.35159358
92	0x3eab84e4	0.33499825
93	0x3e12d4f1	0.14339043
94	0xbecff433	-0.40615997
95	0x3d46c1d2	0.048524685
96	0xbd969660	-0.073529005
97	0xbd2fc149	-0.04290894
98	0x3e158bb8	0.1460408
99	0xbe96b622	-0.2943583
100	0x3e0b66d6	0.13613448
101	0xbdfc89cb	-0.123309694
102	0x3e2dd6c9	0.16976465
103	0x3d4b3603	0.049612056
104	0x3d2b084b	0.041755956
105	0x3db29be0	0.08721137
106	0x3d14e806	0.036354087
107	0x3c69b124	0.014263425
108	0x3d221595	0.039571363
109	0x3d76904e	0.060196213
110	0x3e2c0b64	0.1680122
111	0x3daa1f06	0.083066985
112	0x3e4d76bd	0.20064826
113	0x3e7a3ef2	0.24438074
114	0x3ec7ada0	0.38999653
115	0x3e56e57a	0.20985976
116	0x3de1f96a	0.110339
117	0x3e96a871	0.29425386
118	0x3e2c1ff8	0.1680907
119	0x3ebcfb27	0.36910364
120	0x3ef13de7	0.4711754
121	0x3ef9a541	0.4875889
122	0x3ef77d00	0.48337555
123	0x3da1f9ff	0.07909011
124	0x3dbe50e5	0.09292773
125	0xbe136c2d	-0.14396735
126	0xbd9f80d4	-0.07788244
127	0xbb99d663	-0.0046947463
128	0xbd4acc0c	-0.049511
129	0xbceb77e0	-0.028743684
130	0xbb850cbf	-0.0040603573
131	0xbcf3029b	-0.029664328
132	0x3d942df8	0.0723533
133	0xbecf1b77	-0.40450642
134	0xbd3ab719	-0.04558477
135	0x3ed9eaeb	0.4256204
136	0x3d9b8ebb	0.07595583
137	0x3d053bd4	0.03252776
138	0x3d898f4d	0.067167856
139	0x3d7b8712	0.06140811
140	0x3b9efb62	0.0048517445
141	0x3d32cb80	0.043651104
142	0x3d691265	0.056902308
143	0x3e514256	0.20435461
144	0x3ec09c0f	0.37619063
145	0x3ec0f787	0.37688848
146	0x3e4bac10	0.19889855
147	0x3e27c5cc	0.16384047
148	0x3e98ec3d	0.29867736
149	0x3e95d0f1	0.29260972
150	0x3ed1fa65	0.41011348
151	0x3f0c843e	0.54889286
152	0x3f027471	0.50958925
153	0xbcbdc9f7	-0.023167593
154	0xbec544b2	-0.38528973
155	0xbdfb29dd	-0.12263844
156	0x3d94154f	0.07230627
157	0xbd8a6c31	-0.06758917
158	0x3c801c0c	0.015638374
159	0x3daaa16b	0.08331569
160	0x3ce59815	0.02802662
161	0x3cff6f66	0.031181049
162	0xbd663ef4	-0.05621238
163	0x3d4cef49	0.050032888
164	0x3ce9c3dc	0.028535776
165	0x3cbd9d83	0.023146397
166	0xbe4b5ecd	-0.19860382
167	0x3ab5a675	0.0013858812
168	0x3e8752d2	0.26430374
169	0x3e33b961	0.17551185
170	0x3d9a115c	0.07522842
171	0x3dd82e05	0.105556525
172	0x3d9e0977	0.07716649
173	0x3c797b63	0.015227172
174	0x3d645e87	0.05575421
175	0x3ec86aeb	0.39144072
176	0x3eeecfef	0.46643016
177	0x3e6ea4fa	0.23305121
178	0x3ea0ee98	0.31432033
179	0x3eaa2c26	0.33236808
180	0x3e8474fd	0.25870505
181	0x3ef60295	0.48048845
182	0x3f26f1f6	0.65212953
183	0x3f103f49	0.56346565
184	0x3e0f1004	0.13970953
185	0xbe08501e	-0.13311812
186	0x3e1848fc	0.14871591
187	0x3d7e8d3b	0.062146407
188	0xbdc2d90e	-0.09514056
189	0x3e1453d1	0.14485098
190	0x3d1d8f4d	0.03846674
191	0xbd8dbe1a	-0.069210246
192	0xbdfb93e5	-0.12284068
193	0xbc934fbd	-0.017982358
194	0x3d8b9945	0.06816343
195	0x3d972e02	0.07381822
196	0x3d805ea8	0.06268054
197	0xbd4af492	-0.049549647
198	0xbe5b39e1	-0.21408798
199	0x3ccb04ef	0.024782626
200	0xbdc4eb21	-0.0961516
201	0x3e20a01c	0.15686077
202	0x3f0b2e78	0.5436778
203	0x3e6463cc	0.22303694
204	0x3dda9954	0.10673776
205	0x3dbbeca9	0.09175999
206	0x3e7648dd	0.24051233
207	0x3eca1e71	0.3947635
208	0x3eeae1ae	0.45875305
209	0x3ebb4ba1	0.36581138
210	0x3e6188c3	0.22024827
211	0x3eea9704	0.4581834
212	0x3ef4b3cb	0.4779342
213	0x3f4a1251	0.789342
214	0x3ecafecd	0.39647523
215	0xbe1f2f06	-0.15545282
216	0xbd225fe4	-0.03964223
217	0x3d8a811e	0.067629084
218	0xbd02b7d0	-0.03191358
219	0x3cef5893	0.02921704
220	0x3d64fe8c	0.055906817
221	0x3e6306e6	0.221706
222	0xbd0cd361	-0.034381274
223	0x3cbff109	0.023430364
224	0x3de0c777	0.10975545
225	0xbe4e478d	-0.20144482
226	0xbe9871c3	-0.29774293
227	0xbcc710f2	-0.024300072
228	0x3d77ac75	0.060467202
229	0xbc3e9b95	-0.011633773
230	0xbd2c200f	-0.04202276
231	0x3c5b8809	0.0133991325
232	0x3e5158ce	0.20444033
233	0xbe00e9bc	-0.12589163
234	0xbe01ac4b	-0.12663381
235	0x3f46d0ed	0.77662545
236	0x3f1227bb	0.57091874
237	0x3e828edb	0.25499615
238	0x3ebe7652	0.37199646
239	0x3ee7b8f2	0.4525829
240	0x3f04c8a6	0.51868665
241	0x3eb0fbef	0.3456721
242	0x3ea13058	0.31482196
243	0x3ee9287e	0.45538706
244	0x3f8c30ee	1.0952432
245	0x3de793b9	0.11307473
246	0xbdc82557	-0.09772747
247	0x3d9eb160	0.07748675
248	0xbd4baf26	-0.04972758
249	0xbd059207	-0.032609966
250	0x3d2a7a88	0.04162076
251	0x3e130ede	0.1436114
252	0xbccc9c03	-0.024976736
253	0x3d1bda91	0.038050238
254	0xbe28cc3a	-0.16484156
255	0x3e65ed66	0.22453842

bias f4 [4]
0	0x3d68ebc1	0.056865457
1	0xbd97cf7c	-0.074126214
2	0x3dfd60cc	0.12371978
3	0xbc9162cb	-0.017747303
