models/R25Simple_first.pth (torch, 101151 bytes, 4 tensors)

weight f4 [8, 1, 3, 3]
000000 d8 4e 73 3e 64 84 8b be 9b 2d dc 3e 83 f8 b9 3e
       0.23760545 -0.27249444 0.43003544 0.36322412
000010 da 5f dc 3e db ee 11 bf 33 bb 32 be 66 4b 1a 3e
       0.4304188 -0.5700509 -0.17454223 0.15067825
000020 9e 05 f0 be f0 d0 c0 3e b5 9f 1d be 7b 40 7a bd
       -0.46879286 0.37659407 -0.15392955 -0.06109665
000030 8e 9a c6 bf bb 8b c0 be 53 c7 c5 3d 4d 25 eb 3d
       -1.5515916 -0.37606606 0.09657159 0.11481724
000040 97 f6 3b 3f ec 1e bf 3e f6 8a 30 bf 6b 46 f1 3e
       0.7342314 0.3732828 -0.6896204 0.47124037
000050 82 e4 de 3d 10 2f ce be 07 bc 6f bf 66 16 ce 3e
       0.10883428 -0.4027028 -0.9364628 0.40251464
000060 42 f0 49 3f d3 10 ac be bc 2e 81 3d df f7 e5 3e
       0.7888223 -0.33606586 0.06307742 0.44915673
000070 f5 ba 28 bf 4a 5e db be cb db 1c be e9 d8 0f bf
       -0.65910274 -0.42845374 -0.1531822 -0.56190354
000080 9c b2 9f bf 2a 22 cd 3e 41 c2 4c 3f 56 62 54 3f
       -1.2476382 0.40065128 0.7998391 0.8296255
000090 d3 55 6c 3f 7c cd 3a bf c4 c2 d7 be 3a 61 18 3f
       0.9231846 -0.72969794 -0.42140782 0.59523356
0000a0 45 3c 32 3c ef ee 17 bf 28 25 8c bf 8c 40 e3 3e
       0.010878627 -0.5934896 -1.0948839 0.44385183
0000b0 ec 1c 45 3f 6f ee e7 3e 40 03 0e 3f e4 2d 92 3e
       0.76997256 0.45299098 0.5547371 0.28550637
0000c0 0d d1 c1 3e a0 c1 09 3c 42 07 fc 3e 45 d9 9a be
       0.37854806 0.00840798 0.49224287 -0.30243888
0000d0 07 b7 ae bf 94 81 7d bf bc 64 3f 3f 39 3c 50 3f
       -1.3649606 -0.99025846 0.74763083 0.8134189
0000e0 0e 90 4a 3f 08 1f 3a bd e8 4f 1f be 1b 2b 13 3f
       0.7912606 -0.04543975 -0.15557826 0.5748765
0000f0 7d 01 06 bf 1a bd 3a bf 63 59 23 bf 28 ea df be
       -0.5234602 -0.72944796 -0.6380827 -0.43733335
000100 4c f2 05 bf 7f db 0b 3f 79 ca 8d bc e4 09 50 3e
       -0.5232284 0.546318 -0.01730846 0.20316273
000110 c2 41 e4 3e 04 54 4f be aa f0 c5 3e 1e c0 3c be
       0.4458142 -0.20246893 0.38660175 -0.18432662

bias f4 [8]
000000 d2 89 32 bb b8 04 b8 3e ff ec f8 3e 78 09 0c 3f
       -0.0027242792 0.359411 0.48618314 0.5470195
000010 12 6a ef 3c 05 2a f0 3e 20 d1 be bb d2 d3 89 bc
       0.029225383 0.46907058 -0.0058232695 -0.016824637

weight f4 [4, 6144]
000000 e5 a4 08 3d 7f e0 14 3d a9 88 82 3d 1e f9 37 3d
       0.03336038 0.03634691 0.06373722 0.04491531
000010 91 d3 f8 3d ab cb 80 3d 40 0f 73 3e 94 65 44 3e
       0.12149728 0.062888466 0.23736286 0.19179374
000020 d6 83 a4 3e be b0 31 bd df 14 54 3e 3e d3 84 be
       0.32131833 -0.043381445 0.20711087 -0.25942415
000030 33 70 02 3e 5b 43 8e 3d a8 bb 1c be db 7f f4 bd
       0.12738113 0.06946441 -0.1530596 -0.11938449
000040 a8 9b f7 bd 55 c4 c0 bd 6e 0a 0a 3d 42 6d b5 be
       -0.12090236 -0.09412447 0.033701353 -0.3543492
000050 4f c4 d5 be 4a f4 fb bd 8e 7a c0 3d e3 7f c0 3e
       -0.41751334 -0.12302454 0.093983755 0.3759757
000060 e0 ba f8 3e d4 1a 9f 3e 26 e8 3e 3e 51 c7 b2 3d
       0.48580074 0.31075156 0.18643245 0.08729423
000070 8e 70 67 3d ee 92 19 3d 96 a7 3a bd dd 42 92 bc
       0.056503825 0.03749364 -0.04556998 -0.017854149
000080 65 10 8d 3c f4 54 ea 3c 63 00 db 3d d9 41 ca 3d
       0.017219732 0.028604962 0.10693433 0.09875841
000090 f7 39 d4 3d e5 be 6f 3e 49 57 46 3e cd de b1 3e
       0.103626184 0.23412664 0.19369234 0.34740296
0000a0 49 b3 9e 3e 3e ad 01 3f 52 3d c8 bd 45 82 d0 3c
       0.3099616 0.5065497 -0.09777321 0.025452742
0000b0 db 43 29 be a1 54 18 be 88 43 5b bb c7 a2 83 bd
       -0.16529791 -0.14876033 -0.0033457 -0.06427532
0000c0 79 00 bb bd ad 23 7a 3e 67 46 48 3c 80 a1 05 bf
       -0.091309495 0.24427672 0.0122238165 -0.52199554
0000d0 ed 7e 06 3e 6c 32 dc 3e 1e 61 c4 3e d0 3e 07 3f
       0.13134356 0.4300722 0.38355345 0.5283022
0000e0 57 91 03 3f 13 97 9a 3e 54 48 49 3e 0e 27 11 3e
       0.51393646 0.30193385 0.19656497 0.14175054
0000f0 20 2a 8d 3d 5a 0e 77 3d f6 01 13 3d 4b bd c5 bc
       0.068928 0.06031642 0.035890542 -0.024138113
000100 75 24 94 3b b3 92 3a 3d 6a 28 3b 3d 84 e3 94 3d
       0.0045209476 0.04555006 0.04569284 0.07269958
000110 75 2d dc 3d 39 b9 c4 3d 0a f5 73 3e 46 da 7e 3e
       0.10750858 0.09605641 0.23823944 0.24887952
000120 ec 2c c5 3e 95 89 9d 3e 7b a8 9b 3d 0e 9b 4d 3e
       0.38510835 0.3076903 0.076004945 0.2007868
000130 97 0b 97 be 65 74 e4 3d 7b 3b 1f be b8 48 9f bd
       -0.2950103 0.11155013 -0.15550034 -0.07777542
000140 14 b5 07 3e a2 a1 47 3d 8e 9f aa be 43 f7 b7 be
       0.1325267 0.04873813 -0.33324856 -0.35930833
000150 0e 84 83 3e ba 1f 69 3e a5 4f 07 3f 6e 6d 01 3f
       0.25686687 0.22766009 0.528559 0.505576
000160 89 4d b6 3e 1e 38 52 3e 78 cf a9 3d 34 00 f0 3d
       0.3560603 0.2052922 0.08291525 0.11718789
000170 d1 0e 9a 3d 82 a5 91 3d 63 ac 4b 3d be f9 97 bd
       0.07522357 0.07111646 0.049724948 -0.074206814
000180 35 41 81 3d 0b 94 29 3d ea 75 b0 3c 6c 68 ea 3c
       0.063112654 0.04140095 0.0215406 0.028614245
000190 8a 80 34 3d 4d 92 ab 3d 9f dc d5 3d bb 01 83 3e
       0.044067897 0.08377514 0.10442471 0.25587258
0001a0 50 57 81 3e a5 9e c8 3e 1b 9a c8 3e e2 b3 72 3d
       0.25261927 0.39183536 0.39180073 0.05925358
0001b0 30 0f da 3c 45 48 8f be 9d 73 25 be 90 8c 17 3e
       0.02661857 -0.27984825 -0.16157384 0.14799714
0001c0 45 26 71 3e e6 08 8d be 9c 82 e5 be 88 34 1f bd
       0.23549755 -0.2754585 -0.4482621 -0.038868457
0001d0 37 a6 90 3e d9 f5 10 3f d1 46 05 3f 73 eb 8b 3e
       0.28251812 0.56625134 0.5206118 0.2732807
0001e0 09 b6 13 3e af f6 06 3e 9c e0 84 3d ba b9 61 3d
       0.1442491 0.1318004 0.06488153 0.055108763
0001f0 43 9f cd 3d a0 77 bc 3c 59 14 54 bd be b6 88 bd
       0.100401424 0.02300626 -0.051777218 -0.0667548
000200 e6 b8 1d 3e f1 54 97 3d ea 28 bf 3d 99 77 aa 3d
       0.15402564 0.07389248 0.093339756 0.08323593
000210 c9 e4 8d 3c 41 07 36 3d 13 8e bc 3d 71 c7 1d 3e
       0.017321007 0.04444051 0.09206786 0.15408112
000220 6b 6c 98 3e fd 23 89 3e fe 90 b1 3e e1 77 e3 3e
       0.29770216 0.2678527 0.34680933 0.44427398
000230 c8 4b d4 bd 5c c2 1a 3c 79 bc 4d be f1 66 d7 3c
       -0.103660166 0.009445753 -0.20091428 0.026294203
000240 16 41 84 bd 7c 3f 59 be 71 52 89 bd bf 6b b3 3e
       -0.06457727 -0.21215624 -0.067051776 0.3504314
000250 bc 23 15 3f 5b d2 19 3f b1 b4 8e 3e 23 67 1b 3e
       0.5825765 0.600866 0.27872232 0.15176062
000260 e8 76 27 3e b3 4e f3 3d 4d 81 fa 3c 73 ba 4f 3d
       0.16353953 0.11880245 0.030579234 0.05071492
000270 75 c1 36 bd 8a 84 7a bd 1b 34 99 3b c0 b8 93 bd
       -0.04461809 -0.061161555 0.004675401 -0.07212973
000280 9b a4 4e bd 56 d2 8d 3d f9 b6 ee 3d 93 cf bf 3c
       -0.05044995 0.06924884 0.11655993 0.023414409
000290 31 ff b2 3d 68 aa b3 3d 63 8d 27 3d d8 01 84 3d
       0.0874008 0.08772737 0.04090632 0.06445664
0002a0 fb d4 0e 3e 3a 80 8f 3e 2f 7d bd 3e 0e e3 bd 3e
       0.13948433 0.28027517 0.3700957 0.3708729
0002b0 aa d4 b9 3d 92 c0 2e 3d f6 d0 52 be e8 cf 5e 3e
       0.090737656 0.042664118 -0.20587525 0.21758997
0002c0 3a 09 f4 bd 44 19 8a be 30 58 63 3e 8e 96 cb 3e
       -0.11915822 -0.269724 0.2220161 0.39763302
0002d0 75 48 08 3f 1b 53 92 3e b6 3a 37 3e 38 b6 2e 3e
       0.5323556 0.2857903 0.1789349 0.17061698
0002e0 bf e9 8b 3d c7 ff 00 3d 14 57 0f bb 9a 5a 7f bc
       0.06831693 0.03149393 -0.002187197 -0.015585566
0002f0 bf 6f 4f bc 04 d4 31 3c 49 2a e4 bb 7e a4 bb bd
       -0.01266092 0.010853771 -0.0069630486 -0.09162234
000300 0f 71 b1 3d fb 30 32 3e 80 00 60 bc ed dc eb 3d
       0.08664142 0.17401497 -0.013671994 0.115167476
000310 32 f6 e5 3d 29 9b 14 3d a7 10 bd 3d d1 dd a9 3d
       0.11228599 0.036280785 0.09231692 0.08294261
000320 3a 10 ae 3d 17 c2 09 3e 5d c3 9d 3e db db d4 3e
       0.08499189 0.13452946 0.30813113 0.41573986
000330 a3 d6 fa 3e e9 98 87 bd d2 07 72 3c 5e b4 6e be
       0.4899188 -0.06620962 0.014772372 -0.23310992
000340 d0 08 85 be 96 5f 10 3e 6b 7f ea 3d a7 f6 1e 3f
       -0.25983286 0.14098963 0.11450084 0.6209511
000350 ab 71 87 3e 8a f7 79 3e f3 4d 35 3e 65 cb 86 3d
       0.2645391 0.24410835 0.17705517 0.06581763
000360 11 67 3f 3d ca 4a ce bc 5d b3 86 3d 97 75 ad 3d
       0.04672915 -0.025182147 0.065771796 0.08469694
000370 8c a2 c1 3c a6 52 ea 3d 57 6b bb 3c 29 24 00 be
       0.023637079 0.11441545 0.022878332 -0.12513794
000380 db 0e 0f 3e a6 c7 3c 3d 68 05 f9 3d 5b df aa 3d
       0.1397051 0.046088837 0.12159234 0.08343383
000390 2f e4 9d 3d 5f c8 fa 3d f6 07 e3 3d f1 31 c0 3d
       0.07709538 0.12245249 0.11085503 0.093845256
0003a0 72 8c f0 3d 4a 9e ee 3d 30 8f c6 3d 85 23 8a 3e
       0.11745538 0.11651285 0.096952796 0.26980224
0003b0 62 5f da 3e c4 f2 47 bd d6 79 f7 bd 54 16 c3 3c
       0.42650896 -0.048815504 -0.12083785 0.023814358
0003c0 fc 41 2c 3e 17 87 1d be 2c f4 64 3f 28 e3 86 3e
       0.16822046 -0.15383564 0.89435077 0.2634518
0003d0 60 d3 84 3e 7c 66 5f 3d fb a4 0f 3c 4a 90 b3 3d
       0.25942516 0.054541096 0.008767362 0.08767755
0003e0 54 66 be 3d 72 60 22 3e 97 e8 b1 3d 80 9c 2b 3d
       0.09296861 0.15857103 0.08686941 0.041897297
0003f0 8c 59 09 3d 72 04 89 bd f1 6a 12 39 b8 79 0a be
       0.033532664 -0.06690301 0.00013963484 -0.13522995

bias f4 [4]
000000 84 97 09 be 2b 2b 05 be 64 9c 03 be 2f d7 05 be
       -0.13436705 -0.13004749 -0.12852627 -0.13070367
