models/R25Simple_second.pth (torch, 101151 bytes, 4 tensors)

weight f4 [8, 1, 3, 3]
000000 47 49 cd 3e a0 42 88 bd 2b 2a 0c 3f bc 33 a6 3e
       0.4009497 -0.06653333 0.54751843 0.32461345
000010 64 a0 ce 3e 3e 69 b3 be 46 d2 c5 be 2d 2a a6 3d
       0.40356743 -0.3504123 -0.38636988 0.08113513
000020 05 c6 d6 be 32 8d 2b 3f 03 c2 95 be 10 62 d3 be
       -0.41947952 0.6701232 -0.29249582 -0.41285753
000030 cd 9d b2 bf d5 04 f4 bc 54 f2 93 3e 84 ff 3c 3d
       -1.3954407 -0.02978746 0.2889582 0.046142116
000040 8e 22 41 3f 81 dc a9 3e c0 6e 7a bf 59 71 01 3f
       0.7544335 0.33176044 -0.9782524 0.5056358
000050 50 8a aa 3e 0b b4 0e bf d7 08 60 bf 13 d2 c0 3e
       0.3330865 -0.55743474 -0.8751349 0.37660274
000060 b1 a3 35 3f d0 d7 8d be 0c 07 b0 3d b9 b4 03 3f
       0.709529 -0.27703714 0.08595094 0.51447636
000070 04 72 15 bf 25 ff f9 bd a2 92 41 bf 4c 65 fd be
       -0.583771 -0.12206868 -0.7561437 -0.49491346
000080 98 bb 1d bf ca 31 4e 3e 4c 51 21 3f 12 eb 0f 3f
       -0.6161437 0.2013618 0.63014674 0.56218064
000090 6a 4c fc 3e dc cd 83 bf 52 e2 68 bf b4 54 1c 3f
       0.4927705 -1.0297198 -0.9097034 0.61066747
0000a0 34 d3 07 3e de 47 27 be c5 21 3d bf b6 89 ea 3e
       0.13264161 -0.16336009 -0.73879653 0.4580819
0000b0 9c 6b 3b 3f a7 bb b3 3e 10 6a db 3e 8f e1 4f 3e
       0.73211074 0.35104105 0.42854357 0.20300888
0000c0 61 bc 59 3e 46 78 91 be dc 01 c5 3e 5b 6a 12 bf
       0.21263267 -0.28412074 0.3847798 -0.57193536
0000d0 96 4b 06 bf 95 f0 3c bf 48 24 04 3f ac 97 0b 3f
       -0.52459085 -0.738046 0.5161786 0.5452831
0000e0 ab de 22 3f e9 57 b1 be 8b 45 e8 bd 2a 04 0b 3f
       0.63621014 -0.34637383 -0.11341389 0.5430323
0000f0 08 62 e3 be 60 12 dd be 51 e1 c9 bd 43 ee 62 be
       -0.4441073 -0.43178082 -0.09857429 -0.22161202
000100 ef 5a a4 be fd 8f 07 3f 58 da 37 3e 09 3b b7 3e
       -0.32100627 0.52954084 0.17954385 0.35787228
000110 33 bf 03 3f 07 35 93 be 74 22 ab 3e 36 57 1a be
       0.5146362 -0.28751394 0.33424723 -0.15072331

bias f4 [8]
000000 4b e0 af bc 99 80 80 3d f6 6f 25 3f 15 1e 2a 3f
       -0.021469256 0.06274528 0.64623964 0.6645215
000010 7f 2e d0 3e b4 42 0a 3f ab dc e4 bc b7 f0 eb bd
       0.40660474 0.5400803 -0.027937254 -0.11520522

weight f4 [4, 6144]
000000 24 1c 30 bd 40 e1 50 3d 84 1f c0 3c 3a 6b 7f 3d
       -0.042995587 0.050996065 0.023452528 0.06235812
000010 0f cb e8 3d d1 72 d4 3d e3 99 60 3e c8 d3 cb 3e
       0.11366855 0.10373462 0.21933703 0.39810014
000020 c8 c0 3a 3f d6 44 bc 3e d0 75 52 bd 5f d3 b8 3d
       0.7295041 0.36771268 -0.051381886 0.09024691
000030 0a e0 f9 bd e0 c2 95 bd ff 15 16 be 8d 9c 13 be
       -0.12200935 -0.0731256 -0.14656828 -0.14415188
000040 a6 49 a5 bc 69 d4 45 bc cd e9 09 be 11 0e cc 3c
       -0.02017672 -0.012074568 -0.13468094 0.024909051
000050 8e b3 04 be 87 d7 50 bd 3a 71 38 3d a9 99 03 3e
       -0.1295912 -0.050986793 0.045029856 0.12851585
000060 d6 34 89 3e e2 a7 38 3e 45 7c e6 3d fd 6c bd 3d
       0.26798123 0.18032792 0.11254171 0.092493035
000070 20 8e 98 3d de ca 26 3d cf ed 8f 3c 62 a0 4d 3c
       0.07448983 0.040720813 0.01756945 0.012550445
000080 09 49 da bc e6 b0 01 3c c3 03 31 3d d1 7c 93 3d
       -0.026646154 0.007915711 0.043216478 0.07201541
000090 42 bb 7c 3d df 80 0b 3e 6d 07 51 3e e0 aa ca 3e
       0.06170202 0.13623379 0.20412989 0.39583492
0000a0 92 2d 2b 3f 19 8a 34 3e a3 1d ba 3e 88 3c 5f 3c
       0.6686641 0.17630805 0.36350736 0.013625272
0000b0 b1 fb 11 be 5c b1 f7 bd 14 e3 1c be f0 71 c7 bd
       -0.14256169 -0.120943755 -0.15320998 -0.09738529
0000c0 71 7a 1a bc 73 2e 97 bd db 6a 87 bd c0 72 42 be
       -0.009428606 -0.07381906 -0.06612178 -0.18989086
0000d0 11 26 3b be 4e 89 25 be 10 98 50 3d f0 c9 6f 3e
       -0.1827624 -0.16165659 0.050926268 0.23416877
0000e0 d2 49 90 3e 68 b3 0a 3e f8 18 03 3e 1c 11 a7 3d
       0.2818132 0.13545 0.12802494 0.0815756
0000f0 4a 2f 51 3d dc d7 a5 3d c9 47 c9 3c 27 2b 3e bd
       0.05107049 0.080978125 0.024570363 -0.046427872
000100 79 58 82 bc 02 18 c9 3c 48 95 84 bb 89 e5 e3 3c
       -0.015911328 0.02454758 -0.004046116 0.027819412
000110 3f 61 62 3d 78 ea 54 3d 07 f5 f1 3d 40 a7 5b 3e
       0.055268522 0.05198142 0.118143134 0.2145052
000120 89 27 d7 3e 99 03 47 3f d1 88 b2 3e 87 74 db bb
       0.4202235 0.77739865 0.34870008 -0.0066972408
000130 2c 42 19 3d 52 fa 85 be fe 68 d2 bd 76 19 22 3d
       0.037416622 -0.26167542 -0.10273932 0.039575063
000140 04 ab 12 3c 77 7a e7 bd ab a1 29 be fb 3a b5 bd
       0.008951906 -0.11302655 -0.16565578 -0.0884914
000150 97 3c bd bd 29 88 c0 3d d1 49 6e 3e cd cd 6e 3e
       -0.09240072 0.094009705 0.23270346 0.23320694
000160 d0 f4 27 3e 76 d0 f8 3d a9 47 92 3d ee 95 9c 3d
       0.16401982 0.12149136 0.07142574 0.07645784
000170 84 30 40 3d 78 81 40 bc 7c ed 40 bd b2 b2 2d bd
       0.046921268 -0.011749618 -0.047101483 -0.042406745
000180 ff 39 41 bc fc b6 f1 bc e0 df be bc 48 d6 e5 bb
       -0.0117936125 -0.029506199 -0.023300111 -0.0070140697
000190 a8 a2 bc 3c 64 97 3a 3d 82 45 c8 3d 43 ff db 3d
       0.02302678 0.045554534 0.097788826 0.10742047
0001a0 fa 9d 57 3e b0 45 fa 3e 52 c1 82 3e d9 b3 e8 3e
       0.21056357 0.48881292 0.25538117 0.45449713
0001b0 2b 9a 97 bd 84 0d 31 be 37 78 00 be 45 35 5b bd
       -0.07402452 -0.17290312 -0.12545858 -0.0535176
0001c0 17 c3 8b bc 2f 5a 86 bd 72 11 46 be 44 0c 17 be
       -0.0170608 -0.0656017 -0.19342592 -0.14750773
0001d0 57 af 02 3e aa 34 67 3e 08 d3 6d 3e 2e aa 03 3e
       0.127622 0.22578683 0.23225033 0.12857887
0001e0 17 b3 be 3d f4 bd c9 3d 64 3c 89 3d 88 00 a3 3c
       0.093115024 0.09850684 0.06700972 0.019897714
0001f0 1f 39 20 3b 0b 2a fc ba fb 34 79 3c 9e 51 77 bc
       0.002444811 -0.0019238604 0.015210385 -0.015095143
000200 6b b5 f8 bc 55 46 ee bc 26 84 ef ba 30 e3 6d bb
       -0.030359944 -0.029086271 -0.0018273636 -0.0036298744
000210 cc 00 19 bd 7e 77 a4 3c 80 93 4c 3c f3 eb fb 3d
       -0.037354276 0.02007651 0.012486339 0.12300863
000220 5e 52 19 3e 4f b6 9d 3e bf 61 0c 3f 2d 17 bb 3d
       0.14972827 0.30803153 0.5483665 0.0913528
000230 a9 ed 99 3c 1a 74 1a 3e 10 92 42 be 1c 23 e4 3b
       0.018790083 0.15083352 -0.19001031 0.006962193
000240 35 7c 65 3a c3 dd 32 be b8 c6 31 be 6a 3c d2 bc
       0.0008754165 -0.17467408 -0.17360961 -0.025663573
000250 bc 47 0e 3e 27 f5 7c 3e 79 af 16 3e 52 ba fa 3d
       0.13894552 0.24702893 0.14715375 0.12242569
000260 f8 c4 c8 3d 0f aa 9a 3d ba bf 17 3c 6a f8 0f bc
       0.09803194 0.07551967 0.00926202 -0.008787254
000270 20 b5 84 bc e1 90 5e 3c 49 0d 14 bc 88 36 9e bc
       -0.016199648 0.0135843465 -0.009036371 -0.019313112
000280 96 40 88 bd 74 56 89 bb bc ff 0f bd 04 b6 b7 bc
       -0.06652944 -0.004191214 -0.035155997 -0.022425659
000290 f7 88 b1 bb b6 82 da bc 99 5e 97 bc 84 f1 c6 3c
       -0.005417939 -0.026673656 -0.018477725 0.024285085
0002a0 84 d9 71 3d 65 b5 38 3e 70 d7 ba 3e 42 48 01 3f
       0.05904533 0.18037947 0.3649249 0.5050088
0002b0 3b 82 9b 3e bf 26 26 3d 82 6e b5 bc 91 8d a9 bc
       0.30372795 0.040564295 -0.02214742 -0.020697387
0002c0 e5 21 2e be bd ae 8b bd 68 0e 8e 3d 13 0d 1a 3e
       -0.17005117 -0.06820438 0.069363415 0.1504405
0002d0 9a 0d 32 3e 2f 4f 12 3e 08 3b a7 3d 60 a1 a3 3d
       0.17388001 0.14288019 0.08165556 0.07989764
0002e0 aa 02 07 3d d2 4b 67 bb 48 73 9c bc fc d8 14 bd
       0.032961525 -0.0035292995 -0.01909794 -0.036339745
0002f0 4b c2 3f bc b9 a1 40 3c 9b d8 4f 3c 79 ce 4b bd
       -0.011704038 0.011757308 0.01268592 -0.049757455
000300 11 bc b5 3d 48 4f 06 3d 3b e7 db bb 24 35 e4 bc
       0.088737614 0.032790452 -0.0067109144 -0.02785737
000310 28 d5 b6 bc 66 d8 d8 bb 1b 24 26 3b 15 1b 0a bc
       -0.022318438 -0.0066175936 0.002535111 -0.008429308
000320 01 aa e9 3c 64 11 63 3d e3 4c a5 3d 75 1f bb 3e
       0.028523447 0.055436507 0.080713056 0.36547437
000330 d8 a1 6f 3e 9a 67 e9 bc 43 3d 1e 3e d2 fe 4e be
       0.23401582 -0.028491784 0.15453057 -0.20214394
000340 38 ab 8d be f3 2d ed 3c 78 a3 99 3e a6 b3 9a 3e
       -0.27669692 0.028952574 0.3000753 0.30215186
000350 2b 35 13 3e 2f 33 75 3d 10 9c b2 3d d6 18 f8 3c
       0.1437575 0.059863266 0.08721173 0.03028528
000360 ab 7e 19 bd 31 84 c0 bc ce 57 c7 3c 80 a1 8d 3c
       -0.037474316 -0.023500534 0.02433386 0.017288923
000370 9e 6a 76 bc 86 4b d1 bc 95 04 a9 bd 4a e7 07 bd
       -0.015040068 -0.025548708 -0.08252827 -0.03317956
000380 e6 98 80 be ae 97 c4 bc 3d 94 28 3d 8f f3 0b bc
       -0.25116652 -0.023998108 0.041156996 -0.008541956
000390 25 b3 81 3d 2d b2 18 3c 6a 95 19 bd fa 82 d7 bb
       0.06332997 0.009319824 -0.037496008 -0.006576893
0003a0 d1 c4 67 3d 3f 62 c9 bd 06 ff 7a 3d 80 3c 95 3e
       0.056584183 -0.09833192 0.061278366 0.2914772
0003b0 6c e7 dd 3e 99 cf ad 3e 3b 79 80 3d e0 81 32 be
       0.43340623 0.33947447 0.06273123 -0.17432356
0003c0 80 dc ad 3c 57 ff 13 3e cd e8 a2 3e 2a ed 8a 3e
       0.021223307 0.14452873 0.31818238 0.27134067
0003d0 05 aa 1f 3e e9 71 de 3d 0b f3 56 bd 99 2b 6e bd
       0.15592201 0.108615704 -0.052477878 -0.058147047
0003e0 03 82 80 bb b1 9f 8f 3c 26 f5 55 3d ef 80 04 bd
       -0.0039217486 0.017532201 0.052235745 -0.032349523
0003f0 d7 74 b5 bb ec 27 ec bc d4 b0 a7 3d a6 25 a8 3d
       -0.00553761 -0.02882763 0.08188024 0.08210306

bias f4 [4]
000000 9d eb a5 bd db d6 04 be 17 4c 8d bd 67 e9 7e bd
       -0.0810158 -0.12972586 -0.068992786 -0.06223431
