models/R25Simple_third_high.pth (torch, 101151 bytes, 4 tensors)

weight f4 [8, 1, 3, 3]
00000000: 01a0 5f3f 9aed 283f 05dd a13f a753 b03f
00000010: e557 a73f 0138 eabe 9f89 86bf 02ee f9be
00000020: f148 29bf 4e63 103f 2c32 0c3e 08f2 04be
00000030: 1c7d f1be 440f 673e 808f 7f3e ba6b 6bbe
00000040: 616f ec3e baef 873e 0117 5cbe d83f d43f
00000050: 0634 b53f 84b3 16bf 4543 2ebf 8139 313f
00000060: cd8f d73e 7868 0ac0 4389 c9bf 7757 0140
00000070: a4ec 79be 0641 9cbe 978c c3bf d272 cebf
00000080: 9b22 46bf e2b1 62bd 1f19 a83e af4b e03e
00000090: 94cc 9c3f 03d2 9f3c 6893 bebc 1daa 0440
000000a0: b619 173f c7f0 bbbf 0b52 6ac0 2987 223f
000000b0: 65ff f13f 8aec 683f ecc3 933f b55d 093f
000000c0: f70e 543f 7bad 833e c8c0 233f 3f51 bfbe
000000d0: 2758 47bf eaeb 0ebf 720d 3240 9cf9 3f40
000000e0: de09 1240 a2c2 e43d e384 b2bf 7f17 0d3f
000000f0: 68f8 39c0 3770 4fc0 8766 0dc0 4207 14bc
00000100: 704a c23c cf45 1f3f 5cca 2d3f 6f7d 713f
00000110: 3d12 733f e334 0bbc 1e44 023f daa6 d3be
0.8735352 0.6598755 1.2645575 1.3775529 1.3073698 -0.45745853 -1.0510749 -0.48814398
-0.66126925 0.56401527 0.13691014 -0.12982953 -0.47165763 0.22564417 0.24957085 -0.22990313
0.46178725 0.26550084 -0.2149315 1.6581984 1.4156501 -0.5886767 -0.68071395 0.6922837
0.421019 -2.1626263 -1.5745014 2.0209634 -0.24406677 -0.3051836 -1.527728 -1.612879
-0.77396554 -0.055345424 0.32831666 0.43807742 1.2249932 0.019509321 -0.023263648 2.072883
0.59023607 -1.4682854 -3.6612575 0.6348749 1.8906065 0.9098593 1.1544166 0.5365861
0.82835335 0.25718293 0.63966036 -0.37366673 -0.77868885 -0.55828726 2.7820706 2.99961
2.2818522 0.11169936 -1.3946804 0.5511398 -2.9057865 -3.241224 -2.2093828 -0.0090349335
0.023717135 0.62215894 0.678869 0.9433202 0.94949704 -0.008496496 0.5088519 -0.41338235

bias f4 [8]
00000000: 1229 a9b9 62dd d13a d6f5 843f f762 d23f
00000010: a351 203b ddfd d13a 6968 823f 89bd a5b8
-0.00032264792 0.0016011412 1.0387523 1.6436452 0.0024462722 0.0016021092 1.0188113 -7.903117e-05

weight f4 [4, 6144]
00000000: 70cf 0e3e 4f71 dc3d bdcf ae3d ebdb 893d
00000010: 37a6 e33d 6989 c53d 88bc ce3d 365c 063e
00000020: f01b 613e 7497 c83e 2eb8 8e3e bd17 8bbd
00000030: 0de5 4bbe 4227 cfbd 4981 b2bd 3952 ecbd
00000040: fd4d 313b 0b1d 913c 468b 0fbc 7b7b 17bd
00000050: 7cc4 143d 0139 973d b084 043e 4579 e63d
00000060: 6d25 a03d 08c4 843d ced2 413d 57b7 6d3d
00000070: bba1 233d 20be 2b3d 02fd 633d fa99 e73d
00000080: 5345 bd3d acd6 193e 083d eb3d f3dd c03d
00000090: 344b a83d 40ca be3d 0ca9 f63d 88cc 093e
000000a0: 3333 513e 24db 943e 56e1 c13e d0fb e03a
000000b0: 2ba3 bfbe 46b5 2dbe bc56 d2bb 85c8 adbd
000000c0: 84f6 2bbd ba0b d73c b831 55bd bf6a 15bd
000000d0: f6cd 663d 0184 2c3e 1b75 083e 9230 d73d
000000e0: 0124 ab3d 734e 673d c71c 7c3d fb22 0e3d
000000f0: 70a0 353d 3bf4 a73d dd12 383d 5c31 693d
00000100: 0696 c63c db66 8d3a 76e9 eb3d a000 0d3e
00000110: a504 b93d fb31 b73d 851d ed3d 2d22 123e
00000120: 98ac 213e c00b 693e d507 a63e cfdf 893e
00000130: 7aa5 55bd 9917 90be c568 bcbd 8d83 013c
00000140: d19d c7bd cb84 27bd 81b6 08bc 010e 3b3d
00000150: 038d 823d 9e47 013e 30ac c73d 5961 8b3d
00000160: 5fa1 af3d 1217 853d e1b9 c53c 79f0 6a3d
00000170: 5ae1 7b3d b851 793c f839 c13d fd98 2f3e
00000180: 272f bc3e 52a1 1d3e 358e 3f3d e2f4 cdbc
00000190: 948c e63d a193 c73d 113e be3d c3b5 c43d
000001a0: 8be8 193e 9015 2e3e e39d 963e 6dba 983e
000001b0: c22e 8cbc 1278 94be 6160 34be 56fa 21bd
000001c0: b802 96bd c9ad dbbd 2a66 9b3c 3578 d43d
000001d0: bac5 0c3e cdb3 bd3d 3391 8e3d 29ad b33d
000001e0: a5ba 1a3d 8e34 193d cffa 643d 71d8 ef3c
000001f0: 91e9 c63c 1f54 013e d00e 2b3e 48ad dd3d
00000200: 85dd 44bd 761d 463e 0f09 c93e f4d9 0f3e
00000210: b102 563d ef17 ae3c 02c3 1f3e dc89 cb3d
00000220: 1171 0c3e f861 2b3e 1d8b 683e fc90 793e
00000230: 67d5 803e 8273 72bd 90f1 76be 5716 1abe
00000240: 628f 73bd 36c9 02bc d0d2 83bb f584 0a3e
00000250: 795e e03d d8a8 d93d 8be2 ae3d ace7 5a3d
00000260: ee1a 8f3d 51d5 803d f935 ff3a 1cbb 943c
00000270: ad50 d53d 230e c93d eab3 a2bb ffa5 be3d
00000280: 45bb 75be ddc2 72be 490b d1bb 8a08 593e
00000290: 6caf b83e dd8d f53c 39f8 503d cc87 aebb
000002a0: 5ec9 2b3e 2334 e63d 4458 463e 6a01 613e
000002b0: 0240 903e 32f0 d9bc 8519 70be ea1a 57be
000002c0: 9808 ae3c e71d 563d d0a9 ee38 800c 623d
000002d0: aa6b c93d fb67 c53d a57a 6d3d 973c 453d
000002e0: 1064 133c fdc2 b4bc f33a 2d3c d9fc 013d
000002f0: 24c3 8e3d 76ed 9a3e f36b e83e e834 273e
00000300: 67b2 743e 2d56 0c3e 05d2 65bc 15d5 c3bd
00000310: 2621 dc3d 0d42 703e 92d6 b73e 1f6a a6bc
00000320: d13b 963c 84d5 a53c 36a5 073e 2633 323e
00000330: aee5 5c3e 4b08 413e 7c4b 2cbe 3d5d 5bbe
00000340: 8486 4ebd 326e 323d e015 303b b6c3 073b
00000350: c0cd c23b b3e7 cc3d 7d4e b53d 0b7e 59bd
00000360: b857 e9bd 426f 9d3c ac8a 843e e420 d03e
00000370: 6f0f e63e 7a3c 1a3e b49a f2be 4c3a 9cbe
00000380: e6b6 1ebe 1e04 4abe 0e8f f2bb c038 b13d
00000390: 2eb8 b2bb d191 123e 000f 783e 59d2 9c3e
000003a0: b0ec 6d3e 7c1e d6bc 925b 3bbd c93f 2b3d
000003b0: d97f 1f3e 9798 873e 915b 653d e0e7 eebd
000003c0: 344b f0bd 1db2 8fbd 4dab f63d 904d e73c
000003d0: 931b a13d 9595 40bd 1764 a1be 675e 56be
000003e0: c33a 9c3e 2ed6 0c3f d435 f73e ca98 043e
000003f0: a42d 18bf a924 f1bd bb43 603e d067 333e
0.13946319 0.107637994 0.08535717 0.06731399 0.11115687 0.096453495 0.10094553 0.13121113
0.21983314 0.3917805 0.27874893 -0.06791637 -0.19911595 -0.1011491 -0.087160654 -0.1153912
0.0027054541 0.017714044 -0.008761233 -0.036982995 0.036320195 0.073839195 0.12941241 0.11253599
0.078196384 0.064827025 0.04732018 0.058036175 0.03994916 0.041929364 0.05566121 0.113086656
0.09241738 0.15023297 0.1148625 0.094173335 0.08217469 0.0931592 0.12043962 0.13456929
0.20429687 0.2907344 0.3786723 0.001716489 -0.37429175 -0.16963682 -0.006419031 -0.08485512
-0.041983142 0.026250709 -0.05204937 -0.036478754 0.056348763 0.1684723 0.13325922 0.10507311
0.083564766 0.0564713 0.06155088 0.03470133 0.04434246 0.0820088 0.044939864 0.05693184
0.024241459 0.00107881 0.115191385 0.1376977 0.09034089 0.0894508 0.11577896 0.1427085
0.15788496 0.22758389 0.3242785 0.26928565 -0.052159764 -0.28143004 -0.09199671 0.007904899
-0.09746898 -0.040898126 -0.008344294 0.045667652 0.06374552 0.12624976 0.09749639 0.06805677
0.08575701 0.06498541 0.024136486 0.05735824 0.06149421 0.015217237 0.09434885 0.17148204
0.36754724 0.1539357 0.04676648 -0.025141183 0.11257282 0.09744955 0.09289182 0.09604981
0.15030114 0.17000413 0.29417333 0.29829732 -0.01711214 -0.28997856 -0.1761489 -0.03954538
-0.07324737 -0.10726506 0.018969614 0.1037449 0.13747302 0.0926281 0.06961288 0.08773262
0.037775654 0.037403636 0.055903252 0.029278012 0.024281295 0.12629746 0.1670487 0.108240664
-0.04806282 0.19347176 0.39264724 0.14047986 0.05224866 0.021251647 0.15601733 0.09938404
0.13715006 0.16736591 0.22709318 0.24371713 0.25162813 -0.059192188 -0.24115586 -0.15047584
-0.059462912 -0.007982543 -0.0040229335 0.13527282 0.10955519 0.106279075 0.085393034 0.053443596
0.06987558 0.06290687 0.0019471041 0.018155627 0.10415778 0.098171495 -0.004965295 0.09309005
-0.23997219 -0.23707147 -0.006379519 0.21194664 0.36071336 0.029974872 0.051017974 -0.005326247
0.16776034 0.11240413 0.19369608 0.21973196 0.28173834 -0.026603792 -0.23447235 -0.2100636
0.021244332 0.05227461 0.000113803544 0.055187702 0.098349884 0.09638973 0.05797829 0.048153486
0.008996025 -0.022065634 0.010573137 0.031735275 0.06970814 0.30259293 0.4539486 0.16328776
0.2389618 0.13704748 -0.014027123 -0.095621265 0.1074851 0.23462696 0.35905892 -0.020314274
0.01833907 0.020243414 0.13246617 0.17402324 0.21571991 0.1885082 -0.1682567 -0.21422286
-0.050421253 0.04356212 0.0026868507 0.0020716018 0.0059449375 0.100051306 0.08852861 -0.05309872
-0.11393684 0.01921809 0.25887048 0.40650094 0.4493365 0.15062132 -0.47383654 -0.30513227
-0.15499458 -0.19728133 -0.0074023074 0.08653402 -0.005454085 0.14313437 0.24224472 0.30629233
0.2323482 -0.026137583 -0.045741625 0.041808877 0.15576114 0.26483604 0.055995528 -0.116653204
-0.11733094 -0.07016394 0.12044392 0.028235227 0.078665875 -0.047017653 -0.31521675 -0.20934449
0.30513582 0.5501431 0.48283255 0.1294891 -0.5944464 -0.117745705 0.21900837 0.1752007

bias f4 [4]
00000000: b27a b63c b555 e63c f22f 12bd 0920 bcbb
0.022275303 0.02811704 -0.035690255 -0.0057411236
