models/R25Simple_third_low.pth (torch, 101151 bytes, 4 tensors)

weight f4 [8, 1, 3, 3]
0	0x3f375f25	0.71629554
1	0x3ed64194	0.41846907
2	0x3f7de3e5	0.99175864
3	0x3f83e6f0	1.0304852
4	0x3f811dca	1.0087216
5	0xbed41844	-0.41424763
6	0xbf4a5c85	-0.79047424
7	0xbe8a2a21	-0.26985267
8	0xbf14dd6e	-0.58150375
9	0x3ee87c3e	0.4540729
10	0x3dc31435	0.095253386
11	0xbcd7cd8f	-0.026343135
12	0xbec38639	-0.3818834
13	0x3e0c647b	0.13710205
14	0x3e527c3a	0.20555201
15	0xbae8ac69	-0.0017751578
16	0x3ee3c890	0.44488955
17	0x3e1872ca	0.14887539
18	0xbe9e20c4	-0.30884373
19	0x3f5b38f9	0.8563381
20	0x3f2e72da	0.68144
21	0xbeaa8639	-0.3330553
22	0xbeea6a7c	-0.45784366
23	0x3eb9b476	0.36270493
24	0x3eb14f9e	0.34631056
25	0xbf88ab56	-1.0677288
26	0xbf246d7f	-0.6422958
27	0x3f8defed	1.1088845
28	0xbe9c3364	-0.30507958
29	0xbeaaf55f	-0.33390328
30	0xbf6cca1e	-0.92495906
31	0xbf3c0dcd	-0.7345856
32	0xbf16d82d	-0.5892361
33	0x3d51eb6f	0.051249918
34	0x3eb0e6c0	0.34551048
35	0x3e90b11d	0.28260127
36	0x3f22450d	0.63386613
37	0xbea49638	-0.32145858
38	0xbd5958fd	-0.05306338
39	0x3f83e8ec	1.0305457
40	0x3eacc48a	0.33743697
41	0xbeeee82b	-0.46661505
42	0xbfd91b83	-1.6961521
43	0x3e29780b	0.16549699
44	0x3f3a4797	0.7276549
45	0x3f2305c9	0.636807
46	0x3f453378	0.7703166
47	0x3e9a8cb3	0.3018547
48	0x3f065eda	0.5248848
49	0xbc803ff4	-0.015655495
50	0x3ed83bfc	0.42233264
51	0xbe8de0ab	-0.2771047
52	0xbf06b9ae	-0.52627075
53	0xbee63cf1	-0.4496837
54	0x3fe3cda0	1.7797127
55	0x3ff5b845	1.919686
56	0x3fbdb331	1.482031
57	0xbd0266a1	-0.031836156
58	0xbf556bf1	-0.8336783
59	0x3ef0fc23	0.47067365
60	0xbfdc26e6	-1.7199371
61	0xbff575a1	-1.9176522
62	0xbfb71729	-1.4303943
63	0xbc3b7957	-0.011442504
64	0xbbe79078	-0.0070667826
65	0x3f0c414d	0.5478714
66	0x3eee977b	0.46599945
67	0x3f2cea0d	0.67544633
68	0x3f381d75	0.7191995
69	0xbe05223b	-0.13001339
70	0x3eda8e3c	0.4268664
71	0xbe994743	-0.2993718

bias f4 [8]
0	0x3ba0a214	0.0049021337
1	0x3b3efaf0	0.002914127
2	0x3f139245	0.57645065
3	0x3f85352c	1.0406852
4	0xbb125f06	-0.002233447
5	0x3b7e27c0	0.0038781017
6	0x3e9e3dae	0.30906433
7	0x3b50306a	0.0031767138

weight f4 [4, 6144]
0	0x3dca9d2a	0.09893258
1	0x3de1819c	0.11011049
2	0x3dbbaa85	0.091633834
3	0x3d8a56bc	0.067548245
4	0x3dcadb67	0.09905129
5	0x3dd682d6	0.10474174
6	0x3dde5c6c	0.10857472
7	0x3e203019	0.15643348
8	0x3e9184c5	0.28421608
9	0x3ee2c7cc	0.44293058
10	0x3e919245	0.28431907
11	0x3cb20c05	0.021734247
12	0xbd89a319	-0.067205615
13	0xbd6c3cea	-0.05767528
14	0xbd763d6c	-0.06011717
15	0xbd57febc	-0.052733168
16	0xbd0ca00e	-0.034332328
17	0xbc86291a	-0.01637702
18	0xbc8eeac1	-0.017445924
19	0xbd07db2d	-0.033168007
20	0xbce029d0	-0.027363688
21	0x3cedb458	0.029016659
22	0x3dd35e7e	0.10320757
23	0x3d8c1157	0.06839245
24	0x3d2072b3	0.039171886
25	0x3d05d348	0.032672197
26	0x3cab4f4f	0.02091184
27	0x3cd52419	0.02601819
28	0x3c5e637b	0.013573523
29	0x3b8419e6	0.0040314076
30	0xbc2bd31f	-0.010487347
31	0x3d28a7ca	0.04117564
32	0x3d1bb683	0.038015854
33	0x3db99305	0.09061245
34	0x3dcd3c6f	0.100212924
35	0x3dd41cb4	0.10357037
36	0x3db1757b	0.08664986
37	0x3dc8270d	0.09773073
38	0x3e0b277c	0.13589281
39	0x3e180a15	0.14847596
40	0x3e852732	0.26006466
41	0x3eb4cf89	0.35314587
42	0x3ed36adb	0.41292462
43	0x3dbd00bb	0.09228655
44	0xbe4fa2fe	-0.2027702
45	0xbd9572d8	-0.07297295
46	0xbd4c8aed	-0.049937177
47	0xbd424dd3	-0.0474375
48	0xbd1fec66	-0.039043806
49	0xbcae12e2	-0.021249238
50	0xbd245d57	-0.04012808
51	0xbd670971	-0.05640549
52	0xbc9e59b0	-0.019329876
53	0x3ddbba5b	0.10728904
54	0x3dba08ba	0.09083696
55	0x3d86b911	0.06578267
56	0x3d4f2a31	0.050577346
57	0x3cde2ec9	0.027121918
58	0x3cef11f8	0.029183373
59	0x3c09a892	0.008402007
60	0x39a0c9eb	0.0003066802
61	0x3bba0c0c	0.0056777056
62	0xbbba3cc9	-0.0056835157
63	0x3d4be079	0.04977462
64	0x3d7f8c58	0.0623897
65	0x3c72c706	0.014817959
66	0x3d4fc4dd	0.050724853
67	0x3dc9d2c9	0.09854657
68	0x3dbcd8c2	0.09221031
69	0x3db20313	0.086919926
70	0x3dd03e26	0.10168104
71	0x3e139ac2	0.14414504
72	0x3e312381	0.172987
73	0x3e902813	0.28155574
74	0x3ecb53fa	0.39712507
75	0x3e9e3438	0.30899215
76	0x3d8e222c	0.069401115
77	0xbe353f01	-0.17699815
78	0xbd7c600d	-0.06161504
79	0xbd542642	-0.051794298
80	0xbd3dac1c	-0.046306714
81	0xbd09b840	-0.03362298
82	0xbd2836fa	-0.041068055
83	0xbca2a14b	-0.019852301
84	0x3d313cab	0.043270748
85	0x3dd220d0	0.10260165
86	0x3d71d29f	0.059038755
87	0x3d17a1eb	0.03701965
88	0x3d365bb8	0.044521064
89	0x3cf7770d	0.030208135
90	0x3b326989	0.0027223548
91	0x3c5cb829	0.013471642
92	0x3b904875	0.004403169
93	0xbbfe692b	-0.007764002
94	0x3d3fc719	0.046820734
95	0x3dbd2213	0.09235015
96	0x3ea4fb4d	0.32222977
97	0x3e36f418	0.17866552
98	0x3d927bf6	0.0715255
99	0xbcec2997	-0.028828425
100	0x3d60f2f2	0.05491919
101	0x3dbc2bf9	0.091880746
102	0x3dd28422	0.102791086
103	0x3dbfe435	0.09369699
104	0x3e108971	0.1411493
105	0x3e37e07e	0.1795673
106	0x3ea98ad1	0.3311372
107	0x3ec216cc	0.37908018
108	0x3d39fae5	0.045405287
109	0xbe018fef	-0.12652563
110	0xbda67bce	-0.081290826
111	0xbd771070	-0.06031841
112	0xbd6b89c2	-0.057504423
113	0xbd7bf25e	-0.061510436
114	0xbd7807c8	-0.060554296
115	0x3d1e01a8	0.0385758
116	0x3df23d48	0.11828095
117	0x3d839f78	0.064269006
118	0x3d0c47fb	0.034248333
119	0x3cdfae91	0.02730492
120	0x3bc5d9a5	0.006037908
121	0x3cb180b9	0.021667825
122	0x3aa8a900	0.0012867749
123	0xbc67b670	-0.014142618
124	0x3b34caa0	0.0027586594
125	0x3d6bd9bc	0.057580695
126	0x3dc7a806	0.09748845
127	0x3d4b67dd	0.0496596
128	0x3c9e6093	0.01933316
129	0x3e26e438	0.16297996
130	0x3eb735cf	0.3578324
131	0x3e1c61c9	0.15271677
132	0x3d9600ed	0.07324395
133	0xbb93dd7e	-0.004512488
134	0x3de48e6a	0.11159976
135	0x3ddac320	0.106817484
136	0x3e027ff8	0.12744129
137	0x3e1a0332	0.15040281
138	0x3e678ad5	0.22611554
139	0x3e8e3fdc	0.27783096
140	0x3ea1253b	0.31473717
141	0x3c955038	0.018226728
142	0xbe272b7d	-0.16325183
143	0xbda60a76	-0.08107464
144	0xbd970103	-0.0737324
145	0xbd851bc5	-0.06499437
146	0xbd392f9b	-0.045211416
147	0x3d952163	0.07281759
148	0x3d9c2609	0.07624442
149	0x3d74cff6	0.05976864
150	0x3cd65fc0	0.026168704
151	0x3cb69cf2	0.022291634
152	0x3d0767f3	0.033058118
153	0x3c8a44bc	0.016878478
154	0xbd3e04fa	-0.046391465
155	0xbc1503f1	-0.009095178
156	0x3d2b4037	0.041809287
157	0x3d429ab4	0.047510818
158	0xbd2df81b	-0.04247294
159	0x3d9219ce	0.07133828
160	0xbe558c29	-0.20854248
161	0xbe03fa66	-0.12888488
162	0x3d703bbd	0.05865072
163	0x3e560c5c	0.20903152
164	0x3ea65479	0.32486323
165	0x3d3f09bf	0.046640154
166	0x3d4e7c20	0.050411344
167	0xbc5795ca	-0.013158271
168	0x3e113018	0.14178503
169	0x3de55f99	0.111998744
170	0x3e2c95ee	0.16854069
171	0x3e68c2a3	0.22730498
172	0x3ea29798	0.31756282
173	0x3d73d29d	0.05952703
174	0xbdba3f36	-0.09094088
175	0xbdbf073f	-0.09327554
176	0xbd6e69b3	-0.05820627
177	0xbd1c52b8	-0.038164824
178	0x3bc40eff	0.005983233
179	0x3d3adec9	0.04562262
180	0x3d01f02f	0.031723198
181	0x3d0c08c9	0.034188066
182	0x3d25de19	0.040495012
183	0x3c406f09	0.011745223
184	0xbd3106b4	-0.043219283
185	0xbd4b7fb8	-0.04968235
186	0xbcb6a573	-0.02229569
187	0xbd3003f7	-0.04297253
188	0x3cdb5a7a	0.026776541
189	0x3e8e41c2	0.27784544
190	0x3effbfcc	0.49951017
191	0x3e7c1e08	0.24620831
192	0x3df79ae3	0.12090089
193	0x3b3807fb	0.0028080929
194	0xbdebeca5	-0.11519746
195	0xbdc244e7	-0.09485798
196	0x3e08f72c	0.13375539
197	0x3e5ef5e8	0.21773493
198	0x3e9b0f49	0.302851
199	0x3cb76893	0.022388732
200	0x3cd057ed	0.025432551
201	0x3c6096c4	0.01370782
202	0x3df4cbb2	0.11952914
203	0x3e19d88f	0.15024017
204	0x3e4e44a3	0.2014337
205	0x3e7bad09	0.24577726
206	0xbd137e7f	-0.036009308
207	0xbdea0bd1	-0.11428035
208	0xbdc03bd9	-0.09386415
209	0xbd50518c	-0.05085902
210	0xbb3af8ad	-0.002852957
211	0x3c846267	0.016160203
212	0xbba3be76	-0.00499707
213	0x3d652b34	0.055949405
214	0x3cf00ff9	0.029304491
215	0xbd9f0049	-0.07763726
216	0xbe03e181	-0.12878992
217	0xbd537f1a	-0.051634885
218	0x3e498cb3	0.19682579
219	0x3ec8a982	0.39191824
220	0x3ef036a8	0.469167
221	0x3e3c7fc1	0.18408109
222	0xbed159c7	-0.40888807
223	0xbead95fd	-0.33903494
224	0xbe1ad9e0	-0.15122175
225	0xbe65439f	-0.22389077
226	0xbd15451d	-0.036442865
227	0xbaa10a4a	-0.0012286392
228	0xbdba404b	-0.09094294
229	0x3d3c4972	0.04596848
230	0x3e3e1426	0.18562374
231	0x3e74f62d	0.23922034
232	0x3e4de3a4	0.2010637
233	0x3cb7d4e5	0.022440383
234	0xbbc938ca	-0.006140803
235	0x3d0a63cf	0.03378659
236	0x3e26472c	0.16238087
237	0x3e6d192e	0.23154137
238	0x3d27f730	0.04100722
239	0xbd12ab7a	-0.035808064
240	0xbda46ade	-0.08028196
241	0xbdb72442	-0.089424625
242	0xbc458c47	-0.0120573705
243	0x3cfc08a7	0.030765845
244	0x3d2639b1	0.040582363
245	0xbd7b00cf	-0.061280068
246	0xbe84f979	-0.25971583
247	0xbe68dbb5	-0.22740062
248	0x3e7d9fb0	0.24767947
249	0x3eea41d5	0.4575335
250	0x3ed8a026	0.42309684
251	0x3dea54d0	0.11441958
252	0xbeeceed4	-0.4627596
253	0xbe431430	-0.1905067
254	0x3dcdc36d	0.1004704
255	0x3db73f79	0.08947653

bias f4 [4]
0	0xbbbfaae7	-0.0058492306
1	0x3c2c33f5	0.010510434
2	0xbd24582e	-0.040123157
3	0xbc89b587	-0.016810192
