models/R25Tiny___986.60max__668.55avg__514.20min__1732623495.pth (torch, 2655 bytes, 4 tensors)

conv1.weight f4 [8, 1, 3, 3]
00000000: fb15 a83e 607c 0c3c b9d6 c73e 49d1 a73e
00000010: 069a 5a3e a39e 4fbd 10cd 3ebe 0584 0b3f
00000020: ff7c a6be f93b 953e 19a2 903d eff6 23bd
00000030: ab8d 27bf 8f08 3c3e e010 aabe 67fb 353d
00000040: 6bb0 1a3e bf00 15be 9233 8bbe 5881 013f
00000050: e7ba b43e 61d9 22bf 5613 6cbf 758d b5bd
00000060: 93c7 333f 8b7f a9be 0ed9 c5be 42fd d23e
00000070: f24d f6be d304 1dbf 650e 8fbe d777 05bf
00000080: be53 39bf 0810 41be b739 093f 9f5c e43e
00000090: 0a31 ec3e 9745 29bf 6652 3fbf 7e73 3bbc
000000a0: 3c19 a7bc 1ef7 73bf 04b2 9fbe 773b f43d
000000b0: 4375 e23e 9502 6c3e 996d 383f 3c3d 8e3e
000000c0: cd42 923e 6cbf f8be b188 cc3e c4ad c1bd
000000d0: 26b2 853e aaaa f33c 8c39 043f eace 3f3e
000000e0: c391 603e 545c 89be 1ea7 07be 0c65 de3e
000000f0: c101 61bf 0c8a 27bd 4568 c73e cc04 88bc
00000100: ec79 d93d af16 d33e eb10 f5bd 0e42 9a3c
00000110: a9bd da3e 0b01 94be e3e4 853f 7b46 aebd
0.3282927 0.008574575 0.39031008 0.3277686 0.21347818 -0.050688397 -0.18632913 0.5449832
-0.3251724 0.29147318 0.07062168 -0.040030416 -0.65450543 0.1836264 -0.33216 0.04442921
0.1510636 -0.14551066 -0.27187783 0.5058799 0.35298845 -0.63612944 -0.92217004 -0.088648714
0.702264 -0.3310512 -0.38642162 0.41208845 -0.48106343 -0.61335486 -0.2794067 -0.52135986
-0.72393405 -0.18853772 0.5360369 0.44601914 0.46131164 -0.6612181 -0.74735105 -0.01144111
-0.020397775 -0.95298946 -0.31190503 0.119254045 0.4423009 0.2304786 0.7204223 0.27781093
0.2856659 -0.48583543 0.39948037 -0.09456971 0.2611248 0.029744465 0.5165031 0.18731275
0.21930604 -0.26828253 -0.13247344 0.43436468 -0.878933 -0.040903136 0.3894674 -0.01660385
0.10618958 0.41228244 -0.119661175 0.018830325 0.42722824 -0.28907046 1.0460476 -0.08509537

conv1.bias f4 [8]
00000000: 1145 bfbd 6ebb 503d 8934 343f fecf 023f
00000010: 83df b83e e1fa 6bbe 4274 3d3e 52c3 83be
-0.09339345 0.050959997 0.7039266 0.5109862 0.36108026 -0.23044921 0.1850138 -0.25734955

fc2.weight f4 [4, 48]
00000000: d476 9c3d 97a4 d13d bd8b 2f3e a20d 6a3e
00000010: abfc 883e 6dde 8e3d 5888 6bbb 6759 3b3e
00000020: 56dc 883e 0850 3f3e 375b 84be e9c8 9bbd
00000030: a474 a23c 0bee 963e 37ca 30bc ed90 1bbd
00000040: 2ef4 8e3d fae9 dfbe 30fd 733e d577 833e
00000050: 0070 1b3b a265 373d 1bab 363e b44f 73bd
00000060: 6d9b f23d ce8d 6e3c ad72 53bf 9f1d d23e
00000070: 1ab7 d43e 9be1 bf3c ca7a d83d ec74 893e
00000080: d661 71bd 3d4b fa3c d181 5f3e 5264 583e
00000090: 0c6b 3f3e fbe7 343c e5c3 573e 6a8b 853e
000000a0: 10a2 da3e 71e0 153e 4b2d 563e b178 e13d
000000b0: 8d1d 553d cc8b 823e 6391 363e c80f 293e
000000c0: 3299 0e3d 71d9 013e 74cb 6dbf 78a4 013d
000000d0: c005 a2bd 0706 16be ff69 fbbd f4f6 643e
000000e0: ee52 4f3d 01c7 d1bc 86c0 973e 53a7 cdbe
000000f0: 7a68 0dc0 e674 513f ad92 3dbd 2eca 113d
00000100: cbbb 18bf 9622 f53e 6fca 2c3e 30bb 7bbf
00000110: 8e22 743e 1fdf 06c0 6e72 433f ce35 dc3e
00000120: 1f75 2abd 4a8c 5bbf 5a73 7e3e d148 bebf
00000130: eec5 3a3f 0b84 61be 7881 f23d c57c 573d
00000140: 1a94 d6be d401 653e 7126 143c ab2a 13bf
00000150: a32c c5bd f445 c2bf fe3d 6e3f b62f 273d
00000160: 6be3 fdbc a7c1 c2bf f41f aebc 663a b73d
00000170: 8863 d6bf 1dc3 453d 10b6 85be 38ed d4be
00000180: 0837 75be e8bb 53be 04cf 3b3e 15b4 80bd
00000190: f8e0 d9bd cead a4bd eba5 993c 818a 18be
000001a0: 2e9c 84bd 1168 983d 43b6 95be cedb 803e
000001b0: 4830 5f3e 27cb f9be 12d4 6fbe 538e 64bc
000001c0: f53f 433f 3ac5 18be 2c2d 3bbe 84ba 113e
000001d0: 4c28 71be 2099 db3d 18b7 d7bf 8783 8cbe
000001e0: 115a 8a3e 31d9 42bb eee7 23be dcde a13e
000001f0: ccf7 8cbf 2a8c 563c 1200 3abe b4fb a23d
00000200: ca11 1b3e af3c e1be 528d 543d fb53 2c3e
00000210: edd0 803d 5cc6 3f3f c6a2 64bf 142a 84bd
00000220: fca8 0c3e e96b 173f 4f43 9bbe fcd7 bb3c
00000230: 004d ab3e da43 df3b 0285 f5bd 09ae d73d
00000240: 134c 863e d487 343e 1ccf 63be 149d 7b3d
00000250: 8b8f 203e 7f32 eb3d d545 9cbd 3e5e 80bd
00000260: c800 c33d ed36 aa3d 1761 a43e 25be 0ebe
00000270: 26b0 aebe 6cc1 163f d6cc a33d 7deb 013e
00000280: 1d04 22bf 657d c93d dbb2 7e3e f956 d1bd
00000290: 4cf2 853e 0460 093c 27f0 e43f eefd 363e
000002a0: 9538 14be 5223 a33d a221 91be 5918 b5be
000002b0: 80ac af3f 8bf7 eabb 350d aa3e d83f 15bd
000002c0: 6319 60be 0a1e e63e 1245 923d 65c4 7dbe
000002d0: 6413 cfbd 5e31 32bf 40f2 273f 52e3 ab3d
000002e0: e257 05be f0da 2ebf c9f7 9a3e 35aa 01be
000002f0: ce36 bfbe 1d3e 553e 320f 1f3e 2ba9 5abc
0.07639852 0.10236471 0.1714315 0.22856763 0.2675527 0.06976018 -0.0035939422 0.18295823
0.26730603 0.18682873 -0.2585084 -0.0760668 0.01983101 0.29478487 -0.010790399 -0.03798001
0.06980167 -0.43733197 0.23827052 0.25677362 0.002371788 0.04477466 0.17838709 -0.059402183
0.11846051 0.014560176 -0.82596856 0.41038224 0.41545945 0.023423007 0.10570295 0.26847017
-0.058931194 0.030553455 0.21826865 0.21132019 0.18693179 0.011041637 0.21070822 0.26082927
0.4270177 0.14636399 0.20915715 0.11009348 0.052030135 0.25497282 0.17828898 0.16509926
0.034814067 0.12680604 -0.9288857 0.03165099 -0.07911253 -0.14650737 -0.122760765 0.2235983
0.050616197 -0.025607588 0.2963907 -0.4016672 -2.2095017 0.81819 -0.04628246 0.035593204
-0.5966155 0.4787795 0.16874097 -0.983325 0.23841307 -2.1073682 0.7634648 0.430098
-0.0416156 -0.8576094 0.2484869 -1.4865972 0.72958267 -0.22023027 0.118411005 0.052609224
-0.41909868 0.22363979 0.009042368 -0.5748698 -0.096276544 -1.5177598 0.9306334 0.040816985
-0.03099223 -1.5215348 -0.02125547 0.089466855 -1.6749125 0.048281778 -0.26115465 -0.41587234
-0.23946774 -0.2067715 0.18340689 -0.06284348 -0.106386125 -0.08040963 0.018755874 -0.14896585
-0.064751014 0.07441724 -0.29240617 0.25167698 0.21795762 -0.48787805 -0.23420742 -0.013949948
0.76269466 -0.14918986 -0.1827895 0.14231306 -0.23550528 0.10722566 -1.6852751 -0.27444097
0.2702184 -0.0029731507 -0.16006443 0.3161534 -1.1013122 0.013094941 -0.1816409 0.07958165
0.15143505 -0.4399161 0.051892586 0.16828911 0.062898494 0.7491205 -0.8931087 -0.06453338
0.13736337 0.5914903 -0.3032479 0.022930138 0.33457184 0.0068135085 -0.1198826 0.105312414
0.26229915 0.1762994 -0.22246975 0.0614291 0.15679757 0.11484241 -0.07630507 -0.06267975
0.095216334 0.083112575 0.32105324 -0.13939722 -0.34118766 0.5888889 0.07998054 0.12687488
-0.63287526 0.0983837 0.24872915 -0.10221667 0.2616142 0.008384708 1.7885789 0.17870304
-0.1447471 0.07965721 -0.28345972 -0.35370138 1.3724518 -0.0071706227 0.332132 -0.03643784
-0.21884684 0.44944793 0.0714208 -0.2478195 -0.1011112 -0.6960658 0.6560402 0.08392967
-0.13021806 -0.6830282 0.3026717 -0.12662585 -0.373465 0.20824476 0.1553314 -0.013345997

fc2.bias f4 [4]
00000000: c0ed 5d3e 7a09 b93c 70c8 c83c ce00 223c
0.21672726 0.022587527 0.024509639 0.009887887
