models/R25Tiny____71.39max___38.11avg___13.65min__1732562383.pth (torch, 2655 bytes, 4 tensors)

conv1.weight f4 [8, 1, 3, 3]
00000000: 4668 913e 22e1 3dbe 6712 a93e b60f 8d3e
00000010: 3b41 af3e 5bb9 49be d962 1dbe 6b24 6a3e
00000020: afa4 7abe f0f7 8b3e 7ed9 37bd d229 53bd
00000030: cba9 aebe 1411 34bb 0641 4b3d 7a6f 51bb
00000040: 98b9 583e ad71 d13b f109 b5be 31ca 6e3e
00000050: 90c6 873d a23d 5ebe bec5 b4be 7894 123e
00000060: 1c91 8e3e a0b3 98be 99e0 e2bb 3c0f c33d
00000070: 9557 39be ecf6 ccbc bd86 57be 55cc ccbd
00000080: 43f9 57be fa64 8f3b e5ad 823e cf9c 823e
00000090: 9ee6 ba3e 9ea0 76be 8297 943c 7bc5 c43e
000000a0: 7034 ea3d 89ca fcbc 7bc0 72be 597e 5f3e
000000b0: b5e4 a13e 7829 753e 599a 803e d91f 193d
000000c0: a1bc 563e eeec e4bd bea8 783e 76ca 74bd
000000d0: 2fc4 ccbd 97aa 49be 0ef3 bb3d d324 b13d
000000e0: c594 273e bff2 98be 8505 67be 38bd 883e
000000f0: 3e74 3dbe 3d0d 57be d16b dfbd ad3d efbd
00000100: eed5 2fbe af11 a63e 0844 4d3d 2212 5d3e
00000110: f850 9f3e b468 a0be 2397 a43e 21c3 ccbd
0.28399867 -0.18542913 0.33021852 0.2755105 0.34229454 -0.19699614 -0.15369739 0.22865455
-0.24476884 0.273376 -0.04488515 -0.051553555 -0.34113917 -0.0027476 0.049622558 -0.0031957314
0.21164548 0.006391725 -0.35359147 0.23319317 0.0662967 -0.21703199 -0.35307115 0.14314449
0.27845085 -0.29824543 -0.006923747 0.0952439 -0.18099816 -0.025020085 -0.21047492 -0.09999911
-0.2109118 0.004376051 0.25523296 0.2551026 0.36504072 -0.24084708 0.01813865 0.38431916
0.11435783 -0.030858295 -0.23706238 0.21825542 0.31619802 0.239416 0.25117758 0.037383888
0.20970394 -0.11178003 0.2428312 -0.059763394 -0.099983566 -0.19693981 0.091772184 0.08649602
0.16365345 -0.298727 -0.225607 0.26706862 -0.18501374 -0.21001144 -0.10909236 -0.116816856
-0.17171451 0.32435367 0.050113708 0.21588948 0.31116462 -0.31329882 0.32146558 -0.099981554

conv1.bias f4 [8]
00000000: 3302 163c 42b9 123e dc58 853e 874e b33e
00000010: 92c2 803e 475b 903e d684 2cbe 30e8 2e3d
0.009155798 0.14328483 0.26044357 0.3502085 0.25148445 0.2819464 -0.16847548 0.0427019

fc2.weight f4 [4, 48]
00000000: 988a 043e 313b 2c3e 40e3 093e cf5d 693e
00000010: 75fd 7f3e 1edc 3f3d 631e 2f3d 35a8 933d
00000020: 5710 0b3e a023 833d 80e1 da3c 299f b83d
00000030: ad59 423d 7ad0 6c3d c71b 59bd cf4d c03d
00000040: 5018 b33b 3cdc 1e3d 8dc7 8c3e 7427 883e
00000050: 9820 f43d 61bf 513d 3610 073d e664 2f3d
00000060: 3deb 0f3e 9e9c b83d 899b 5a3d 50ed 3e3e
00000070: fdaa 273e 1f72 073e cfe2 a03d 5dff 813e
00000080: c8da 05bc 91b2 033e bcd4 4b3e 0893 6f3e
00000090: 6c6c e0bd a827 b9bc 4487 f63d 38b7 093e
000000a0: c4ec cb3d a299 00bc d472 803e 7708 d33d
000000b0: 56b3 a23d 5031 903e e931 443e 9405 1c3e
000000c0: 52a7 0abf c229 f2be 526a c6be 9263 b9be
000000d0: c53f 92be 06c2 72be ae1c 8cbe 4a43 2cbc
000000e0: 1fe3 36bd 92f7 92be ff1c 78bd 3c1e 73be
000000f0: 3133 8abe 1ff5 983d 13d9 f2bd 19ba 5fbe
00000100: 9a3d 44bd dd7d 803c 8e46 b7be ded6 83bf
00000110: d4ac 0cbf 6290 7abf b9c2 babf cb88 54bf
00000120: 39f4 90be 8d0a 68be e031 b4be c146 e2be
00000130: 5192 abbe 6d75 dfbe fc37 46be c7c2 e4bd
00000140: 14e8 2cbe ce7e cebd ff7b 20be a758 f9bd
00000150: fda5 e43d b8ef af3c d0c4 c43c b7b0 4cbe
00000160: 2b88 a33c a10e 513d 974b bfbe e4ea 3abe
00000170: 24e5 8ebe cc47 96be f89e d5be c6d6 dbbe
00000180: 2a69 b0bd 7f78 bfbd a48f a4bd e370 e7bc
00000190: ed25 d9bd abe5 dabd 7a36 92bc 0adb fabd
000001a0: 25cb 69bc 4913 bc3c 68ca d73c 3702 b73d
000001b0: a0ff 333d 3fbd c8bd 327e 86bd 0f07 38bc
000001c0: 9f88 b83d d40e 1d3d 610b 95bd c1c8 e73a
000001d0: 9803 403d 07fb 9d3d 8f99 02bc a450 b4bd
000001e0: 9488 b1bd 6ffb ce3b 9cf3 c6bd 4404 2a3d
000001f0: e68b bc3d b3b3 48b9 0fec 673d 79f3 a73d
00000200: e19b 953d 8874 18be aa88 f43d df1d db3c
00000210: c68e 15be 701d 133d a88d cbbd a574 ca3d
00000220: 5bfc 863d ae30 13be 3e48 d3bd 2998 963c
00000230: b4ce f5bc a762 863d f122 03be fc42 e83d
00000240: 0fa3 a23c c0ac 1f3c b155 a7bd 66f0 873c
00000250: eb71 d83d e8cc 173e 3a31 88bd 17f8 f9bc
00000260: b15b 753d 7a51 dc3d 3db3 babd ac6f c4bc
00000270: 1ac9 c4bd 579b c93d 02e7 aabd fe2e c73d
00000280: 3b75 3e3d 317e 9abc 2a23 003d 8f3f 9b3d
00000290: e105 c9bc 54d3 8d3d b4d8 81bd 3ed8 d6bc
000002a0: 24d1 9d3d a1ed d1bd bbf2 27bd 0e1c b3bd
000002b0: fe43 84bc ca11 983c 678d 9d3d e005 c5bd
000002c0: 1ed6 cfbd 41dd ee3d d9ee 42ba e080 67bd
000002d0: e6a5 03bd c03f fc3b a12c d8bd b4c0 d1bd
000002e0: 47b4 92bd 32da 0c3e 2f8d 483d a438 0bbe
000002f0: 436e 8fbd 9fbd ee3d 9462 133e 690d 0c3d
0.12943494 0.16819455 0.13465595 0.22789691 0.2499903 0.04684078 0.04275359 0.07209817
0.13580452 0.06403279 0.026718855 0.090147324 0.047448803 0.057816006 -0.053005006 0.09389841
0.0054655448 0.03878425 0.27495995 0.265926 0.11920279 0.051207904 0.032974444 0.042820834
0.1405458 0.09014247 0.053370986 0.18645215 0.1637382 0.13227127 0.0785576 0.2539014
-0.008169837 0.12861086 0.1990537 0.23395932 -0.1095818 -0.022601917 0.120375186 0.13448799
0.09957269 -0.007849129 0.25087607 0.10304349 0.07944362 0.28162622 0.19159664 0.15236503
-0.5416156 -0.47297484 -0.3875299 -0.3620878 -0.28564277 -0.23706827 -0.2736563 -0.01051409
-0.044650193 -0.28704506 -0.060574528 -0.23742002 -0.2699218 0.07468628 -0.1185781 -0.21848334
-0.04791031 0.015685016 -0.35796016 -1.0299947 -0.54951215 -0.9787656 -1.4590675 -0.8302123
-0.28311327 -0.22660275 -0.35194302 -0.44194606 -0.33510068 -0.43644276 -0.19357294 -0.11169963
-0.16885406 -0.1008278 -0.15672301 -0.12175112 0.11164472 0.021476611 0.024019629 -0.19989286
0.01996239 0.05103934 -0.37362358 -0.18253666 -0.27909195 -0.29351652 -0.41722846 -0.42937297
-0.086138085 -0.09349155 -0.0803521 -0.02825207 -0.10602937 -0.10688337 -0.017848242 -0.1224881
-0.014269625 0.022958415 0.026341632 0.08935969 0.043944955 -0.09801721 -0.065670386 -0.011232152
0.090104334 0.03834422 -0.07277561 0.0017683731 0.046878427 0.07713895 -0.0079711815 -0.088044435
-0.08668628 0.0063165943 -0.097144336 0.041507974 0.09206371 -0.0001914043 0.056621607 0.082007356
0.07305122 -0.14888203 0.11940129 0.026747642 -0.14605245 0.035916746 -0.09939128 0.098855294
0.06591102 -0.14374039 -0.103165135 0.018383102 -0.03000579 0.06561785 -0.12806298 0.11340901
0.019853143 0.009745777 -0.08170641 0.016594123 0.10568603 0.1482426 -0.06650014 -0.030513806
0.059901897 0.10757728 -0.09116218 -0.02397903 -0.096086696 0.09844082 -0.083448425 0.0972576
0.04649852 -0.018859 0.031283535 0.07580482 -0.024538936 0.06925073 -0.06340161 -0.02622616
0.07705906 -0.10250402 -0.04100297 -0.087455854 -0.016145702 0.01856317 0.07692986 -0.09620261
-0.101482615 0.116632946 -0.0007436104 -0.05651939 -0.032140635 0.0076980293 -0.10555387 -0.10241833
-0.071632914 0.1375511 0.04896277 -0.13595825 -0.07003453 0.11657261 0.14393073 0.034192476

fc2.bias f4 [4]
00000000: 72fe 583e 7bdf 1ebe 974e a83d 8270 c9bd
0.21190813 -0.15514939 0.08218115 -0.09835912
