models/R25Tiny___179.53max__131.96avg___91.28min__1732623187.pth (torch, 2655 bytes, 4 tensors)

conv1.weight f4 [8, 1, 3, 3]
0.34948483 0.058093727 0.4785283 0.37313884 0.367695 -0.0067219376 -0.10527429 0.518885
-0.37073162 0.5020378 0.18767078 -0.008139386 -0.5495687 0.3454893 -0.21824571 0.088346004
0.33767363 -0.08781788 -0.3104249 0.7062414 0.3455189 -0.3698798 -0.8526502 -0.023744501
0.5772753 -0.5649583 -0.41937917 0.24377823 -0.83638436 -0.308677 -0.40097967 -0.52936155
-0.3281455 -0.08734983 0.58494717 0.58513457 0.4666555 -0.8285796 -0.19940907 -0.013335143
0.02441605 -0.31384176 -0.52346927 0.19129294 0.48359674 0.3733586 0.8520372 0.4116238
0.5888374 -0.17758833 0.47060883 0.055345736 0.33211198 0.005654134 0.5482024 0.19102687
0.25025693 -0.22741394 -0.1667145 0.5072837 -0.9168318 -0.052486565 0.37818676 -0.13178158
0.11123856 0.55611837 -0.04574354 0.1490034 0.45195758 -0.33985302 0.95100886 -0.038678788
00000000: adef b23e b0f3 6d3d a901 f53e 0e0c bf3e
00000010: 8542 bc3e b343 dcbb 0c9a d7bd a6d5 043f
00000020: 89d0 bdbe 8d85 003f c52c 403e 0f5b 05bc
00000030: 89b0 0cbf f9e3 b03e ce7b 5fbe c0ee b43d
00000040: 8fe3 ac3e dcd9 b3bd 03f0 9ebe 3dcc 343f
00000050: dae7 b03e e360 bdbe 4947 5abf d483 c2bc
00000060: 50c8 133f 1ba1 10bf deb8 d6be 00a1 793e
00000070: 491d 56bf e90a 9ebe 354d cdbe 3d84 07bf
00000080: b002 a8be 78e4 b2bd 19bf 153f 61cb 153f
00000090: 78ed ee3e cb1d 54bf e431 4cbe a57b 5abc
000000a0: 2b04 c83c deaf a0be 1502 06bf 4ce2 433e
000000b0: fe99 f73e dc28 bf3e 1c1f 5a3f 5bc0 d23e
000000c0: 0cbe 163f b7d9 35be a4f3 f03e 36b2 623d
000000d0: 950a aa3e 5046 b93b fe56 0c3f 8c9c 433e
000000e0: ad21 803e 33df 68be 35b7 2abe 58dd 013f
000000f0: 7db5 6abf 27fc 56bd b2a1 c13e c0f1 06be
00000100: 0bd1 e33d c65d 0e3f 945d 3bbd 5994 183e
00000110: fc66 e73e 3701 aebe 5175 733f a66d 1ebd

conv1.bias f4 [8]
0.010385714 0.27282748 0.78110594 0.6668128 0.37566748 0.14308845 0.19277799 -0.075741395
00000000: d728 2a3c 0bb0 8b3e 8ff6 473f 3eb4 2a3f
00000010: 7d57 c03e c785 123e 9867 453e 4e1e 9bbd

fc2.weight f4 [4, 48]
0.17978978 0.18272436 0.1981579 0.28040993 0.30742484 0.07988837 0.099230334 0.14578728
0.20318162 0.11365954 0.09573374 0.14486511 0.025705857 0.20788904 0.11611083 0.14686541
0.081199765 0.1166672 0.3207326 0.24611494 0.1239872 -0.016518757 0.058729243 0.099885024
0.1584567 0.05399731 0.07098409 0.15053418 0.16390865 0.13159047 0.17122224 0.35033843
0.053858873 0.20975095 0.26470032 0.3095633 0.2692089 0.06558476 0.48101607 0.35238332
0.48790887 0.19536433 0.3147325 0.15784907 0.103812054 0.34467837 0.23108637 0.2083844
0.19245708 0.21279648 -0.6631487 0.13078569 0.049544655 0.0021016663 -0.108514115 0.29074565
0.17025073 0.102508046 0.24045359 -0.34874797 -2.2222757 0.7833844 0.017328698 0.15108328
-0.40245372 0.44838244 0.35019836 -0.78325063 0.36582685 -1.9700001 0.59165126 0.40146273
0.096685335 -0.34891453 0.26265985 -1.1380192 0.52882826 -0.119606614 0.23528917 0.16209784
-0.27642223 0.32679608 0.120135926 -0.27090144 0.046552226 -1.3017123 0.72778773 0.1655763
0.08775646 -1.3408087 0.08463111 0.2093215 -1.021665 0.16179682 -0.14226946 -0.33431852
-0.28994715 -0.2689517 0.10000422 -0.11430005 -0.14850001 -0.108810596 -0.0822938 -0.1821509
-0.06397975 -0.063598916 -0.020381378 0.20331882 0.26767817 -0.59528977 -0.17939705 -0.034732133
0.60801584 -0.092259295 -0.21349658 0.10842685 -0.03494154 0.1121094 -0.90167284 -0.35395652
-0.11505656 0.04298581 -0.18840057 0.01026856 -0.46342427 -0.037070625 -0.053137787 0.035502397
0.18007511 -0.25920638 0.051981702 0.17250912 0.1402586 0.807351 -0.9690633 -0.042393886
0.17705737 0.6203451 -0.2759012 -0.020242777 0.2490284 -0.04063748 -0.15865356 0.121929735
0.2462777 0.2104574 -0.20838079 0.077045254 0.17119315 0.13111813 -0.046351224 0.034853227
0.16837029 0.24814935 -0.021806564 -0.077508 -0.36349955 0.8462162 0.021357695 0.13347007
-0.36260363 0.10292585 0.30626714 -0.03681935 0.11790505 0.04850155 0.96650606 0.22930276
0.08550027 -0.005997087 -0.18425474 -0.094710894 0.5551188 0.01203308 0.21201237 -0.016508501
-0.1821837 0.24262504 0.0859349 -0.23292817 -0.20292069 -0.764407 0.7172937 0.021858256
-0.2051309 -0.73102546 0.23653881 -0.08942203 -0.29100025 0.21738148 0.18647076 0.03147607
00000000: d01a 383e 181c 3b3e e8e9 4a3e e491 8f3e
00000010: ca66 9d3e 849c a33d 4639 cb3d 4349 153e
00000020: d80e 503e 55c6 e83d 0d10 c43d 8557 143e
00000030: 1795 d23c dde0 543e 84cb ed3d e363 163e
00000040: 104c a63d 37ef ee3d 1037 a43e 8e05 7c3e
00000050: 00ed fd3d 5852 87bc 138e 703d 8590 cc3d
00000060: 7942 223e 492c 5d3d 1b60 913d a225 1a3e
00000070: abd7 273e a7bf 063e e254 2f3e 8f5f b33e
00000080: 1f9b 5c3d f4c8 563e cd86 873e 157f 9e3e
00000090: c0d5 893e 4d51 863d bd47 f63e 966b b43e
000000a0: 31cf f93e 960d 483e 9e24 a13e 30a3 213e
000000b0: 6a9b d43d af79 b03e e8a1 6c3e b862 553e
000000c0: 7813 453e 52e7 593e 1dc4 29bf afec 053e
000000d0: 56ef 4a3d 1cbc 093b a63c debd 9ddc 943e
000000e0: 3556 2e3e bdef d13d 7739 763e 188f b2be
000000f0: c439 0ec0 e18b 483f eaf4 8d3c 93b5 1a3e
00000100: 6a0e cebe 6292 e53e 334d b33e 1d83 48bf
00000110: a84d bb3e f728 fcbf 7576 173f 868c cd3e
00000120: f602 c63d eda4 b2be 5a7b 863e 9daa 91bf
00000130: 4a61 073f 50f4 f4bd a5ef 703e fafc 253e
00000140: 3787 8dbe d151 a73e d309 f63d 98b3 8abe
00000150: 8cad 3e3d 829e a6bf 4c50 3a3f d58c 293e
00000160: a9b9 b33d 9f9f abbf 1353 ad3d 6058 563e
00000170: ebc5 82bf 11ae 253e 16af 11be cc2b abbe
00000180: f473 94be 0ab4 89be 03cf cc3d 2516 eabd
00000190: 6310 18be 17d8 debd a789 a8bd c485 3abe
000001a0: d107 83bd 2640 82bd d9f6 a6bc cf32 503e
000001b0: 1d0d 893e e964 18bf dcb3 37be 4843 0ebd
000001c0: eda6 1b3f 71f2 bcbd d99e 5abe e50e de3d
000001d0: dc1e 0fbd 9d99 e53d 08d4 66bf ca39 b5be
000001e0: c6a2 ebbd e411 303d 14ec 40be 763d 283c
000001f0: f245 edbe 5ed7 17bd 02a7 59bd f66a 113d
00000200: 9c65 383e b3b6 84be c4ea 543d 3ba6 303e
00000210: f39f 0f3e 8eae 4e3f 8814 78bf 36a5 2dbd
00000220: 874e 353e f0ce 1e3f ec42 8dbe 2ed4 a5bc
00000230: 4d01 7f3e 7c73 26bd 1476 22be 4cb6 f93d
00000240: 3930 7c3e 2582 573e c661 55be e7c9 9d3d
00000250: 424d 2f3e d543 063e c8da 3dbd 42c2 0e3d
00000260: 4369 2c3e dd1a 7e3e aea3 b2bc 84bc 9ebd
00000270: 9d1c babe a0a1 583f 55f6 ae3c 61ac 083e
00000280: 2fa7 b9be caca d23d 0ccf 9c3e e3cf 16bd
00000290: 3478 f13d 90a9 463d f16c 773f 58ce 6a3e
000002a0: c41a af3d 3683 c4bb 46ad 3cbe c9f7 c1bd
000002b0: 441c 0e3f 6526 453c c519 593e d63c 87bc
000002c0: 5d8e 3abe b372 783e a3fe af3d b984 6ebe
000002d0: 71ca 4fbe 2db0 43bf 8fa0 373f 1610 b33c
000002e0: d60d 52be 7c24 3bbf 3b37 723e e622 b7bd
000002f0: fcfd 94be 4099 5e3e 31f2 3e3e 0ded 003d

fc2.bias f4 [4]
0.23785858 0.15341815 0.0012244065 0.005793157
00000000: 3391 733e a619 1d3e 447c a03a 86d4 bd3b
