models/R25Tiny___217.80max__172.38avg__115.85min__1732562974.pth (torch, 2655 bytes, 4 tensors)

conv1.weight f4 [8, 1, 3, 3]
000000 56 3b 99 3e 10 09 42 be 1c 20 8a 3e 42 29 bc 3e
       0.29928082 -0.1894877 0.26977623 0.36750227
000010 3a 21 0f 3e 3b de 32 bd fa ef 6d be 12 00 fb 3e
       0.13977519 -0.043668967 -0.23236075 0.4902349
000020 1d 23 ee be 10 83 79 3e 7b 16 0f be 5c e3 f7 bc
       -0.46511164 0.24366403 -0.1397342 -0.03025978
000030 ce 14 05 bf a4 2f 68 3e af 4b 58 be 3e f4 14 be
       -0.5198487 0.22674423 -0.21122621 -0.14546296
000040 de 3d 41 3e 45 41 c7 bd 8e 9b d6 be aa 0c ec 3d
       0.18871257 -0.09729246 -0.41915554 0.11525853
000050 33 39 0b 3e b6 b5 3d bf 1f 81 b9 be 9b 3e a5 3e
       0.13596039 -0.74105394 -0.36231324 0.32274327
000060 27 43 16 3f 8d 11 e3 be e4 5f e6 bd 4f 55 1b 3e
       0.58696216 -0.44349328 -0.112487584 0.15169261
000070 11 ab bd be 85 55 34 be a6 7a 91 be 63 f0 75 be
       -0.37044576 -0.17610748 -0.28413886 -0.24017482
000080 c3 66 3f bf 1f cb 92 bc c0 03 d3 3e f0 63 eb 3e
       -0.74766177 -0.017919121 0.412138 0.45974684
000090 ab c0 a7 3e ed ac ec be 3c 37 59 3c 5e 18 30 3d
       0.32764181 -0.46225682 0.013257798 0.04299199
0000a0 27 4f 63 be ab f3 ca 3d 33 ae 41 be d2 ac e8 3e
       -0.22198163 0.09909757 -0.18914108 0.4544435
0000b0 06 bd 57 3e f0 e0 a2 3e 30 3e 4d 3f 3b 55 95 3e
       0.210682 0.3181224 0.80173016 0.29166588
0000c0 41 6c c1 3e f6 ef 94 be 75 4d f5 3e b6 b1 d6 bc
       0.37777904 -0.29089326 0.47910658 -0.026207786
0000d0 3b 5a b2 3e f7 7d f4 bd f2 8e 45 3f 11 66 a3 bc
       0.34834465 -0.119380884 0.7717124 -0.01994613
0000e0 fd c2 94 3e 6c 7c 9a bf cd a1 05 bf 5e b7 b3 3e
       0.29055014 -1.206922 -0.52200013 0.35100836
0000f0 81 c0 af bf c5 82 84 bd bd d0 b3 3c 97 de 03 3d
       -1.3730623 -0.06470255 0.02195012 0.0321947
000100 9c e8 4e bd 79 90 f7 3e 65 a4 bd be f9 e4 e4 3d
       -0.050514802 0.4835241 -0.37039486 0.111764856
000110 f5 fe ac 3e fc e1 eb be 4e 68 f5 3e f2 ca b2 be
       0.33788267 -0.4607085 0.4793114 -0.3492046

conv1.bias f4 [8]
000000 3f 8a 43 bd 60 43 95 be 84 3e 12 3f cd 51 12 3f
       -0.047739264 -0.29152966 0.5712664 0.5715607
000010 07 fd 61 be c9 b6 3c 3d d5 ea df 3e 93 60 12 be
       -0.22069179 0.046072755 0.4373385 -0.14294653

fc2.weight f4 [4, 48]
000000 99 dd d6 3e ea 90 43 3e 2d 62 9d 3a e0 b8 91 3e
       0.4196594 0.19098249 0.0012007408 0.2846136
000010 3f fe 98 3e 01 ef 17 3e 23 6a b5 3d 79 db 89 3c
       0.29881474 0.14837267 0.088581346 0.016828286
000020 02 df 80 3d 2f 68 0b 3e 0e 45 78 bd 8f 1d cb bc
       0.06292535 0.13613962 -0.06061273 -0.024794368
000030 a3 e8 a9 bc 0d 30 6e 3f d1 46 c9 3e 9e d5 e9 3d
       -0.020740813 0.9304207 0.3931184 0.11417697
000040 9c 6f 2f bd 82 60 8b 3e e1 8a 74 3f 8a ef cd 3e
       -0.04283105 0.27222067 0.9552441 0.40221816
000050 7a 7f 87 3e 91 78 18 be 79 9e 8b 3f 48 38 6b 3e
       0.26464444 -0.14889742 1.0907737 0.22970688
000060 9a 6e 17 3d 5b 28 04 3e 43 64 32 3d 63 0d 99 3e
       0.036970712 0.1290602 0.04355265 0.29893026
000070 e6 54 b2 3e f8 90 8c 3c c9 e6 02 3d aa 47 89 3e
       0.34830397 0.01715897 0.031958375 0.26812488
000080 c1 5b ca bd 51 56 74 3e 20 1b 4a 3e bb 99 87 3e
       -0.09880782 0.23861052 0.1973691 0.26484475
000090 75 69 cc be eb 98 b2 be a1 31 ff 3f aa f5 23 3e
       -0.39924207 -0.34882292 1.993702 0.16011682
0000a0 3b 64 fc bd 82 f8 95 3e 2f c6 83 3e db 8f cf 3d
       -0.12323805 0.2929116 0.2573714 0.1013486
0000b0 cd 80 06 bf 93 32 9a 3e 46 17 80 3e ed e0 e4 3e
       -0.52540284 0.3011671 0.25017756 0.44702855
0000c0 b3 1c 71 bf 0e 8e 43 bf 2b 57 40 bf 93 f3 32 bf
       -0.94184417 -0.76388633 -0.7513301 -0.69902915
0000d0 0e c7 2e bf 76 7f 03 bf e7 43 9e be a6 62 f1 bc
       -0.68272483 -0.51366365 -0.3091118 -0.029465985
0000e0 6d 82 81 bd dd 62 98 be 51 99 69 bd 49 e8 7f be
       -0.06323705 -0.29762927 -0.05703098 -0.24990954
0000f0 ce 36 15 bf eb 0d 0d be 58 da da be 8f e8 06 bf
       -0.5828675 -0.1377484 -0.42744708 -0.52698606
000100 8c 0e 22 be 70 66 8b bd 67 da a6 be ea 42 e8 be
       -0.15825862 -0.06806648 -0.32588503 -0.4536355
000110 a6 5a d6 be a9 c4 e6 be d4 90 c6 be 4b 25 0d bf
       -0.41866034 -0.45071915 -0.3878237 -0.5513503
000120 72 d3 be be 20 94 b1 be b5 ea e1 be 0e 69 22 bf
       -0.37270695 -0.34683323 -0.4412438 -0.6344155
000130 5a 1b f7 be 16 c2 08 bf bd 63 52 bf 78 0b 44 bf
       -0.48263055 -0.5342115 -0.8218344 -0.7658
000140 34 f7 38 bf e0 0d 25 bf 30 b0 36 bf 90 90 1b bf
       -0.722522 -0.64474297 -0.7136259 -0.6076746
000150 df 90 1f bf 0c e2 03 3e 77 72 ad be d1 5d 39 bf
       -0.6233043 0.12879199 -0.33876392 -0.7240878
000160 e2 54 4a be 93 5f 4f be ee 68 39 bf 72 52 a4 be
       -0.19758943 -0.20251302 -0.72425735 -0.3209415
000170 bc 11 84 be 0c 5f 03 bf 5d a1 1f bf 8a 65 0d bf
       -0.2579478 -0.51316905 -0.62355596 -0.5523306
000180 2c 58 76 be c5 96 5f be 74 52 81 3d fe 70 81 bc
       -0.24057072 -0.21834858 0.06314555 -0.01580095
000190 2c ec a2 bd 8b e7 49 bd 13 b8 66 3c 05 3f 95 bd
       -0.079552025 -0.049293082 0.014081973 -0.07287411
0001a0 49 9e e7 bd bc 61 74 bd d2 14 66 3d 2d 5c 06 3e
       -0.113094874 -0.05966352 0.0561722 0.131211
0001b0 ad 79 66 3e 94 94 49 bf ea 31 4d 3d 1d bf 4a bc
       0.22507353 -0.7874234 0.05009643 -0.0123746665
0001c0 ec 2b 19 3f 86 f5 28 bf ad 18 a3 be 66 c6 a6 3e
       0.59832644 -0.6599964 -0.31854764 0.3257324
0001d0 9d a4 08 3e 80 dd 83 3e 5f b8 38 bf 08 6d 93 be
       0.13344045 0.2575493 -0.7215633 -0.28794122
0001e0 dc 35 3a be 48 f7 97 3c 21 87 53 3d c1 55 90 bd
       -0.18184608 0.01855053 0.05164254 -0.07047606
0001f0 bc 0a e9 3d b0 0b 70 3d e4 d1 9d bd 0b 3a ab 3d
       0.113790005 0.058604896 -0.07706049 0.0836068
000200 02 ba 5c 3e b9 cf 98 be f2 55 cb 3d de cf 46 3e
       0.21555331 -0.2984598 0.09928502 0.19415233
000210 f3 54 8b 3b e0 95 0f 40 57 3b 71 c0 4f 5a be bd
       0.00425207 2.2435226 -3.7692468 -0.09294569
000220 1f 82 ca 3d 28 43 d5 3d 78 e7 79 be 02 91 3f 3e
       0.098881 0.104132 -0.24404705 0.1870766
000230 b9 b3 3b 3e 95 60 3d 3d dc 7b ef bd ee aa eb 3d
       0.18330278 0.046234686 -0.11693546 0.115072116
000240 b6 13 60 3e eb 01 24 3e da 03 90 be 85 30 73 3d
       0.21882519 0.16016357 -0.28127939 0.059372444
000250 f4 57 cf 3d 4d cf 0c 3e 5c ed 32 bd 06 36 ac bd
       0.101241976 0.13750954 -0.043683395 -0.08408742
000260 d5 7c 08 3e ca f0 27 3e ef c2 da 3c 3e 78 23 be
       0.1332887 0.16400447 0.02670428 -0.15963838
000270 97 95 66 be b6 02 20 3f 55 63 28 be 69 25 40 3e
       -0.22518001 0.62504137 -0.16444142 0.18764271
000280 f1 ba 0d bf 04 3d 35 3f d9 9b 7f 3e 7f e4 37 be
       -0.55363375 0.7079623 0.24961795 -0.17958258
000290 90 69 bd 3d 32 78 16 be b1 84 20 3f 3b 10 07 3e
       0.0924865 -0.14694288 0.6270247 0.13189785
0002a0 d5 a4 53 3e a1 4e d0 bd 89 32 eb bd 31 e5 1b 3d
       0.20668347 -0.10171247 -0.11484248 0.03806037
0002b0 79 f2 0a bd 31 14 32 bb e6 44 39 3e 29 b4 d7 bd
       -0.033922646 -0.002717268 0.18092689 -0.1053241
0002c0 e7 20 70 be 06 a8 8a 3e 5d 3a db 3c 2d 47 44 be
       -0.23450051 0.27081317 0.026761228 -0.19167776
0002d0 e7 07 95 be b0 d2 d6 bf ca 7d 73 40 7d 4f e1 3d
       -0.29107592 -1.6783047 3.8045526 0.11001489
0002e0 29 86 91 3d 41 c0 9a 3d 21 51 17 3e ab ce 88 be
       0.07105667 0.07556201 0.14777042 -0.26720175
0002f0 a7 1e 68 be bf 30 16 3e f6 5c 06 3e d1 20 fb 3d
       -0.22667943 0.14667033 0.131214 0.122621186

fc2.bias f4 [4]
000000 19 ca 9a 3e d6 cc c8 be 7c b0 69 3d 61 96 a2 bd
       0.30232313 -0.39218777 0.057053074 -0.07938839
