models/R25Tiny___974.10max__638.96avg__394.14min__1732563171.pth (torch, 2655 bytes, 4 tensors)

conv1.weight f4 [8, 1, 3, 3]
0	0x3e65f0ee	0.22455189
1	0xbe811ddb	-0.2521809
2	0x3e6420fc	0.22278208
3	0x3e8b3a89	0.27193096
4	0x3db7d903	0.089769386
5	0xbdc5e619	-0.09663028
6	0xbeb9efe7	-0.36315843
7	0x3ec59ab3	0.3859459
8	0xbef2862a	-0.47367984
9	0x3e798310	0.24366403
10	0xbe0f167b	-0.1397342
11	0xbcf7e35c	-0.03025978
12	0xbf0514ce	-0.5198487
13	0x3e682fa4	0.22674423
14	0xbe584baf	-0.21122621
15	0xbe14f43e	-0.14546296
16	0x3e413dde	0.18871257
17	0xbdc74145	-0.09729246
18	0xbf002a33	-0.5006439
19	0x3d29b552	0.041432686
20	0x3e537cad	0.20653029
21	0xbf417557	-0.7556967
22	0xbead266c	-0.33818376
23	0x3eae2298	0.34010768
24	0x3f12fbc3	0.5741541
25	0xbed3a416	-0.41336125
26	0xbcb71596	-0.02234916
27	0x3dc47e12	0.095943585
28	0xbecddffe	-0.40209955
29	0xbe624d7d	-0.22099872
30	0xbe96f302	-0.29482275
31	0xbe4afa6a	-0.19822088
32	0xbf38a917	-0.7213301
33	0xbdd70bfc	-0.10500333
34	0x3eed2f84	0.46325314
35	0x3ef53283	0.478901
36	0x3e3a5cdf	0.1819949
37	0xbf09a89c	-0.537729
38	0xbc6cc807	-0.014451987
39	0xbdc9774d	-0.09837208
40	0xbe9102d1	-0.2832246
41	0x3d6ce984	0.057839885
42	0xbe88afb8	-0.26696563
43	0x3eb76e9a	0.3582657
44	0x3e4a4bdf	0.19755505
45	0x3e43c7ed	0.19119234
46	0x3f06057f	0.52352136
47	0x3e27787d	0.16354556
48	0x3e64562a	0.22298494
49	0xbeb80649	-0.35942295
50	0x3ea6f67e	0.32609934
51	0xbd59b1ae	-0.053147964
52	0x3e6e2a41	0.23258306
53	0xbe4a0565	-0.1972862
54	0x3f5acebe	0.85471714
55	0x3d32af5e	0.043624274
56	0x3ea67ccd	0.3251709
57	0xbfc291fb	-1.52008
58	0xbf0267a3	-0.5093939
59	0x3eae9370	0.3409686
60	0xbfc92997	-1.5715817
61	0xbc076c2d	-0.008265537
62	0xbbbce3da	-0.0057644667
63	0x3c1981f2	0.00936936
64	0xbde070bb	-0.10959002
65	0x3ee51e51	0.44749692
66	0xbecb1105	-0.39661422
67	0x3dc4f18d	0.09616385
68	0x3e6bf574	0.23042852
69	0xbee09e97	-0.43870994
70	0x3eee77ae	0.46575683
71	0xbeca22a6	-0.3947956

conv1.bias f4 [8]
0	0xbe1de74c	-0.15420264
1	0xbe954360	-0.29152966
2	0x3f0d8c4f	0.5529222
3	0x3f1659db	0.5873086
4	0xbea40abb	-0.32039437
5	0xbeb93943	-0.361765
6	0x3efa3422	0.488679
7	0xbe560627	-0.20900784

fc2.weight f4 [4, 48]
0	0x3f06998d	0.5257805
1	0x3d81b748	0.06333786
2	0x3e4a5d2f	0.19762109
3	0x3eaf49f4	0.3423611
4	0x3eebe9c1	0.46076778
5	0x3eb0f548	0.34562135
6	0x3db56a23	0.088581346
7	0x3c89db79	0.016828286
8	0x3d80df02	0.06292535
9	0x3e0b682f	0.13613962
10	0xbd78450e	-0.06061273
11	0xbccb1d8f	-0.024794368
12	0x3e3b5b7d	0.18296619
13	0x3fb4a816	1.4113796
14	0x3e33e8b0	0.17569232
15	0x3e6b4ac4	0.2297774
16	0x3e08c98c	0.13358134
17	0xbf073ceb	-0.5282733
18	0x3fab6ad5	1.3391978
19	0x3ebf6d80	0.3738823
20	0x3e4e2c58	0.20134103
21	0x3ceb846f	0.028749673
22	0x3faf1f3d	1.3681408
23	0x3e9f1f5c	0.31078613
24	0xbc908338	-0.017640695
25	0x3e9904b6	0.29886407
26	0x3e13bb73	0.14426975
27	0x3eec3bd1	0.46139386
28	0x3f6898e6	0.90858305
29	0xbd7154eb	-0.058918875
30	0x3dabe70d	0.08393679
31	0x3ed93573	0.4242359
32	0x3d89a0c8	0.0672012
33	0x3e9242ae	0.28566498
34	0x3eae3d15	0.34030977
35	0x3ee56534	0.44803774
36	0xbe9a17b6	-0.30096215
37	0xbdc7854a	-0.0974222
38	0x401b09b8	2.4224682
39	0x3ea202f3	0.31642875
40	0xbe0cebe1	-0.13761856
41	0x3ec3192e	0.38105148
42	0x3ecd016b	0.40040144
43	0x3e4b0f8b	0.19830148
44	0xbee57f82	-0.44823843
45	0x3ee0199b	0.43769535
46	0x3ebd2295	0.36940446
47	0x3f1e1a01	0.6175843
48	0xbf818896	-1.0119808
49	0xbf578092	-0.8418056
50	0xbf81e622	-1.0148356
51	0xbf594145	-0.8486522
52	0xbf65807c	-0.89649177
53	0xbf45932e	-0.77177703
54	0xbe9e43e7	-0.3091118
55	0xbcf162a6	-0.029465985
56	0xbd81826d	-0.06323705
57	0xbe9862dd	-0.29762927
58	0xbd699951	-0.05703098
59	0xbe7fe849	-0.24990954
60	0xbf664935	-0.89955455
61	0xbe87968a	-0.2648204
62	0xbef9ac7e	-0.48764414
63	0xbf5504bd	-0.83210355
64	0xbe883227	-0.26600763
65	0xbdfea3b0	-0.12433565
66	0xbf044dae	-0.5168103
67	0xbf0974fc	-0.5369413
68	0xbf03bccb	-0.5145995
69	0xbf399837	-0.72497886
70	0xbef06e55	-0.46959177
71	0xbf540fbf	-0.82836527
72	0xbedd7102	-0.4325028
73	0xbec6411e	-0.38721555
74	0xbeee6b77	-0.46566364
75	0xbf558ed8	-0.8342109
76	0xbf093d72	-0.53609383
77	0xbf0f37b9	-0.559444
78	0xbf9d7588	-1.2301493
79	0xbf9fcf24	-1.2485089
80	0xbf961905	-1.1726385
81	0xbf80e22e	-1.0069025
82	0xbf970697	-1.1798886
83	0xbf83c9d4	-1.0295968
84	0xbf874f76	-1.0571125
85	0x3c5dec5b	0.013545121
86	0xbec6de68	-0.38841558
87	0xbf854238	-1.0410833
88	0xbe4e17ff	-0.20126341
89	0xbe5232d5	-0.20527203
90	0xbf78d921	-0.9720631
91	0xbedacfdc	-0.4273671
92	0xbea27f74	-0.31737864
93	0xbf456955	-0.7711385
94	0xbf3e033a	-0.74223673
95	0xbf1c9a7c	-0.61173224
96	0xbdcf2994	-0.10115352
97	0xbdb1239e	-0.086493716
98	0x3dc0bdf0	0.09411228
99	0x3c50dec7	0.012748427
100	0xbd41e450	-0.047336876
101	0xbcf82a7a	-0.030293692
102	0x3c66b813	0.014081973
103	0xbd953f05	-0.07287411
104	0xbde79e49	-0.113094874
105	0xbd7461bc	-0.05966352
106	0x3d6614d2	0.0561722
107	0x3e065c2d	0.131211
108	0x3e146b9a	0.14494172
109	0xbf29042a	-0.6602198
110	0x3da65a17	0.08122652
111	0xbd32a229	-0.04361168
112	0x3f19781e	0.5994891
113	0xbf3153d5	-0.6926854
114	0xbeb66a59	-0.35628012
115	0x3eab49a0	0.3345461
116	0x3d7f6ea9	0.062361393
117	0x3e87aca0	0.2649889
118	0xbf22450e	-0.6338662
119	0xbe83b8d6	-0.25726956
120	0xbd449bd4	-0.04800017
121	0x3d9ce28d	0.07660399
122	0x3ccc38c8	0.02492942
123	0xbd3a25e8	-0.045446306
124	0x3e008699	0.12551345
125	0x3d34c8c9	0.044136796
126	0xbdcbe434	-0.09955636
127	0x3d6b86f8	0.057501763
128	0x3e451f51	0.19250228
129	0xbea240ca	-0.31690055
130	0x3d99f13b	0.07516714
131	0x3e3449a3	0.17606215
132	0x3d440eae	0.047865562
133	0x40297f68	2.6484013
134	0xc097c621	-4.7429357
135	0xbde86c00	-0.11348724
136	0x3bfaaeba	0.0076502236
137	0xbd79d0ff	-0.06099033
138	0xbe52959f	-0.20564888
139	0x3e68a034	0.22717363
140	0xbdeb62d3	-0.114934586
141	0x3d63eddf	0.055646773
142	0xbd46bf8f	-0.04852253
143	0xbc49687b	-0.0122929765
144	0x3e2b3553	0.1671956
145	0x3e06f1a0	0.1317811
146	0xbe9b4913	-0.3032919
147	0x3ce0ec0c	0.027456306
148	0x3db2b8fa	0.08726688
149	0x3e02ae61	0.12761833
150	0xbd32ed5c	-0.043683395
151	0xbdac3606	-0.08408742
152	0x3e087cd5	0.1332887
153	0x3e27f0ca	0.16400447
154	0x3cdac2ef	0.02670428
155	0xbe23783e	-0.15963838
156	0xbe67d8f3	-0.22641353
157	0x3f1b798f	0.6073236
158	0xbe07d1c9	-0.1326362
159	0x3e671412	0.2256625
160	0xbf311718	-0.69175863
161	0x3f611e8e	0.8793725
162	0x3e58667f	0.21132849
163	0xbe3a18c4	-0.1817351
164	0x3e0d79ae	0.13815948
165	0xbe10ffcb	-0.14160077
166	0x3f176480	0.59137726
167	0x3e022f96	0.12713465
168	0x3e237534	0.15962678
169	0xbe20863a	-0.15676203
170	0xbd926f9c	-0.07150194
171	0x3cc8e994	0.024525441
172	0xbe7810b5	-0.24225123
173	0xbd1f1a67	-0.03884354
174	0x3e49c35f	0.19703434
175	0xbda715f3	-0.08158483
176	0xbe64b2d4	-0.22333843
177	0x3e99093c	0.29889858
178	0x3cfe2383	0.031022793
179	0xbe2d7bb3	-0.16941719
180	0xbe61dd1e	-0.22057006
181	0xc015320d	-2.3311799
182	0x40a05f79	5.0116544
183	0x3e07073f	0.13186358
184	0x3b41a598	0.0029548164
185	0x3e5a84e5	0.21339758
186	0x3e230806	0.1592103
187	0xbe82ad6b	-0.25522932
188	0xbe78d4c0	-0.24299908
189	0x3e10d260	0.14142752
190	0x3d4d857c	0.05017613
191	0x3e0a8dd1	0.13530661

fc2.bias f4 [4]
0	0x3f0269eb	0.5094287
1	0xbf452a2f	-0.7701749
2	0x3d4f8542	0.050664194
3	0xbd7e4d99	-0.06208572
