models/R25Tiny___692.49max__581.98avg__443.98min__1732563250.pth (torch, 2655 bytes, 4 tensors)

conv1.weight f4 [8, 1, 3, 3]
00000000: 2b8c 743e cb3d 6bbe 93dd 6d3e 4561 823e
00000010: a030 3d3d 4d4b 65bd e795 b5be f13a c03e
00000020: 4c21 00bf 1083 793e 7b16 0fbe 5ce3 f7bc
00000030: ce14 05bf a42f 683e af4b 58be 3ef4 14be
00000040: de3d 413e 4541 c7bd 50e3 f7be c01f ca3c
00000050: 46f4 4d3e 9d83 44bf 75dc c8be a872 bd3e
00000060: a862 113f ba38 e3be 8da0 92bd 20c8 b63d
00000070: aa8a d6be 2292 6bbe 2bcf 86be 380f 34be
00000080: 5416 3abf 9930 cbbd 9376 f33e 32d6 e93e
00000090: 9bd5 7f3e 5b4d f3be aa5a 1d3d 911b 45be
000000a0: f8a6 80be 25a2 893d 3170 46be fffa be3e
000000b0: 33bc 653e 4b98 263e 72c2 eb3e 8aaa ea3d
000000c0: ae32 593e 5ac2 d4be 5469 9b3e 02c8 e6bd
000000d0: ce21 743e 5e2d 63be 85e4 613f c2a4 0e3d
000000e0: 630d 9b3e 1fb5 ccbf 5053 ecbe e337 7e3e
000000f0: db83 d2bf 7d95 cfbb d102 83bd 3da8 cfbc
00000100: 0113 13be a461 da3e e986 b8be 9e10 a03d
00000110: 7eed 713e c4ca f2be d325 ed3e 9127 c3be
0.23881595 -0.22972791 0.23229055 0.25464836 0.04618895 -0.055980016 -0.3546593 0.3754497
-0.50050807 0.24366403 -0.1397342 -0.03025978 -0.5198487 0.22674423 -0.21122621 -0.14546296
0.18871257 -0.09729246 -0.48415613 0.024673343 0.20112714 -0.76763326 -0.39230695 0.37001538
0.5679116 -0.44379216 -0.07159529 0.089248896 -0.41902667 -0.23004964 -0.26329932 -0.1758393
-0.7269032 -0.09921379 0.47551402 0.4567123 0.24983828 -0.47519955 0.038416542 -0.19248797
-0.25127387 0.0672038 -0.19378735 0.3730087 0.22435074 0.16269033 0.46046788 0.11458309
0.21210739 -0.41554528 0.30353796 -0.11268617 0.2384102 -0.22185275 0.8823932 0.034825094
0.3028365 -1.5992774 -0.46157312 0.24826007 -1.6446489 -0.006334959 -0.063970216 -0.025348777
-0.14362718 0.4265262 -0.36040428 0.078156695 0.23625752 -0.47420323 0.4631792 -0.38116124

conv1.bias f4 [8]
00000000: ddc2 29be 6043 95be 6ed9 0e3f acd0 193f
00000010: 557e 9cbe ef50 dcbe dc5f f23e c9ff 66be
-0.1657824 -0.29152966 0.5580052 0.60084033 -0.30565134 -0.43030497 0.4733876 -0.22558512

fc2.weight f4 [4, 48]
00000000: 21db 163f b0d5 233e c170 273e fe00 df3e
00000010: e4bb 053f e222 cd3e 236a b53d 79db 893c
00000020: 02df 803d 2f68 0b3e 0e45 78bd 8f1d cbbc
00000030: 7dcd 853e e9ad b53f 6833 b33e 6b5e 9c3e
00000040: 013a 6b3e 0bcb 04bf c13c b33f 68cd e43e
00000050: 1331 a63e a60e be3d 5321 d13f 6930 c33e
00000060: 669b efbd 8b84 b63e 6d85 223e 9479 eb3e
00000070: a37c 963f af4e 553d e3e1 fc3d fb8e f93e
00000080: dac2 1f3e 5d6d ac3e 23d3 ca3e 3020 043f
00000090: 392a 83be 96ce 813d 1e7c 2640 b016 c03e
000000a0: c40f 44be 7d9d a73e 2b9d dd3e 3a52 8a3e
000000b0: da17 f5be 9bb2 013f 0e05 d63e c17f 2f3f
000000c0: 8b3c 84bf bec1 62bf f06d 8ebf 902d 70bf
000000d0: d915 80bf 3c01 6bbf e743 9ebe a662 f1bc
000000e0: 6d82 81bd dd62 98be 5199 69bd 49e8 7fbe
000000f0: 36bd 86bf a65e 9cbe bc2d 1fbf 7502 81bf
00000100: c122 9fbe cd55 02be 3e22 1ebf 9f35 31bf
00000110: 8561 15bf 63a1 53bf 7eac f9be 3ecd 89bf
00000120: 03bc e7be 5efd c6be 776b eebe 5cc2 68bf
00000130: b1ae 0abf 0d31 11bf ec12 bbbf f172 aebf
00000140: 879c a8bf 8288 98bf 41b7 adbf f615 93bf
00000150: 1dfb a3bf f3fe 01bd aa55 c2be 115d 9cbf
00000160: 1fbb 4fbe 8895 52be e2f9 8dbf de45 fcbe
00000170: 2ee1 a2be 7f69 76bf 7bc5 4dbf 18f0 22bf
00000180: 2e16 bebd 78c2 6fbb bfd9 bd3d 3fa9 df3c
00000190: 4539 77bd 200b d0bc 13b8 663c 053f 95bd
000001a0: 499e e7bd bc61 74bd d214 663d 2d5c 063e
000001b0: bfa4 063e 8baa 33bf 9be4 e23d a4fd 66bd
000001c0: a321 1d3f 4c4e 32bf 50d0 aebe f3d5 a03e
000001d0: 068e 3d3d 52dc 803e 55df 19bf e1b6 75be
000001e0: 0c3f 17bd 3536 923d 3024 0b3d e6a5 61bd
000001f0: 0d50 0a3e 960c 953d e77c b9bd 826e 1d3d
00000200: eb3e 403e 58b3 9ebe 74c1 853d fa8b 2a3e
00000210: 6997 013d 9e70 2340 bd27 9bc0 c41c efbd
00000220: 1ab6 ff3d 7822 bfbc ff2d 4cbe 303a 7d3e
00000230: e7f8 25be ed9a 2b3d b5e6 15bd 84e7 8cbd
00000240: 127d 4d3e b113 133e 3b9d 8cbe 0220 373d
00000250: d371 9e3d 432a 023e 5ced 32bd 0636 acbd
00000260: d57c 083e caf0 273e efc2 da3c 3e78 23be
00000270: db6d 76be f7df 193f f5e8 00be 3254 653e
00000280: d841 31bf 5d8a 6a3f 8f84 6d3e ae0a 46be
00000290: 5fae 313e 2791 2ebe 848b 133f 2e12 013e
000002a0: a82d 1d3e 6d8f 7abe e628 95bd 77c6 f6bc
000002b0: 651f 8bbe 092c 0cbd f478 633e 7e45 b3bd
000002c0: 43b2 5bbe 3487 a73e 4b00 fa3c 121d 1cbe
000002d0: 0f57 64be 0c3b 1ac0 b4d9 a140 007f 113e
000002e0: d7ac 34bd 0c95 523e 78c6 183e 263c 6fbe
000002f0: e46f 44be cfaf 213e c522 df3c 0600 d83d
0.58928114 0.15999484 0.16351606 0.43555444 0.52239823 0.40065676 0.088581346 0.016828286
0.06292535 0.13613962 -0.06061273 -0.024794368 0.26133338 1.4193698 0.35000157 0.30540785
0.22971345 -0.5187232 1.4002916 0.44687963 0.32459316 0.09280138 1.6338295 0.38122872
-0.11699562 0.35647997 0.1587121 0.45991194 1.1756786 0.05207699 0.12347772 0.48741898
0.15601674 0.33677188 0.3961421 0.51611614 -0.2561815 0.06338231 2.6013255 0.3751731
-0.19146639 0.32737342 0.43283972 0.2701586 -0.4786976 0.50663155 0.4180073 0.6855431
-1.0330976 -0.8857688 -1.11273 -0.9381952 -1.0006667 -0.9179876 -0.3091118 -0.029465985
-0.06323705 -0.29762927 -0.05703098 -0.24990954 -1.0526493 -0.3054096 -0.6217916 -1.0078875
-0.31081203 -0.12728043 -0.61771 -0.69222444 -0.5835193 -0.8266813 -0.48764414 -1.076576
-0.4526063 -0.3886518 -0.46566364 -0.9092157 -0.5417281 -0.5671547 -1.461515 -1.3628827
-1.3172768 -1.1916659 -1.357155 -1.1491077 -1.2811009 -0.03173728 -0.37955981 -1.2215902
-0.20286225 -0.20564854 -1.1091883 -0.49272054 -0.31812423 -0.96254724 -0.80379456 -0.63647604
-0.09281574 -0.0036584418 0.092700474 0.027302383 -0.06035735 -0.02539593 0.014081973 -0.07287411
-0.113094874 -0.05966352 0.0561722 0.131211 0.13148783 -0.701821 0.11078759 -0.056394234
0.6137945 -0.6965072 -0.34143305 0.3141323 0.046278022 0.2516809 -0.601064 -0.23995544
-0.03692536 0.071392454 0.033970058 -0.055089854 0.135071 0.07277791 -0.09057026 0.038435467
0.18774001 -0.30996203 0.06531039 0.1665496 0.031638537 2.5537486 -4.848601 -0.116754085
0.12485905 -0.023331866 -0.19939421 0.24729228 -0.1620823 0.041895796 -0.036596972 -0.068800956
0.20067242 0.1436298 -0.27463707 0.04470826 0.07736554 0.12711434 -0.043683395 -0.08408742
0.1332887 0.16400447 0.02670428 -0.15963838 -0.24065344 0.6010737 -0.12588866 0.22395399
-0.69241095 0.91617376 0.23195098 -0.19340011 0.17351674 -0.17047559 0.5763476 0.12604591
0.15349448 -0.24468775 -0.072831914 -0.030123932 -0.2717239 -0.034221683 0.22214109 -0.08753489
-0.2145472 0.3272034 0.030517718 -0.15245464 -0.22298835 -2.409854 5.057825 0.14208603
-0.044110145 0.2056467 0.1491946 -0.23362789 -0.19183308 0.15789722 0.02723826 0.105468795

fc2.bias f4 [4]
00000000: e7fd 1a3f 0baf 71bf 69ee 403d acbd 40bd
0.60543674 -0.9440772 0.047102366 -0.047055885
