models/R25Tiny___148.28max__107.63avg___53.97min__1732562881.pth (torch, 2655 bytes, 4 tensors)

conv1.weight f4 [8, 1, 3, 3]
00000000: 873d a13e 7c08 28be 7fb4 a33e 9089 ce3e
00000010: 1fc2 433e 2247 f4bc f72a 55be 8def 003f
00000020: 396e d7be 62fc 8e3e 04e6 d3bd 5a92 74ba
00000030: ce14 05bf cb40 863e 4e27 36be bcbe dbbd
00000040: 1fd0 6a3e 28b1 80bd f204 e3be 826c 773e
00000050: 942c 223e bb90 1ebf 6fd3 b8be c528 9f3e
00000060: 7c54 0a3f 25ed 09bf 650e bcbd 0267 1f3e
00000070: 60ec c8be e4cf 40be acd7 8cbe 1591 8fbe
00000080: fea2 41bf d7e2 ca3c 92b0 b23e b215 cf3e
00000090: a6ff da3e 840d cebe 1c5b 1dbc d03f 653e
000000a0: ef68 26be 3db9 413d 882e 66be d760 f33e
000000b0: 6eeb 533e 634e bc3e ffae 4c3f fe26 923e
000000c0: f11d ed3e 2f66 81be c29e 023f 888c 373c
000000d0: 74f8 b13e 4f2a 0abe fee5 3e3f 03ef 17bd
000000e0: 9c95 883e f677 88bf 4c72 06bf 8e63 a33e
000000f0: 6271 99bf d969 cabd 27b4 923b c324 6c3d
00000100: 00c1 c5bd 3a3d f83e fcd9 afbe fabf 063e
00000110: 024d c23e 69a9 e9be f1b6 f03e d41d 8abe
0.31492254 -0.16409487 0.31973645 0.40339327 0.1911702 -0.029819075 -0.20817171 0.50365525
-0.4207628 0.27926928 -0.103466064 -0.00093296694 -0.5198487 0.26221308 -0.17788431 -0.10729739
0.22930954 -0.0628379 -0.4433971 0.24162486 0.15837318 -0.6193959 -0.3609881 0.31085792
0.5403516 -0.5387748 -0.09182433 0.15566638 -0.3924284 -0.18829304 -0.27508295 -0.28040376
-0.7563933 0.024766369 0.34900337 0.4044624 0.4277317 -0.40244687 -0.009604242 0.22387624
-0.16250966 0.047295798 -0.22478688 0.4753482 0.20695278 0.36778554 0.7995452 0.28545374
0.46311906 -0.25273272 0.51023495 0.011202939 0.34759867 -0.13492702 0.7456969 -0.037093174
0.26676643 -1.0661609 -0.52518153 0.31911892 -1.1987727 -0.0988347 0.0044770422 0.057652246
-0.096559525 0.48484212 -0.34345996 0.13159171 0.37949377 -0.45637062 0.47014573 -0.26975882

conv1.bias f4 [8]
00000000: 28d6 19bc 9775 80be f506 113f e45b ff3e
00000010: d647 18be 2bc3 1b3e 6cab d93e 5c83 e7bd
-0.009389438 -0.25089714 0.5665124 0.49874794 -0.14871153 0.1521117 0.42513597 -0.11304352

fc2.weight f4 [4, 48]
00000000: 0c08 a73e afc1 3d3e 8a4f 46bd 9b3e 9b3e
00000010: 5e2f 813e 3a44 833d 8727 fd3d 850e bc3c
00000020: b415 813d 5c02 0c3e 009c 2ebd da5a 4cbc
00000030: 28c1 c4bd 7997 f83e 6277 af3e edf6 f13d
00000040: 3cb0 65be cf64 d83e c864 0c3f 1140 c13e
00000050: bfe9 1e3e 20f2 8bbe 8af5 fa3e c81d 923e
00000060: 118c 683e c652 663d db88 22bd a65d 863e
00000070: eeb1 1d3e f125 af3d f02a 143e eaa1 6d3e
00000080: ac50 3ebe 472e 8f3e c9ab 393e b422 283e
00000090: ec2b 88be c324 0fbf be04 0340 9a10 063e
000000a0: 0171 d43d 1138 df3d 7f53 983e 7ca1 2fbc
000000b0: 4a5c b5be dbb5 b73e 9ddc 353e 386c 8a3e
000000c0: e931 4fbf ef6b 16bf cfa2 11bf efa4 0cbf
000000d0: aa5e 02bf 8ad0 b4be c687 9dbe 24ad f0bc
000000e0: cc81 81bd 3761 98be 49f8 68bd 70ac 7fbe
000000f0: b757 dcbe 7393 95bd a740 b0be 90b5 c1be
00000100: 7b15 d1bd 64c7 33bd 068c 84be 16b3 d2be
00000110: e529 acbe df81 adbe 9f2b aebe 20de cbbe
00000120: d40d a4be 09db 93be 8925 d3be f21b 0fbf
00000130: bbb3 e0be 52a8 efbe 7747 10bf 38f9 f5be
00000140: d8c7 e9be afcf cfbe 0b2e e7be ace0 bbbe
00000150: b180 d0be 1656 3a3e 63f4 a1be 20c1 0ebf
00000160: cc5d 23be 2f7f 40be 7d6f 17bf 8596 7abe
00000170: b72e 7ebe abde c8be e9e9 0abf bf91 06bf
00000180: 6b3a 93be c8cc 6fbe d7a0 073d acd2 e3bc
00000190: 0c0b d3bd c917 86bd d562 0d3c 6dda bfbd
000001a0: 7602 e7bd 66b2 5bbd 0820 8c3c bd27 523e
000001b0: 3414 713e 7eab 65bf a33c 813d 830a 063c
000001c0: 6d2a ee3e c6c2 1fbf b830 9cbe f423 b43e
000001d0: 1ac5 0a3e 5d04 7e3e 60ca 4bbf e83e 88be
000001e0: f916 3cbe 09a4 673c dddd 113d ff5a bdbd
000001f0: 98d5 793d 82b6 b63d 092e 4cbd 31a1 c53d
00000200: 7786 593e 0cc9 87be 8162 dc3d a04d 423e
00000210: 7e0d 4d3b a057 c63f 1a74 54c0 bad4 afbd
00000220: a18c 0b3e dee2 b83d 14d0 7abe bbd1 fc3d
00000230: e41b d23d dfdb 243d 1b8a 0bbe 70da ad3d
00000240: 781a 5f3e 3068 1d3e ebb7 7cbe a83d 8b3d
00000250: 0420 ec3d a148 133e 2dcd 78bd 8296 a6bd
00000260: 98d8 083e 95d6 283e a2dc 01bb 8b92 2bbe
00000270: dbb8 62be a72e 363f 7787 36be 709d 423e
00000280: 304f 98be 6631 1a3f d70c 433e 9859 41be
00000290: 2756 9e3d c6b4 6bbd 84a5 2d3f ee82 f03d
000002a0: 5864 413e eb0e c0bd 94fe 0abe 1a06 613d
000002b0: 5231 bd3c 8d76 1fbd 8009 1c3e 378a eebd
000002c0: eb40 63be e83f 763e d4c6 813c 7b39 38be
000002d0: e22e 9abe c558 83bf 4286 5540 e13f c43d
000002e0: f819 22bc f0d7 4a3d ab54 0f3e 6600 65be
000002f0: f8f7 5ebe 9fe5 0c3e c113 1c3e 3040 ea3d
0.32623327 0.18530916 -0.048415698 0.30321202 0.2523145 0.064094976 0.12361055 0.022956142
0.06302968 0.13672775 -0.042629242 -0.012472833 -0.09607154 0.48553064 0.3427077 0.118146755
-0.2243051 0.4226441 0.5484128 0.3774419 0.15518855 -0.27333164 0.49015456 0.28538346
0.22709681 0.056231283 -0.039681297 0.26243323 0.15399906 0.085521586 0.14469504 0.23206297
-0.18585461 0.27964994 0.18131937 0.16419488 -0.2659601 -0.5591547 2.0471644 0.1309227
0.10373116 0.10899366 0.29751202 -0.010719653 -0.35421973 0.35880932 0.17759939 0.2703569
-0.8093553 -0.58758444 -0.5688905 -0.5493917 -0.50925696 -0.35315353 -0.3076765 -0.029379435
-0.06323585 -0.2976167 -0.05687741 -0.24968123 -0.4303567 -0.07303514 -0.34424326 -0.37833834
-0.10209175 -0.043891326 -0.2588808 -0.41152257 -0.33625713 -0.33888146 -0.34017655 -0.39817905
-0.320418 -0.28878048 -0.41239575 -0.55902016 -0.43887123 -0.46808106 -0.56359047 -0.480417
-0.4566028 -0.40588138 -0.45152315 -0.3669485 -0.40723184 0.18196902 -0.31631765 -0.55763435
-0.1595375 -0.18798517 -0.5915449 -0.24471481 -0.24822508 -0.39232382 -0.5426317 -0.5256614
-0.28755507 -0.23417962 0.033112373 -0.027810417 -0.103048414 -0.065475054 0.00862952 -0.09367833
-0.11279766 -0.05363693 0.017105117 0.20522971 0.23542863 -0.897148 0.06310394 0.008181217
0.46516743 -0.62406576 -0.3050592 0.3518368 0.13551751 0.24806352 -0.79605675 -0.26610494
-0.18368138 0.01413823 0.035611976 -0.09245872 0.060994714 0.08921529 -0.04984859 0.096498854
0.212427 -0.26520574 0.10760976 0.18974924 0.003128856 1.5495491 -3.3195863 -0.08585496
0.13627864 0.090276465 -0.24493438 0.123446904 0.10259226 0.040248748 -0.13626902 0.08488929
0.21787441 0.15371776 -0.24679534 0.06798869 0.11529544 0.14383174 -0.060742546 -0.08134176
0.13363874 0.16488107 -0.0019815345 -0.1675512 -0.2214083 0.71164936 -0.17825113 0.1900537
-0.29747915 0.60231626 0.19047867 -0.18881834 0.07731276 -0.057545446 0.6783068 0.11743723
0.18885934 -0.093778454 -0.13573676 0.05493746 0.023094807 -0.03893142 0.15237999 -0.11647456
-0.22192733 0.24047816 0.015841879 -0.17990677 -0.30113894 -1.0261465 3.3363194 0.095824964
-0.009893887 0.04952234 0.13997142 -0.22363433 -0.2177428 0.13759468 0.1524191 0.11438024

fc2.bias f4 [4]
00000000: 4346 5e3e c329 76be 2934 5d3d f101 98bd
0.2170649 -0.24039368 0.054004822 -0.07422245
