models/R25Tiny___226.44max__116.02avg___42.29min__1732562468.pth (torch, 2655 bytes, 4 tensors)

conv1.weight f4 [8, 1, 3, 3]
0	0x3e8012ee	0.25014442
1	0xbe608bbb	-0.21928303
2	0x3e99f5ec	0.30070436
3	0x3e7774f9	0.24165715
4	0x3e9debe3	0.3084403
5	0xbe67f25f	-0.22651051
6	0xbe3dec13	-0.18547086
7	0x3e499b31	0.19688107
8	0xbe8e43c4	-0.27786076
9	0x3e808860	0.25104046
10	0xbde0e284	-0.109807044
11	0xbd9f8076	-0.07788174
12	0xbeba195b	-0.3634747
13	0xbdce0a6f	-0.10060584
14	0xbc45e994	-0.012079615
15	0xbcd126e3	-0.025531238
16	0x3de9092e	0.11378704
17	0xbd628d17	-0.055310335
18	0xbeb509f1	-0.35359147
19	0x3e357564	0.17720562
20	0x3c28e464	0.010308359
21	0xbe5e3da2	-0.21703199
22	0xbed17075	-0.4090611
23	0x3db27f09	0.08715636
24	0x3e8e911c	0.27845085
25	0xbe9854b4	-0.29752123
26	0xbbcb2445	-0.006199392
27	0x3dd30336	0.10303347
28	0xbe862937	-0.2620332
29	0xbd29c9a0	-0.04145205
30	0xbe680ddd	-0.22661538
31	0xbe1718bc	-0.14755529
32	0xbe5e5df1	-0.21715523
33	0xbc40c39f	-0.01176539
34	0x3e54a926	0.2076765
35	0x3e7ed4e6	0.24885902
36	0x3ea63733	0.3246399
37	0xbe8fffac	-0.2812475
38	0xbc86cafd	-0.016454214
39	0x3ea2b486	0.31778353
40	0x3cabb7d1	0.020961674
41	0xbdf23255	-0.11826006
42	0xbe987ffa	-0.29785138
43	0x3e05fdfd	0.1308517
44	0x3e6a494e	0.22879526
45	0x3e3bbd37	0.18333898
46	0x3e47c883	0.19510083
47	0xbc98b2d4	-0.01863996
48	0x3e1d5060	0.15362692
49	0xbe2be2b2	-0.16785696
50	0x3e3f4a45	0.18680675
51	0xbdb507f3	-0.08839407
52	0xbe03b35e	-0.12861392
53	0xbe6423db	-0.22279303
54	0x3dbbf30e	0.091772184
55	0x3d9b3bbe	0.07579754
56	0x3e1ca043	0.1529551
57	0xbe98f2bf	-0.298727
58	0xbe71fa07	-0.23630534
59	0x3e8342e2	0.25636965
60	0xbe3d743e	-0.18501374
61	0xbe570d3d	-0.21001144
62	0xbddf6bd1	-0.10909236
63	0xbe21988e	-0.15780851
64	0xbe49763d	-0.1967401
65	0x3e994186	0.29932803
66	0xbd896163	-0.06708028
67	0x3e1ca3f1	0.15296914
68	0x3e7e33a7	0.24824391
69	0xbea8ffc6	-0.3300764
70	0x3e843c0f	0.2582707
71	0xbe271782	-0.16317561

conv1.bias f4 [8]
0	0xbcca53e4	-0.024698205
1	0x3d3a115f	0.045426723
2	0x3e515ccc	0.20445555
3	0x3e9af585	0.30265442
4	0x3e21e1fa	0.1580886
5	0x3e674ab3	0.22587089
6	0xbe37795b	-0.17917387
7	0xbca5a268	-0.020219043

fc2.weight f4 [4, 48]
0	0x3e9d3173	0.3070179
1	0x3eb109ce	0.34577793
2	0x3ea8ea67	0.32991335
3	0x3ed98dbd	0.4249095
4	0x3ee4dd84	0.44700253
5	0x3e79b4fa	0.24385443
6	0x3e0942c6	0.13404378
7	0x3da7687e	0.08174227
8	0x3e156d55	0.14592488
9	0x3d9df61d	0.07712958
10	0x3d14f179	0.0363631
11	0x3dcd591d	0.10026763
12	0x3d6e5055	0.05818208
13	0x3d6cd07a	0.057816006
14	0xbd591bc7	-0.053005006
15	0x3e6d6ecc	0.23186797
16	0x3bb31850	0.0054655448
17	0x3d1edc3c	0.03878425
18	0x3ee9ae82	0.4564095
19	0x3ec268c3	0.37970552
20	0x3e70560b	0.23470323
21	0x3e1d7f9e	0.15380713
22	0x3bb7dfc5	0.005611392
23	0x3cb5dca0	0.022199929
24	0x3e9e16bf	0.3087673
25	0x3e836de2	0.2566977
26	0x3e613456	0.21992621
27	0x3eb38f21	0.35070136
28	0x3ea7edfc	0.32798755
29	0x3e9f4c30	0.31112814
30	0x3e732f85	0.23748596
31	0x3ed35e5b	0.41282925
32	0x3e2ad9ab	0.16684596
33	0x3ea34264	0.3188659
34	0x3ec75377	0.38930866
35	0x3ed9329b	0.4242142
36	0xbde06c6c	-0.1095818
37	0xbcb927a8	-0.022601917
38	0x3df68744	0.120375186
39	0x3e8ea6ef	0.27861735
40	0x3dcbecc4	0.09957269
41	0xbc0099a2	-0.007849129
42	0x3eddcc17	0.4331977
43	0x3e29edb4	0.16594583
44	0x3e11c34c	0.14234656
45	0x3eed8a96	0.46394795
46	0x3eb203fe	0.3476867
47	0x3e9dedda	0.3084553
48	0xbfc68c2d	-1.5511528
49	0xbfbdc2f6	-1.4825122
50	0xbf9eba6d	-1.2400643
51	0xbf989ee3	-1.1923488
52	0xbf8ed5ee	-1.1159036
53	0xbf889e3a	-1.0673287
54	0xbea6c683	-0.32573327
55	0xbc8dc7a7	-0.017307116
56	0xbd53ca73	-0.051706742
57	0xbe988395	-0.2978789
58	0xbd89f7ef	-0.06736743
59	0xbe7a5818	-0.24447668
60	0xbe8d41cf	-0.2758927
61	0x3d98f51f	0.07468628
62	0xbdf2d913	-0.1185781
63	0xbecf55e7	-0.40495226
64	0xbd443d9a	-0.04791031
65	0x3c807ddd	0.015685016
66	0xbfafe7ed	-1.3742653
67	0xc014720a	-2.3194604
68	0xbfc5c73b	-1.5451425
69	0xc001faf8	-2.030943
70	0xbffefaaf	-1.9920253
71	0xbfa314d7	-1.2740735
72	0xbf600da2	-0.875208
73	0xbf5131cf	-0.81716627
74	0xbf7147f9	-0.94250447
75	0xbf83e87c	-1.0305324
76	0xbf6c76d5	-0.92368823
77	0xbf8773d2	-1.058222
78	0xbf07d9a5	-0.53066474
79	0xbee5c819	-0.44879225
80	0xbf0a2e71	-0.53977114
81	0xbf1b536a	-0.60674155
82	0xbf29a2a2	-0.6626378
83	0xbf20aea9	-0.6276651
84	0x3de4a5fd	0.11164472
85	0x3cafefb8	0.021476611
86	0x3cc4c4d0	0.024019629
87	0xbeda9a53	-0.42695865
88	0x3ca3882b	0.01996239
89	0x3d510ea1	0.05103934
90	0xbf89797e	-1.0740201
91	0xbeec876f	-0.46197078
92	0xbf0efbaf	-0.5585279
93	0xbf7e710e	-0.9939126
94	0xbf672451	-0.9028979
95	0xbf6a4030	-0.9150419
96	0xbc6ae40c	-0.014336597
97	0xbcb1af90	-0.02169016
98	0xbd1a332a	-0.03764645
99	0x3c421046	0.0118447
100	0xbd8707e6	-0.065933034
101	0xbd88c7a5	-0.06678704
102	0x3a8fdd66	0.0010976016
103	0xbdf5bd71	-0.11999024
104	0xbc53093f	-0.012880622
105	0x3cd0786f	0.025448052
106	0x3cec408c	0.028839372
107	0x3db9da82	0.0907488
108	0x3ce2e7de	0.027698454
109	0xbdc8bd3f	-0.09801721
110	0xbd867e32	-0.065670386
111	0xbb08aab7	-0.0020853707
112	0x3db8889f	0.090104334
113	0x3d1d0ed4	0.03834422
114	0xbd8b7d2e	-0.068109855
115	0xbbcea14a	-0.0063058482
116	0x3d1f3de2	0.038877375
117	0x3d4a744e	0.049427323
118	0x3af54881	0.0018713624
119	0xbd95ebec	-0.07320389
120	0xbda3d666	-0.07999878
121	0x3c4f071a	0.0126359705
122	0xbdba0270	-0.09082496
123	0x3d3b46dc	0.045721874
124	0x3dc52cfe	0.09627722
125	0x3bc65c34	0.006053472
126	0x3c519c4e	0.012793614
127	0x3d1c61f6	0.03817936
128	0x3d217d33	0.03942604
129	0xbe233611	-0.15938593
130	0x3ddf0573	0.10889711
131	0x3c8510a6	0.01624329
132	0xbe158ec6	-0.14605245
133	0x3d131d70	0.035916746
134	0xbdcb8da8	-0.09939128
135	0x3b2fe060	0.0026836619
136	0x3d86fc5b	0.06591102
137	0xbe1330ae	-0.14374039
138	0xbdb9c318	-0.09070414
139	0x3ca7bcc1	0.020475747
140	0xbce4aa1b	-0.027913144
141	0x3d9fe7cd	0.07807884
142	0xbdf1afc9	-0.118011065
143	0x3dfcd92e	0.12346111
144	0xbb5f8c0b	-0.0034110572
145	0xbc5d7c58	-0.013518415
146	0xbdc27371	-0.09494675
147	0xbbe93abf	-0.007117599
148	0x3da7e244	0.081974536
149	0x3dff09e1	0.12453056
150	0xbbaed991	-0.0053359945
151	0xbcd5b9c9	-0.026089566
152	0x3d822ff9	0.06356806
153	0x3dd6b6af	0.10484063
154	0xbdb1a3a9	-0.08673794
155	0xbca6674c	-0.020312928
156	0xbdbacf55	-0.09121577
157	0x3dc99b57	0.09844082
158	0xbdaae702	-0.083448425
159	0x3c1bcff0	0.009510025
160	0x3d3e753b	0.04649852
161	0xbc9a7e31	-0.018859
162	0x3c0849e6	0.0083184
163	0x3d4f3894	0.050591066
164	0xbd4971ac	-0.04918067
165	0x3cdf724d	0.027276183
166	0xbcabb150	-0.020958573
167	0x3c90f7c9	0.017696278
168	0x3dced78a	0.100997046
169	0xbda02705	-0.078199424
170	0xbc88ca1f	-0.016697941
171	0xbd7e4c56	-0.06208452
172	0x3c172876	0.009225955
173	0x3d0ef723	0.034903657
174	0x3db84f23	0.08999469
175	0xbdaa4424	-0.08313778
176	0xbdb46c21	-0.088096865
177	0x3deb16f6	0.11478989
178	0xbb29825d	-0.0025865056
179	0xbd6f0d2e	-0.05836218
180	0xbd03a5e6	-0.032140635
181	0x3bfc3fc0	0.0076980293
182	0xbdd82ca1	-0.10555387
183	0xbba54325	-0.0050434046
184	0xbd92b447	-0.071632914
185	0x3e0cda32	0.1375511
186	0x3ced2414	0.028947867
187	0xbde2f6f3	-0.11082258
188	0xbd37e82f	-0.044899162
189	0x3dc5c02d	0.09655795
190	0x3dd5eb2c	0.10445246
191	0xbbad39f7	-0.005286451

fc2.bias f4 [4]
0	0x3ed8f6f8	0.42375922
1	0xbf5e107f	-0.8674392
2	0x3dbc8cd0	0.09206545
3	0xbddaa53a	-0.10676046
