models/R25Tiny__1541.85max_1410.29avg_1202.46min__1732623798.pth (torch, 2655 bytes, 4 tensors)

conv1.weight f4 [8, 1, 3, 3]
0.2804447 -0.04827952 0.33396816 0.26982796 0.15393911 -0.057078686 -0.3739369 0.47154835
-0.35590267 0.19085523 -0.037258886 -0.02090824 -0.65727025 0.19245279 -0.34976062 -0.035923492
0.057910528 -0.1366042 -0.28320158 0.5401496 0.33558625 -0.58966863 -0.9078439 -0.09532087
0.6963551 -0.313202 -0.40953076 0.39476836 -0.48496327 -0.65968126 -0.2867138 -0.5448885
-0.83016133 -0.22632532 0.48915443 0.36791942 0.25848764 -0.6172195 -0.7935239 -0.22798614
-0.19959112 -1.0404592 -0.3972229 0.15610923 0.49241057 0.23864521 0.65671563 0.23738176
0.08283467 -0.511299 0.35674304 -0.1398815 0.15389124 -0.033945408 0.49425948 0.16290262
0.17347872 -0.26545107 -0.14259958 0.38663933 -0.84796596 -0.033661876 0.3961737 -0.12081237
0.012739367 0.30726743 -0.19017072 -0.11190098 0.3270307 -0.35172552 0.8774644 -0.11598152
00000000: 7396 8f3e bfc0 45bd e0fd aa3e e426 8a3e
00000010: 37a2 1d3e 57cb 69bd a874 bfbe c96e f13e
00000020: e038 b6be 8e6f 433e c69c 18bd c247 abbc
00000030: dd42 28bf 5812 453e d313 b3be 8324 13bd
00000040: 9733 6d3d f9e1 0bbe ccff 90be 3f47 0a3f
00000050: f6d1 ab3e 86f4 16bf 7568 68bf 9737 c3bd
00000060: 5444 323f 035c a0be 04ae d1be 141f ca3e
00000070: 1b4d f8be dfe0 28bf 27cc 92be d07d 0bbf
00000080: 7485 54bf d3c1 67be 7372 fa3e ef5f bc3e
00000090: 7e58 843e 1902 1ebf 6224 4bbf 3375 69be
000000a0: 9d61 4cbe c42d 85bf cd60 cbbe 19db 1f3e
000000b0: 3d1d fc3e 695f 743e 841e 283f 3414 733e
000000c0: 39a5 a93d 7ee4 02bf 06a7 b63e 193d 0fbe
000000d0: aa95 1d3e 570a 0bbd 940f fd3e f2cf 263e
000000e0: 68a4 313e 34e9 87be a005 12be 97f5 c53e
000000f0: 4c14 59bf 09e1 09bd 47d7 ca3e 7a6c f7bd
00000100: c7b8 503c 2852 9d3e 1dbc 42be 572c e5bd
00000110: 9170 a73e 5e15 b4be 82a1 603f b887 edbd

conv1.bias f4 [8]
-0.14694856 -0.060014274 0.65395576 0.46983483 0.2897945 -0.343465 0.15354645 -0.484977
00000000: af79 16be 87d1 75bd a569 273f 318e f03e
00000010: f25f 943e a5da afbe 483b 1d3e e84e f8be

fc2.weight f4 [4, 48]
0.11601126 0.16413751 0.25200176 0.3248941 0.36536038 0.16416286 0.04011512 0.15269978
0.24304262 0.19584869 -0.25697517 -0.18034805 0.08990951 0.1825589 0.1000931 0.01789494
0.04037716 -0.46345812 0.23015349 0.25677362 -0.06603414 0.013262893 0.14000507 -0.0058664833
0.11846051 0.014560176 -0.7454948 0.5033241 0.37613413 0.11919671 0.18608285 0.35264936
0.041319944 0.06428948 0.29583168 0.27658913 0.25479835 0.08826163 0.13591424 0.3543173
0.5177338 0.24220946 0.25295016 0.16862886 0.12630522 0.32778084 0.23034978 0.14106375
-0.25373545 -0.13187097 -1.3335693 -0.23635854 -0.3853316 -0.47386748 -0.14585863 0.2084722
-0.0056241476 -0.0014528296 0.24229518 -0.4754694 -2.554593 0.7273934 -0.3691197 -0.27835572
-0.86165416 0.3468126 -0.24169399 -0.983325 0.06756189 -2.9214003 0.8053547 0.23305394
-0.0416156 -0.8576094 0.21526194 -1.4870734 0.7662606 -0.40689933 -0.19223921 -0.2611944
-0.7258531 -0.06796589 -0.29560646 -1.0365367 -0.44681314 -1.8964602 0.8115971 -0.26771203
-0.342319 -1.8698412 -0.30569246 -0.20045404 -2.5324082 -0.23835045 -0.5434519 -0.5476193
-0.21696277 -0.18717058 0.19721538 -0.05819744 -0.09697423 -0.08689086 -0.0069063576 -0.08313185
0.01993351 0.14957023 -0.1689224 0.13839573 0.20748515 -0.3714377 -0.21082875 -0.032077134
0.75930285 -0.1514711 -0.20138526 0.14231306 -0.23143806 0.12563917 -1.6688038 -0.22129525
0.2702184 -0.0029731507 -0.08954562 0.53801423 -1.1273394 0.014642915 -0.19172816 0.06667346
0.13435593 -0.44722003 0.041368637 0.14677459 0.044486176 0.69820744 -0.8879508 -0.10127743
0.09870899 0.5445993 -0.30204457 0.02346051 0.2710144 0.0044036517 -0.122292206 -0.020489138
0.22813305 0.16673507 -0.23279001 0.05989293 0.14831789 0.11513401 -0.048470125 -0.04504368
0.05460319 -0.026142064 0.33743146 -0.09850409 -0.33943877 0.5023608 0.098629005 0.17195886
-0.5795054 0.029648108 0.24670535 -0.10221667 0.30094382 -0.01720569 1.6971872 0.17313662
-0.1447471 0.07965721 -0.17980756 -0.5812034 1.3388349 0.023918793 0.33052167 -0.02826222
-0.19970888 0.47949922 0.0699615 -0.24804343 -0.080416135 -0.62319785 0.65962017 0.11878782
-0.09160159 -0.62898105 0.310038 -0.12693702 -0.3254338 0.18511286 0.15158246 -0.059474234
00000000: 5097 ed3d aa13 283e 6006 813e 8558 a63e
00000010: 8410 bb3e 4f1a 283e c14f 243d 555d 1c3e
00000020: 2ae0 783e 8f8c 483e 4092 83be 29ad 38be
00000030: 7a22 b83d b8f0 3a3e 9cfd cc3d 6998 923c
00000040: 8562 253d 624a edbe 5bad 6b3e d577 833e
00000050: e83c 87bd 9b4c 593c 7d5d 0f3e a13b c0bb
00000060: 6d9b f23d ce8d 6e3c bfd8 3ebf d9d9 003f
00000070: a794 c03e 681d f43d 818c 3e3e 758e b43e
00000080: 1a3f 293d 34aa 833d 4077 973e 179d 8d3e
00000090: ee74 823e 83c2 b43d 1a2d 0b3e 1469 b53e
000000a0: 348a 043f c205 783e af82 813e 0bad 2c3e
000000b0: 2856 013e e4d2 a73e d0e0 6b3e 0473 103e
000000c0: 9de9 81be 2f09 07be 66b2 aabf f907 72be
000000d0: 2f4a c5be c29e f2be f75b 15be bd79 553e
000000e0: c54a b8bb df6c beba 3a1c 783e ba70 f3be
000000f0: 747e 23c0 7436 3a3f 42fd bcbe a484 8ebe
00000100: 5e95 5cbf 6c91 b13e a17e 77be 30bb 7bbf
00000110: e35d 8a3d 39f8 3ac0 ba2b 4e3f b1a5 6e3e
00000120: 1f75 2abd 4a8c 5bbf a06d 5c3e 6c58 bebf
00000130: a829 443f 1c55 d0be 5bda 44be 46bb 85be
00000140: 82d1 39bf b331 8bbd bb59 97be 3cad 84bf
00000150: b1c4 e4be 35bf f2bf d4c4 4f3f 8d11 89be
00000160: 7044 afbe f556 efbf b983 9cbe d343 4dbe
00000170: fa12 22c0 2412 74be aa1f 0bbf c730 0cbf
00000180: 7d2b 5ebe a5a9 3fbe d4f2 493e 7060 6ebd
00000190: 6d9a c6bd d6f3 b1bd ba4e e2bb 0841 aabd
000001a0: 9a4b a33c f028 193e fef9 2cbe 9cb7 0d3e
000001b0: fd76 543e 152d bebe 7ee3 57be 5063 03bd
000001c0: ac61 423f 3d1b 1bbe f037 4ebe 84ba 113e
000001d0: 19fe 6cbe 8ea7 003e 5d9b d5bf 399b 62be
000001e0: 115a 8a3e 31d9 42bb b263 b7bd 4dbb 093f
000001f0: a84c 90bf d6e8 6f3c 6354 44be 188c 883d
00000200: 9a94 093e 06fa e4be 2972 293d 144c 163e
00000210: 2337 363d b9bd 323f be50 63bf 8b6a cfbd
00000220: f027 ca3d dc6a 0b3f 96a5 9abe 4130 c03c
00000230: 66c2 8a3e 824c 903b 5674 fabd d6d8 a7bc
00000240: b69b 693e 99bc 2a3e 8160 6ebe 4a52 753d
00000250: a5e0 173e 61cb eb3d 9c88 46bd b97f 38bd
00000260: 98a7 5f3d e227 d6bc d1c3 ac3e 83bc c9bd
00000270: ebca adbe b89a 003f 01fe c93d fc15 303e
00000280: 775a 14bf 97e0 f23c 54a0 7c3e f956 d1bd
00000290: 4f15 9a3e f2f2 8cbc 6e3d d93f ba4a 313e
000002a0: 9538 14be 5223 a33d 791f 38be bfc9 14bf
000002b0: f15e ab3f 58f1 c33c 233a a93e 2c86 e7bc
000002c0: 7c80 4cbe ec80 f53e fa47 8f3d 19ff 7dbe
000002d0: 37b1 a4bd e589 1fbf dedc 283f 0747 f33d
000002e0: 9d99 bbbd e704 21bf 4dbd 9e3e c7fb 01be
000002f0: 429f a6be 3a8e 3d3e 6f38 1b3e 419b 73bd

fc2.bias f4 [4]
0.31350258 -0.2986723 0.006930472 0.030387357
00000000: 6983 a03e 93eb 98be 0319 e33b e8ee f83c
