models/R25Tiny___348.28max__270.93avg__188.46min__1732623294.pth (torch, 2655 bytes, 4 tensors)

conv1.weight f4 [8, 1, 3, 3]
0.3148101 0.028482568 0.44969028 0.3444901 0.32237458 -0.009219625 -0.21521159 0.49745318
-0.3803583 0.35871893 0.11038162 -0.030394407 -0.63596225 0.2772109 -0.26354483 0.037770104
0.26856372 -0.14433376 -0.2905923 0.6912801 0.34471512 -0.44514412 -0.8604628 -0.045324776
0.59311587 -0.5014232 -0.38047075 0.26937702 -0.7570879 -0.37326625 -0.37050298 -0.5528375
-0.39453575 -0.08260854 0.5949648 0.57356864 0.5602209 -0.6579339 -0.3104061 -0.012014582
0.02641533 -0.5301005 -0.41326395 0.13768424 0.43439305 0.24773514 0.69416314 0.31218165
0.42703164 -0.37301984 0.39065507 -0.071406625 0.21619198 -0.046102658 0.53110594 0.18097569
0.22646569 -0.24798639 -0.16762649 0.4870139 -0.9019894 -0.054107405 0.37871623 -0.09569307
0.056806166 0.5152754 -0.07605065 0.015452521 0.40518844 -0.38939714 0.9201484 -0.06857105
00000000: ca2e a13e 4654 e93c ce3d e63e 0261 b03e
00000010: 480e a53e e90d 17bc 6d60 5cbe 2fb2 fe3e
00000020: 53be c2be 02aa b73e c20f e23d b1fd f8bc
00000030: 6cce 22bf 96ee 8d3e 59ef 86be d3b4 1a3d
00000040: 2f81 893e 3bcc 13be 84c8 94be bcf7 303f
00000050: 807e b03e eee9 e3be 4a47 5cbf 79a6 39bd
00000060: 71d6 173f 455d 00bf 10cd c2be c9eb 893e
00000070: 83d0 41bf c11c bfbe 91b2 bdbe c286 0dbf
00000080: 9700 cabe ab2e a9bd 9d4f 183f 65d5 123f
00000090: a36a 0f3f 5b6e 28bf 8ced 9ebe cfd8 44bc
000000a0: f664 d83c abb4 07bf 5597 d3be 19fd 0c3e
000000b0: c468 de3e 48ae 7d3e adb4 313f 46d6 9f3e
000000c0: e4a3 da3e 75fc bebe f103 c83e a33d 92bd
000000d0: 6e61 5d3e 24d6 3cbd 8ff6 073f b151 393e
000000e0: 9fe6 673e 25f0 7dbe 47a6 2bbe e359 f93e
000000f0: c7e8 66bf ba9f 5dbd 18e7 c13e bafa c3bd
00000100: 95ad 683d 17e9 033f 71c0 9bbd 922c 7d3c
00000110: dc74 cf3e 105f c7be d88e 6b3f fb6e 8cbd

conv1.bias f4 [8]
-0.02024872 0.16541643 0.75260895 0.6665571 0.36270365 -0.12068631 0.18058147 -0.14170694
00000000: a5e0 a5bc ed62 293e fbaa 403f 7ca3 2a3f
00000010: 4bb4 b93e 622a f7bd 59ea 383e a01b 11be

fc2.weight f4 [4, 48]
0.1109578 0.096931286 0.14059271 0.16546756 0.21934359 0.013274339 0.01083996 0.044637084
0.12212279 0.11298095 -0.020183561 0.12138121 -0.03378287 0.07830388 -0.105728544 -0.03354336
-0.037782393 -0.28466263 0.21498702 0.15388894 -0.07940666 -0.054094773 -0.06165338 -0.022776684
0.088540725 -0.0019103101 -0.85835767 0.10887819 0.1718608 -0.014787117 0.09211728 0.2907183
-0.10328754 0.09517525 0.199909 0.2121584 0.18218869 -0.0694246 0.25734586 0.24330023
0.3754449 0.07632734 0.22400008 0.07173516 0.021338576 0.26041847 0.1478523 0.1346871
0.13833795 0.18080398 -0.78672874 0.097236656 -0.0035251186 -0.062024947 -0.12884784 0.27370805
0.12637344 0.028539954 0.20413008 -0.44107702 -2.3029346 0.8384377 0.0026985197 0.10668448
-0.49021286 0.44641533 0.28458023 -0.8326191 0.3274443 -2.0615313 0.72569937 0.42455018
0.047043454 -0.40186447 0.29386133 -1.1223832 0.65571696 -0.13331816 0.17605636 0.10689177
-0.33955172 0.28118342 0.07133915 -0.39798036 -0.021759735 -1.3985003 0.8165877 0.11806831
0.041246664 -1.4185517 0.045151968 0.14647493 -1.3265356 0.11991724 -0.19772488 -0.38169745
-0.2683864 -0.25536308 0.11389777 -0.08920373 -0.13432586 -0.09434925 -0.05231776 -0.17386764
-0.04123666 -0.041000932 -0.0011059599 0.20897307 0.24425018 -0.6190276 -0.18003334 -0.03465246
0.5468854 -0.10731028 -0.20818415 0.122956574 -0.021086553 0.09002788 -1.6194654 -0.33824295
-0.08599295 0.03653872 -0.13572375 0.016015954 -0.789844 -0.022071715 -0.061797857 0.026149122
0.17576922 -0.26210347 0.046952873 0.17076074 0.118130155 0.7567395 -1.015526 -0.044616435
0.16875215 0.605066 -0.26647627 -0.018280596 0.27237746 -0.02604773 -0.1557317 0.11089003
0.26019323 0.20916551 -0.19675265 0.062247813 0.17093357 0.13966238 -0.062000006 -0.0071149166
0.15137163 0.2565532 -0.044555403 -0.087567054 -0.3381504 0.77952296 0.01670429 0.1312127
-0.35181478 0.08456199 0.30598238 -0.060420446 0.13181736 0.0638372 1.5090566 0.20714544
0.09557697 -0.0019325943 -0.25640815 -0.09579546 0.902839 0.02372581 0.2178484 -0.01631551
-0.17658533 0.24432494 0.09450457 -0.23006994 -0.16810411 -0.7337476 0.76065695 0.047290962
-0.17473479 -0.7007942 0.24274501 -0.09111548 -0.29032162 0.21841396 0.18569677 0.046027828
00000000: d83d e33d e983 c63d 89f7 0f3e 5470 293e
00000010: 9b9b 603e 9d7c 593c 169a 313c 60d5 363d
00000020: 831b fa3d 8e62 e73d ff57 a5bc b696 f83d
00000030: e85f 0abd c95d a03d 3588 d8bd c364 09bd
00000040: b6c1 1abd 4dbf 91be 8f25 5c3e 1095 1d3e
00000050: f59f a2bd 7b92 5dbd 4188 7cbd 2b96 babc
00000060: d754 b53d 5f63 faba 54bd 5bbf 87fb de3d
00000070: 47fc 2f3e aa45 72bc fca7 bc3d 07d9 943e
00000080: 6b88 d3bd 3eeb c23d f2b4 4c3e 0d40 593e
00000090: ac8f 3a3e 7c2e 8ebd d6c2 833e b223 793e
000000a0: 503a c03e 8251 9c3d 4760 653e e2e9 923d
000000b0: 3dce ae3c 9255 853e 9866 173e 6aeb 093e
000000c0: 77a8 0d3e ae24 393e 0e67 49bf 0324 c73d
000000d0: ad05 67bb df0d 7ebd b0f0 03be 7623 8c3e
000000e0: 0a68 013e 9fcc e93c 7a07 513e d9d4 e1be
000000f0: 4863 13c0 daa3 563f a6d9 303b 657d da3d
00000100: 2efd fabe 8d90 e43e 80b4 913e 8626 55bf
00000110: c7a6 a73e 21f0 03c0 6fc7 393f a45e d93e
00000120: a3b0 403d 2ec1 cdbe fe74 963e 41aa 8fbf
00000130: 11dd 273f 8e84 08be 1e48 343e 13ea da3d
00000140: b9d9 adbe 46f7 8f3e 431a 923d 15c4 cbbe
00000150: 7941 b2bc 0f02 b3bf e40b 513f cccd f13d
00000160: 43f2 283d 1a93 b5bf 45f1 383d 86fd 153e
00000170: ebcb a9bf 2c97 f53d 6478 4abe d96d c3be
00000180: f169 89be f3be 82be 3c43 e93d 72b0 b6bd
00000190: b88c 09be 2e3a c1bd 264b 56bd 5c0a 32be
000001a0: c6e7 28bd 98f0 27bd dbf5 90ba 09fd 553e
000001b0: b81c 7a3e 9878 1ebf a95a 38be bdef 0dbd
000001c0: ae00 0c3f 7ec5 dbbd 3a2e 55be a8d0 fb3d
000001d0: b5bd acbc 8a60 b83d a44a cfbf 2e2e adbe
000001e0: 121d b0bd a0a9 153d 2bfb 0abe e433 833c
000001f0: 3733 4abf becf b4bc c01f 7dbd af36 d63c
00000200: d9fc 333e 6d32 86be a851 403d e7db 2e3e
00000210: 39ee f13d aeb9 413f c2fc 81bf b9bf 36bd
00000220: 5dcd 2c3e 9be5 1a3f 946f 88be 30c1 95bc
00000230: 0f75 8b3e 0d62 d5bc 2178 1fbe 501a e33d
00000240: 0c38 853e 7c2f 563e 8779 49be 90f7 7e3d
00000250: 3609 2f3e a803 0f3e b8f3 7dbd 3f24 e9bb
00000260: 2a01 1b3e f15a 833e ba7f 36bd 5b56 b3bd
00000270: 0d22 adbe d18e 473f 6fd7 883c 9f5c 063e
00000280: 1121 b4be d62e ad3d b9a9 9c3e 6e7b 77bd
00000290: 21fb 063e 14bd 823d c428 c13f ef1d 543e
000002a0: dcbd c33d 1b4f fdba ee47 83be 6930 c4bd
000002b0: 7520 673f a15c c23c a713 5f3e 1ba8 85bc
000002c0: c9d2 34be 5130 7a3e 9d8b c13d 7497 6bbe
000002d0: 7c23 2cbe e2d6 3bbf 6aba 423f 2bb4 413d
000002e0: aded 32be 4067 33bf 2692 783e c19a babd
000002f0: 09a5 94be e9a7 5f3e 4b27 3e3e ad87 3c3d

fc2.bias f4 [4]
0.16926354 0.099935964 0.0007191415 0.017898945
00000000: 6c53 2d3e 3aab cc3d c584 3c3a cfa0 923c
