models/R25Tiny__1724.37max_1666.44avg_1591.44min__1732624000.pth (torch, 2655 bytes, 4 tensors)

conv1.weight f4 [8, 1, 3, 3]
00000000: 59ce 833e d600 82bd 47ff a63e 67bd 6f3e
00000010: 5137 063e ae64 83bd 5012 ddbe c0cd df3e
00000020: 6482 bbbe b509 193e 6163 94bd c247 abbc
00000030: dd42 28bf 5812 453e d313 b3be d35d 9ebd
00000040: 2f91 983c f9e1 0bbe bc38 99be 38b5 0e3f
00000050: ecfb af3e 00af 15bf 664b 62bf 9fb0 9ebd
00000060: e546 313f c3e1 98be 06b5 d3be 3024 c63e
00000070: 0c2c f0be 2af7 25bf b5ac 9cbe c171 07bf
00000080: 69d7 69bf f757 71be 1749 f43e ee4d b43e
00000090: f5a6 0d3e 1902 1ebf cde7 2cbf f133 c3be
000000a0: 12ee dcbe e1a6 8ebf f3d6 e0be c3b0 5e3e
000000b0: d5be 073f a24f 7c3e 3727 203f e29d 643e
000000c0: be39 953c 7eef 04bf fafe b23e 6993 29be
000000d0: 3f54 d43d 3c6a 96bd a8fe f83e 212f 283e
000000e0: c491 183e 2831 84be a3ce 19be 9829 b93e
000000f0: 8c67 59bf c39e 55bd d7ed c23e 22f3 1ebe
00000100: a6e0 93bb f7bf 913e 3db6 8dbe 2d73 0cbe
00000110: 4ae8 983e 0607 d9be eb1b 5a3f f1d2 00be
0.25743368 -0.06347816 0.32616636 0.23412095 0.13107039 -0.064156875 -0.43178034 0.43711662
-0.36622918 0.14945109 -0.072455175 -0.02090824 -0.65727025 0.19245279 -0.34976062 -0.07732739
0.018623916 -0.1366042 -0.29926097 0.5574527 0.3437189 -0.58470154 -0.883963 -0.077485316
0.692488 -0.29859743 -0.41349047 0.38699484 -0.46908605 -0.6483027 -0.30600515 -0.5290795
-0.91344315 -0.23568712 0.47712013 0.35215706 0.1383322 -0.6172195 -0.675412 -0.38125566
-0.43150383 -1.1144677 -0.43913993 0.21747117 0.5302556 0.24639753 0.6255984 0.22325853
0.01821601 -0.51927936 0.34960157 -0.16560139 0.10367631 -0.07344481 0.48631787 0.16424228
0.14899355 -0.25818753 -0.15020232 0.36164546 -0.84923625 -0.05215336 0.38072082 -0.15522435
-0.004512864 0.2846677 -0.276781 -0.13715811 0.29864722 -0.4238817 0.8519885 -0.12580468

conv1.bias f4 [8]
00000000: 09dd 2cbe 50b4 cfbd f1cd 1c3f 91af e83e
00000010: d342 ac3e 263b c1be ea5a 123e 1ead 02bf
-0.16881193 -0.10141814 0.6125174 0.45446447 0.33644733 -0.3774044 0.14292493 -0.51045406

fc2.weight f4 [4, 48]
00000000: b20c 103e 04ca 503e 1e60 a23e b4e6 cd3e
00000010: 40d5 d43e 0370 533e c14f 243d 555d 1c3e
00000020: bff8 823e 8f8c 483e 4092 83be 14c8 26be
00000030: 948b de3d 423b fd3d d330 1e3e e3be e83d
00000040: 41a8 69bd efd8 d4be e783 823e d577 833e
00000050: bf28 12be cda3 a8bd 18d4 f13d ef70 7e3c
00000060: 6d9b f23d ce8d 6e3c bfd8 3ebf 0ee8 bf3e
00000070: a794 c03e 2925 bd3d c1e9 643e aec5 c83e
00000080: dd1e d73d e258 1f3e 0b40 b03e 08b8 a53e
00000090: 078c 8d3e ba48 0c3e d09a 033d b1ce d23e
000000a0: 17cb 123f 3d2e 973e 8b7e 973e 9474 203e
000000b0: 2ccb ec3d eeb2 ba3e 9e31 773e df6e 5e3e
000000c0: 05ef ccbe 9a37 91be a0cb bebf 626d bfbe
000000d0: 5974 0abf db76 1cbf f75b 15be bd79 553e
000000e0: fc3b d3bb df6c beba 3a1c 783e a865 fdbe
000000f0: 02c4 2ec0 84de 2e3f 7132 10bf c874 dabe
00000100: f372 5cbf f73b 7e3e 7d8c 81be 30bb 7bbf
00000110: f2ca cd3c 9832 3cc0 7bfa 4b3f f078 b73d
00000120: 1f75 2abd 4a8c 5bbf a06d 5c3e ee58 bebf
00000130: a829 443f 47cb eabe 41c4 b8be 509d d1be
00000140: 4754 5fbf 5518 52be 9561 e6be aae6 95bf
00000150: 2999 20bf 10fa 02c0 dab2 323f 52fe dabe
00000160: 9cf0 00bf 9f1c 01c0 770c e7be 9326 8ebe
00000170: 0bbe 24c0 8b39 cabe 207e 1cbf 6713 16bf
00000180: 769c 42be 5795 37be f331 5b3e 105e 88bd
00000190: e905 afbd 19ee bcbd ba4e e2bb 0841 aabd
000001a0: 7e94 b53c f028 193e fef9 2cbe d13b de3d
000001b0: 554b 693e 0828 a0be c8d3 54be 1a58 61bd
000001c0: 13d3 163f b1c9 4ebe 04a1 fdbd 84ba 113e
000001d0: 12f6 7bbe 69f1 033e 2bec d1bf b3c1 3cbe
000001e0: 115a 8a3e 31d9 42bb b263 b7bd d8ea 253f
000001f0: a84c 90bf 488a d33c bec5 3cbe 5872 803d
00000200: 5dd1 e13d e0d7 f2be 5270 363d cad2 fc3d
00000210: b6fa 103d 3a39 253f c816 77bf 24bd f5bd
00000220: c736 a53d f651 053f 36b0 9ebe 58af e83c
00000230: 7e6f 923e c0a8 b73b d406 b7bd 60d2 803c
00000240: d747 5a3e 15de 1a3e ca05 71be a396 4e3d
00000250: 0cdf 133e 8e92 db3d 9c88 46bd b97f 38bd
00000260: 1881 693d e227 d6bc d1c3 ac3e 5473 12bd
00000270: 8b34 9fbe 485d fe3e 2330 d93d d028 313e
00000280: 3113 16bf dba6 7d3c 5f90 883e f956 d1bd
00000290: bd0c 983e 4676 f1bc e4cf d73f 709c 403e
000002a0: 9538 14be 5223 a33d 791f 38be 03a9 14bf
000002b0: f15e ab3f ae8b 7f3d 4e24 ac3e 897c 14bd
000002c0: e1bc 4ebe 3f20 ea3e c531 853d 5172 83be
000002d0: ff07 83bd 3729 17bf 200d 313f 7033 0d3e
000002e0: 9d86 89bd 569e 1bbf 57a4 953e 8fd1 12be
000002f0: e7ee 96be 9ce2 353e d575 693d 490e 3dbd
0.14067343 0.20389563 0.31713957 0.40215075 0.41568947 0.20648198 0.04011512 0.15269978
0.25580403 0.19584869 -0.25697517 -0.16287261 0.10866466 0.12364818 0.15448312 0.11364534
-0.057045225 -0.41571757 0.25491259 0.25677362 -0.14273356 -0.082343675 0.11808032 0.015529855
0.11846051 0.014560176 -0.7454948 0.3748173 0.37613413 0.09235603 0.22354795 0.39213318
0.105039336 0.1556125 0.3442386 0.32366967 0.27645895 0.13699618 0.032130063 0.41173318
0.5734114 0.29527465 0.29588732 0.15669471 0.115621895 0.36464638 0.24140021 0.21721981
-0.40026107 -0.28362733 -1.4905891 -0.3738814 -0.5408378 -0.6111886 -0.14585863 0.2084722
-0.0064463597 -0.0014528296 0.24229518 -0.4949162 -2.7307134 0.6830828 -0.5632697 -0.42667222
-0.861129 0.24827562 -0.25302497 -0.983325 0.025121186 -2.940588 0.7967908 0.08958614
-0.0416156 -0.8576094 0.21526194 -1.4870889 0.7662606 -0.45858213 -0.3608723 -0.40940332
-0.8723797 -0.20517094 -0.44996324 -1.1711018 -0.62733704 -2.0465126 0.69804156 -0.42772156
-0.5036714 -2.017372 -0.45126697 -0.27763805 -2.5740993 -0.39497027 -0.6112995 -0.58623356
-0.19004998 -0.17928062 0.21405773 -0.06658566 -0.08546049 -0.09225101 -0.0069063576 -0.08313185
0.022165533 0.14957023 -0.1689224 0.10851253 0.22782643 -0.3128054 -0.20783913 -0.05501566
0.58915824 -0.20194127 -0.12384227 0.14231306 -0.24605587 0.1288506 -1.6400198 -0.18433265
0.2702184 -0.0029731507 -0.08954562 0.6481147 -1.1273394 0.025822774 -0.18434808 0.06271809
0.11026261 -0.47430325 0.04454071 0.12344892 0.035395347 0.64540446 -0.96519136 -0.11998966
0.080670886 0.5207819 -0.30993813 0.028403923 0.28600687 0.0056048334 -0.08936849 0.015725315
0.21316467 0.1512378 -0.23537365 0.050436627 0.14440554 0.107213125 -0.048470125 -0.04504368
0.05700788 -0.026142064 0.33743146 -0.035754517 -0.31094775 0.49680543 0.106048845 0.17300725
-0.58623034 0.015481676 0.26672646 -0.10221667 0.2969722 -0.029475342 1.6860318 0.18809676
-0.1447471 0.07965721 -0.17980756 -0.5807039 1.3388349 0.06238907 0.33621448 -0.03625158
-0.20189239 0.45727727 0.065036334 -0.25673154 -0.063980095 -0.59047264 0.6916065 0.13789153
-0.067151286 -0.60788476 0.29226944 -0.14337753 -0.29479143 0.17762226 0.05699714 -0.0461562

fc2.bias f4 [4]
00000000: ef48 be3e d788 ecbe d441 cabb 5d39 2a3d
0.3716502 -0.4619815 -0.006172398 0.041558612
