models/R25Tiny__1062.54max__917.11avg__770.96min__1732623597.pth (torch, 2655 bytes, 4 tensors)

conv1.weight f4 [8, 1, 3, 3]
000000 9a 2f 9f 3e 97 3c 6d bc 05 33 bd 3e 08 a8 96 3e
       0.31091005 -0.014479778 0.36952987 0.29425073
000010 3c 42 45 3e ac 84 6b bd 92 e5 6b be 3c 4e 03 3f
       0.19263548 -0.057499573 -0.23036793 0.5129125
000020 c6 a9 b0 be f7 2f 79 3e 29 99 88 3c 1c a5 64 bd
       -0.34504527 0.24334703 0.016674595 -0.055821523
000030 dd 42 28 bf de c8 10 3e d3 13 b3 be 4c f1 86 3c
       -0.65727025 0.14139125 -0.34976062 0.016472481
000040 ad d0 cc 3d d7 a2 2f be fd 64 8c be 60 c5 03 3f
       0.10000739 -0.17151962 -0.27420798 0.51473045
000050 0f f9 b1 3e 35 d3 1b bf 86 47 69 bf 5d b0 c6 bd
       0.3476033 -0.6086915 -0.9112476 -0.097016074
000060 21 27 33 3f 8f f3 a5 be cb a0 cc be ad f3 cb 3e
       0.6998158 -0.32412383 -0.39966425 0.39834347
000070 d0 0b fb be 92 0d 1a bf 36 48 94 be f0 a4 05 bf
       -0.4903245 -0.60176957 -0.28961343 -0.522048
000080 26 e9 42 bf 18 9b 4a be ef be 07 3f 75 60 d9 3e
       -0.76137006 -0.19785726 0.53025717 0.42456403
000090 4c 4a c7 3e 74 6d 12 bf 4d b9 41 bf 15 a2 47 bd
       0.38923872 -0.5719826 -0.7567337 -0.048738558
0000a0 87 5e 88 bd 1e f7 73 bf 3a 7b a1 be 37 fb c6 3d
       -0.06658655 -0.95298946 -0.31539327 0.09715884
0000b0 8f b6 d6 3e dd 3e 6c 3e d0 7e 2e 3f 70 e4 81 3e
       0.41936156 0.23070855 0.6816225 0.25369596
0000c0 1e 5c 22 3e 20 87 01 bf 01 11 c2 3e 9b 88 e5 bd
       0.15855452 -0.5059681 0.37903598 -0.11207696
0000d0 15 7f 5d 3e 64 1d 6f 3b 74 a4 03 3f c0 6a 3c 3e
       0.21630509 0.0036486024 0.5142281 0.18400097
0000e0 58 2a 4f 3e 2a 5d 86 be 8c 05 0e be 59 c9 d3 3e
       0.20230997 -0.26242954 -0.13869303 0.41364554
0000f0 de 6b 5a bf f5 b2 27 bd 2c c9 c8 3e 1c 36 89 bd
       -0.8532084 -0.04094215 0.39215982 -0.06699774
000100 d2 25 4b 3d 19 55 ba 3e c2 2d 24 be 6f 4c 85 bd
       0.049596615 0.3639305 -0.1603308 -0.06508719
000110 57 14 d1 3e 66 fc 9d be e5 8e 6f 3f 0b a3 ef bd
       0.4083583 -0.30856627 0.93577415 -0.1170102

conv1.bias f4 [8]
000000 92 bd e4 bd 9d aa f8 bb eb 37 2f 3f 99 79 fd 3e
       -0.1116897 -0.007588698 0.684447 0.49506834
000010 82 00 a7 3e 7b dc 8e be 9c b3 37 3e e6 13 c1 be
       0.32617575 -0.27902588 0.1793961 -0.37710494

fc2.weight f4 [4, 48]
000000 ce 21 d3 3d e5 1e 0e 3e d1 10 54 3e 07 bf 85 3e
       0.10309182 0.13878973 0.2070954 0.26122305
000010 6d 18 9d 3e 0d 9f de 3d c1 4f 24 3d 55 5d 1c 3e
       0.30682698 0.1087018 0.04011512 0.15269978
000020 b6 4d 8d 3e bd b8 54 3e 11 f5 3d be 51 eb d1 bd
       0.2759835 0.20773597 -0.18550517 -0.10249961
000030 fc b2 de 3c 71 5c 68 3e b3 42 c9 3c 63 31 ff 3a
       0.027184956 0.22691514 0.024567937 0.0019469674
000040 22 66 a7 3d 5c 19 cc be b6 52 8b 3e d5 77 83 3e
       0.08173777 -0.39863098 0.2721154 0.25677362
000050 c1 d4 89 bd 12 2a 48 3d 3e eb 16 3e 16 af fc bc
       -0.06730033 0.048868246 0.14738175 -0.030845206
000060 6d 9b f2 3d ce 8d 6e 3c 36 51 4e bf 16 c0 9f 3e
       0.11846051 0.014560176 -0.8059267 0.31201237
000070 a7 94 c0 3e 53 ae c8 3c b7 17 0c 3e d8 82 9e 3e
       0.37613413 0.024497187 0.13680921 0.309592
000080 91 fd c9 bc 33 8e a5 3d 0d e4 7b 3e 79 1f 82 3e
       -0.024657043 0.08083763 0.24598713 0.25414637
000090 fd 92 5f 3e db 57 91 3d f5 98 1f 3e 1a 97 9a 3e
       0.21833415 0.07096835 0.15585692 0.30193406
0000a0 b0 76 ea 3e e7 4b 36 3e eb bc 72 3e c6 67 18 3e
       0.45793676 0.17802392 0.23704879 0.14883336
0000b0 4d 67 9e 3d 4b 10 90 3e ef 0c 5d 3e 87 ab 25 3e
       0.07734547 0.2813743 0.21586965 0.16178714
0000c0 73 65 a8 bc 67 10 bb 3d c4 7c 86 bf 5a 45 f3 bb
       -0.020556187 0.09133988 -1.0506825 -0.007424039
0000d0 9b fe 09 be b0 38 63 be f7 5b 15 be bd 79 55 3e
       -0.1347603 -0.22189593 -0.14585863 0.2084722
0000e0 5a 7e 1a 3d d9 f4 ce ba 86 77 74 3e 7e cb c0 be
       0.037718154 -0.0015789523 0.2387372 -0.37655252
0000f0 51 27 13 c0 5f b7 56 3f 64 c0 c7 bd bc 24 a9 bc
       -2.2992747 0.8387355 -0.097534925 -0.0206474
000100 97 77 44 bf 0d 85 f8 3e e7 a2 05 bd 30 bb 7b bf
       -0.7674498 0.4853901 -0.03262606 -0.983325
000110 83 2f 74 3e 70 7a 24 c0 ba 2b 4e 3f f8 bb d0 3e
       0.2384625 -2.569973 0.8053547 0.4076841
000120 1f 75 2a bd 4a 8c 5b bf f4 f7 6c 3e b8 40 be bf
       -0.0416156 -0.8576094 0.23141462 -1.48635
000130 a8 29 44 3f 81 ce 83 be b5 50 86 3d 6d 39 3e bc
       0.7662606 -0.25743487 0.065583624 -0.011610371
000140 62 85 f7 be de c5 2b 3e 59 2d 4d bd ec dd 3b bf
       -0.4834395 0.16774699 -0.050092075 -0.733855
000150 65 ac 31 be 5f e9 cd bf 0f a1 77 3f d2 8a 8b bc
       -0.1735092 -1.6086844 0.9673013 -0.017033968
000160 31 4b b6 bd 86 bb cd bf 30 aa 90 bd d4 22 00 3d
       -0.089010604 -1.6072853 -0.07063711 0.031283215
000170 1d 00 0c c0 a8 31 c5 ba 7d 2a a2 be b6 e0 e2 be
       -2.187507 -0.0015044706 -0.3167304 -0.44312066
000180 3d f9 62 be 24 df 4e be 4f a6 41 3e 16 87 8e bd
       -0.2216539 -0.20202309 0.18911098 -0.06959359
000190 e8 de d3 bd 31 84 b1 bd ba 4e e2 bb 08 41 aa bd
       -0.1034525 -0.08667792 -0.0069063576 -0.08313185
0001a0 b9 9d 58 bd 7c bf af 3d 26 57 79 be b1 f7 75 3e
       -0.05288479 0.085814446 -0.2434965 0.24020268
0001b0 c8 85 54 3e 6d cc ed be 8d ff 64 be 92 82 9d bc
       0.20754158 -0.46445027 -0.2236311 -0.0192273
0001c0 e1 9b 3c 3f 3b 62 0c be 0d 45 5a be 84 ba 11 3e
       0.7367535 -0.13709347 -0.21315403 0.14231306
0001d0 31 24 84 be 02 45 eb 3d a1 dc dc bf 3b 38 80 be
       -0.25808862 0.114877716 -1.7254831 -0.250429
0001e0 11 5a 8a 3e 31 d9 42 bb f9 77 03 be 0f 85 af 3e
       0.2702184 -0.0029731507 -0.12838735 0.34281203
0001f0 a8 4c 90 bf 7c 19 a4 3c 9d b9 45 be cd 7f 8e 3d
       -1.1273394 0.020031683 -0.19309087 0.0695797
000200 4b 6e 0f 3e b9 3d e4 be 08 1d 30 3d d0 a4 20 3e
       0.14006917 -0.4457834 0.042996436 0.15687871
000210 0a 0e 77 3d 1a c3 39 3f 80 83 69 bf 6f 91 9e bd
       0.060316123 0.72563326 -0.9121628 -0.07742583
000220 03 81 f7 3d bc 11 12 3f 08 12 9b be 48 17 76 3c
       0.12085154 0.5705831 -0.30287194 0.015020199
000230 d2 94 a4 3e fd 87 f6 3b 3a ef 01 be c5 b6 88 3d
       0.3214479 0.0075235353 -0.12688914 0.066754855
000240 0f 5a 81 3e 33 ce 31 3e b7 c0 64 be b5 a4 6c 3d
       0.25264022 0.17363815 -0.2233914 0.057774264
000250 bf c6 1e 3e 99 41 e9 3d 9c 88 46 bd b9 7f 38 bd
       0.15505503 0.11389465 -0.048470125 -0.04504368
000260 d6 40 ce 3d 36 38 45 3d 7a 5d 9a 3e a7 7a 0e be
       0.1007096 0.04814931 0.30149442 -0.13913976
000270 22 b9 a7 be be 7e 0b 3f 35 cb cb 3d 68 e6 24 3e
       -0.32758433 0.5449027 0.09950868 0.16103518
000280 bc cb 1e bf d5 a3 b8 3d c9 5f 67 3e f9 56 d1 bd
       -0.62029624 0.090156235 0.22595133 -0.10221667
000290 03 f5 86 3e 68 4e ad bb c7 0b e2 3f 91 d9 34 3e
       0.26358804 -0.005288888 1.7659844 0.1766112
0002a0 95 38 14 be 52 23 a3 3d 39 8b 79 be e6 12 bf be
       -0.1447471 0.07965721 -0.24369515 -0.37319106
0002b0 f1 5e ab 3f e7 99 ad 3b 5b dc a5 3e f6 08 fd bc
       1.3388349 0.0052978876 0.3239468 -0.030888062
0002c0 d1 d7 5d be 8e a8 e6 3e 77 f4 92 3d 45 05 7b be
       -0.21664359 0.45050472 0.07175534 -0.24513729
0002d0 1d dd b9 bd de ce 2b bf b8 f8 20 3f 2f d3 c3 3d
       -0.09075377 -0.6711253 0.62879515 0.095617644
0002e0 e3 51 f1 bd bd 8a 2a bf 94 2a 99 3e bb d4 fd bd
       -0.11783197 -0.6661795 0.29915297 -0.12394091
0002f0 cb bb bf be 01 1a 54 3e f1 52 21 3e f6 b9 ac bc
       -0.37447962 0.20713045 0.15754296 -0.021084767

fc2.bias f4 [4]
000000 02 1c 84 3e 4d 77 1d bd 09 16 89 3c a8 66 8a 3c
       0.25802618 -0.038443852 0.01673414 0.016894653
