models/R25Tiny___575.86max__431.45avg__331.29min__1732623395.pth (torch, 2655 bytes, 4 tensors)

conv1.weight f4 [8, 1, 3, 3]
0.3034569 0.0017488332 0.42831004 0.30308852 0.28128195 -0.027519582 -0.25095522 0.50712585
-0.3908859 0.30573702 0.07399898 -0.03436125 -0.5914325 0.26194954 -0.32063875 -0.05590876
0.19817135 -0.11590145 -0.285428 0.6576168 0.31859303 -0.5295321 -0.8371153 -0.0647881
0.6279772 -0.46992767 -0.398196 0.30362803 -0.6908861 -0.45380703 -0.33679694 -0.5623772
-0.4923725 -0.06977681 0.5750061 0.5826515 0.55966115 -0.6291291 -0.46662745 -0.030588998
0.009840974 -0.6945835 -0.35539752 0.113180526 0.41300753 0.17161179 0.60135114 0.23192757
0.27050143 -0.5000088 0.32740542 -0.16195339 0.20174469 -0.11651163 0.5369367 0.19605844
0.21331051 -0.25850418 -0.16878651 0.46534157 -0.8555619 -0.046855286 0.39295074 -0.036086928
0.058213107 0.5007683 -0.1264535 -0.057256244 0.35771266 -0.3401612 0.9531162 -0.097031765
00000000: b45e 9b3e 1b39 e53a 744b db3e 6b2e 9b3e
00000010: 3004 903e bf70 e1bc 347d 80be 00d3 013f
00000020: 3222 c8be 9089 9c3e c78c 973d 62be 0cbd
00000030: 1f68 17bf 401e 863e c32a a4be 9500 65bd
00000040: 6eed 4a3e bd5d edbd 9e23 92be 9359 283f
00000050: a01e a33e 6a8f 07bf 304d 56bf a0af 84bd
00000060: 1dc3 203f 5c9a f0be 59e0 cbbe 2275 9b3e
00000070: e9dd 30bf 6559 e8be a670 acbe f4f7 0fbf
00000080: 4018 fcbe 25e7 8ebd 9a33 133f a628 153f
00000090: f445 0f3f 9b0e 21bf cbe9 eebe c795 fabc
000000a0: 093c 213c 39d0 31bf aaf6 b5be 31cb e73d
000000b0: b975 d33e 00bb 2f3e 26f2 193f 6c7e 6d3e
000000c0: 2a7f 8a3e 9400 00bf afa1 a73e 1cd7 25be
000000d0: 2996 4e3e a69d eebd af74 093f 8bc3 483e
000000e0: 126e 5a3e a95a 84be 5fd6 2cbe 4041 ee3e
000000f0: 1b06 5bbf 54eb 3fbd d730 c93e e3cf 13bd
00000100: de70 6e3d 5a32 003f 077d 01be 8685 6abd
00000110: 1d26 b73e 9c29 aebe 6cff 733f 97b8 c6bd

conv1.bias f4 [8]
-0.043238185 0.10080361 0.6918077 0.6471321 0.32232922 -0.29477614 0.17918728 -0.16496512
00000000: 861a 31bd 2072 ce3d 4f1a 313f 73aa 253f
00000010: 5608 a53e e6ec 96be df7c 373e 9eec 28be

fc2.weight f4 [4, 48]
0.14262189 0.13226968 0.18184376 0.22926742 0.2613458 0.030946461 0.07114959 0.053199563
0.18793796 0.15604112 -0.12033324 0.098831594 -0.025101826 0.15247267 -0.027753994 0.02301833
-0.018659763 -0.2675078 0.2329107 0.18759124 -0.137175 -0.07756377 0.27721658 0.04069144
0.1440547 -0.01927566 -0.83815056 0.14748676 0.4881673 0.049766053 0.11366216 0.32152098
-0.08077463 0.13514073 0.23878439 0.20886809 0.18871142 -0.08510358 0.2772843 0.29622203
0.41999716 0.10245219 0.26157203 0.08521487 0.036560565 0.31377846 0.17197582 0.10656385
0.044649974 0.13726102 -0.9008653 0.042969212 -0.06470449 -0.12873589 -0.10606974 0.23507851
0.061173636 -0.07858457 0.31073183 -0.40988734 -2.1685777 0.8251719 -0.031910546 0.04923742
-0.52639025 0.4747614 0.17015691 -0.97576314 0.24809012 -1.949974 0.7500906 0.43736684
-0.04209495 -0.75881267 0.24831054 -1.2577754 0.72253525 -0.20915706 0.12641563 0.050715838
-0.41102415 0.22266378 0.011254343 -0.5848403 -0.07689221 -1.490497 0.92291796 0.05277715
-0.018006857 -1.5033518 -0.009373263 0.10443114 -1.6234872 0.059146 -0.24400169 -0.4093015
-0.25546372 -0.23904786 0.1401416 -0.06853626 -0.123658605 -0.10408661 -0.036018718 -0.16940199
-0.04078354 -0.016404774 -0.024610905 0.23483448 0.22276106 -0.573777 -0.18240392 -0.05218264
0.52065635 -0.10110332 -0.1935487 0.13864632 -0.07249012 0.0714433 -1.9980804 -0.2995274
-0.048460927 0.047077224 -0.1528188 0.006529574 -1.0431298 -0.027056502 -0.060578704 0.008859251
0.14345182 -0.26528198 0.040097687 0.16100517 0.10250029 0.7271773 -1.011164 -0.04626317
0.1572714 0.58125013 -0.25686464 -0.013209073 0.27468836 -0.019953942 -0.14875957 0.06236267
0.2532477 0.21356046 -0.19220686 0.065551154 0.1722782 0.12939906 -0.080477715 0.00290771
0.13547012 0.1771786 -0.051203594 -0.072748475 -0.335154 0.78799 0.030365225 0.13092998
-0.39305064 0.10143241 0.29792422 -0.076249726 0.10328581 0.061606545 2.0001967 0.21794899
0.07758193 0.038624786 -0.2715228 -0.11356062 1.2939178 0.01794694 0.23141736 -0.0039507593
-0.18718098 0.25238785 0.09364938 -0.23403582 -0.1443452 -0.6949127 0.8110813 0.066404924
-0.15249562 -0.6834812 0.25431085 -0.090009645 -0.31159693 0.21489292 0.18657765 0.03307131
00000000: 790b 123e b471 073e 4035 3a3e 14c5 6a3e
00000010: 1ecf 853e 6f83 fd3c e0b6 913d c9e7 593d
00000020: cf72 403e 3ec9 1f3e 4671 f6bd 3868 ca3d
00000030: 58a2 cdbc cc21 1c3e 585c e3bc f090 bc3c
00000040: 5cdc 98bc c8f6 88be 2480 6e3e eb17 403e
00000050: 9a77 0cbe c1d9 9ebd 55ef 8d3e 11ac 263d
00000060: 1383 133e fde7 9dbc 0991 56bf c506 173e
00000070: 10f1 f93e 7dd7 4b3d b5c7 e83d 669e a43e
00000080: 2b6d a5bd 5562 0a3e e583 743e 84e1 553e
00000090: 913d 413e c94a aebd 35f8 8d3e 6aaa 973e
000000a0: de09 d73e 74d2 d13d c5ec 853e 2285 ae3d
000000b0: 88c0 153d 92a7 a03e 6e1a 303e 263e da3d
000000c0: e4e2 363d 278e 0c3e 1c9f 66bf 7c00 303d
000000d0: ca83 84bd 57d3 03be 183b d9bd 6cb8 703e
000000e0: 3591 7a3d f2f0 a0bd 3e18 9f3e c1dc d1be
000000f0: fac9 0ac0 773e 533f a2b4 02bd 2dad 493d
00000100: 83c1 06bf ed13 f33e 9d3d 2e3e 9dcb 79bf
00000110: 560b 7e3e bf98 f9bf f005 403f 8cee df3e
00000120: c16b 2cbd 8c41 42bf 1e45 7e3e c9fe a0bf
00000130: 12f8 383f 452d 56be 1973 013e 69bb 4f3d
00000140: c271 d2be f901 643e 2364 383c 18b8 15bf
00000150: aa79 9dbd 9bc8 bebf 5a44 6c3f da2c 583d
00000160: 1e83 93bc d56d c0bf 5192 19bc fedf d53d
00000170: 6ece cfbf 1343 723d 94db 79be f78f d1be
00000180: 24cc 82be f6c8 74be 4881 0f3e bd5c 8cbd
00000190: b940 fdbd 5c2b d5bd 5d88 13bd b777 2dbe
000001a0: a40c 27bd 4e63 86bc cf9c c9bc 7378 703e
000001b0: 7a1b 643e 0de3 12bf 18c8 3abe 77bd 55bd
000001c0: bc49 053f 420f cfbd a131 46be 4df9 0d3e
000001d0: b375 94bd dd50 923d 19c1 ffbf a85b 99be
000001e0: f77e 46bd 0cd4 403d 887c 1cbe 09f6 d53b
000001f0: 4785 85bf 99a5 ddbc 6021 78bd 6426 113c
00000200: 09e5 123e 0ad3 87be 793d 243d 8ade 243e
00000210: aceb d13d 4b28 3a3f d26d 81bf 737e 3dbd
00000220: c10b 213e cfcc 143f c383 83be de6a 58bc
00000230: f4a3 8c3e 7376 a3bc 6e54 18be 0070 7f3d
00000240: afa9 813e 98af 5a3e e0d1 44be af3f 863d
00000250: b269 303e 3081 043e 80d1 a4bd 478f 3e3b
00000260: aeb8 0a3e 4f6e 353e dcba 51bd 27fd 94bd
00000270: 4e99 abbe b6b9 493f 7ec0 f83c 8212 063e
00000280: ef3d c9be ccbb cf3d 8689 983e d128 9cbd
00000290: 8387 d33d 2557 7c3d 3903 0040 052e 5f3e
000002a0: 46e3 9e3d 0635 1e3d 0905 8bbe 7892 e8bd
000002b0: 199f a53f 7605 933c acf8 6c3e 5f75 81bb
000002c0: 5fac 3fbe fb38 813e 3fcb bf3d 16a7 6fbe
000002d0: 3acf 13be cce5 31bf 06a3 4f3f 4eff 873d
000002e0: d027 1cbe a0f8 2ebf 0835 823e fa56 b8bd
000002f0: a289 9fbe e40c 5c3e 360e 3f3e c875 073d

fc2.bias f4 [4]
0.20927998 0.037594005 0.00027622416 0.030538637
00000000: 7e4d 563e 2cfc 193d 2ed2 9039 2a2c fa3c
