models/R25Tiny___419.19max__323.32avg__238.75min__1732563067.pth (torch, 2655 bytes, 4 tensors)

conv1.weight f4 [8, 1, 3, 3]
00000000: 84d0 913e 5e62 55be 990f 833e 8bce af3e
00000010: ebfb 043e e511 9abd 4afb 93be 72e4 ee3e
00000020: 13c9 efbe 1083 793e 7b16 0fbe 5ce3 f7bc
00000030: ce14 05bf a42f 683e af4b 58be 3ef4 14be
00000040: de3d 413e 4541 c7bd db7b d5be e860 e63b
00000050: caab 1e3e 8683 49bf ab67 c4be 3718 ad3e
00000060: 9864 183f 244d e1be 9f63 b6bd 2ef7 213e
00000070: 1c71 cabe 5ad7 44be abd6 abbe 1b14 59be
00000080: d457 46bf 4069 abbd c9a7 da3e 708f e83e
00000090: 8057 863e 6c0d fbbe a5cc 713d 7a08 4cbd
000000a0: 6749 89be 3a5d 003e a267 39be 053a e23e
000000b0: 6f72 793e b610 8f3e 65f0 3d3f 2010 a33e
000000c0: bb4c 963e 4e5b 8dbe dbc4 dc3e fd0a 8bbd
000000d0: 2808 983e b189 e1bd 06d3 4c3f 12b2 4a3b
000000e0: 218f 973e 0904 aebf 3479 0cbf bab5 a73e
000000f0: 8e44 b4bf 4440 15bd 8aba 233c 01bb d23c
00000100: 2637 b9bd dc2b e23e fbff c6be 381e bf3d
00000110: fe53 833e ec66 f5be df37 fd3e 1c9f b0be
0.28479397 -0.20838305 0.25597838 0.34337267 0.12986724 -0.07522944 -0.28902656 0.46658665
-0.46833095 0.24366403 -0.1397342 -0.03025978 -0.5198487 0.22674423 -0.21122621 -0.14546296
0.18871257 -0.09729246 -0.41696057 0.007030595 0.1549522 -0.78716314 -0.38360342 0.33807537
0.59528494 -0.44004166 -0.0890572 0.15816948 -0.3953942 -0.19222775 -0.33562216 -0.21199076
-0.77477765 -0.08369684 0.42706135 0.45421934 0.26238632 -0.49033678 0.059033055 -0.04981277
-0.26813814 0.12535563 -0.18105939 0.4418489 0.24360059 0.27942437 0.7419494 0.3184824
0.29355416 -0.27608722 0.4311894 -0.06789205 0.29693723 -0.11012591 0.80009496 0.0030928892
0.29601386 -1.3594981 -0.5487244 0.32755834 -1.4083421 -0.03643824 0.009993205 0.025723936
-0.09043722 0.44174087 -0.38867173 0.09331936 0.25650018 -0.47930086 0.4945669 -0.3449639

conv1.bias f4 [8]
00000000: b417 bdbd 6043 95be 7c4f 0d3f 86e0 0b3f
00000010: 506b 72be 4538 e6bd 0cad e83e dc3f 45be
-0.09233037 -0.29152966 0.5519941 0.5463947 -0.23673749 -0.11241201 0.45444524 -0.19262642

fc2.weight f4 [4, 48]
00000000: 9d5e 093f 585c 453e 0325 9b3d d071 893e
00000010: e2c6 b23e 4f0b 673e 236a b53d 79db 893c
00000020: 02df 803d 2f68 0b3e 0e45 78bd 8f1d cbbc
00000030: 6e07 a73d 25ca 983f 017a 933e 8ac4 f83d
00000040: 4a81 913d 3477 babd 8541 923f 2be8 bb3e
00000050: 14bb 8c3e c95e b2bd a3f1 ae3f 52b4 7a3e
00000060: 8332 adbc eb03 323e bdd8 563d 87cc bd3e
00000070: 43d5 2c3f 7d5b 04bd ce5e 413b 35f3 a43e
00000080: 7755 e2bc 3b9e 5f3e ebd5 733e f660 ae3e
00000090: 531b d7be 6eaf 67be 5e20 0c40 f0f1 743e
000000a0: c930 2bbe 227e c53e 5b66 a43e e189 f63d
000000b0: e133 08bf 7056 ab3e 5ec2 993e fdbb 033f
000000c0: d6e3 76bf d336 4dbf a056 50bf c24f 3cbf
000000d0: 67e0 3cbf 5883 13bf e743 9ebe a662 f1bc
000000e0: 6d82 81bd dd62 98be 5199 69bd 49e8 7fbe
000000f0: 92ac 26bf 7de3 36be 4620 e2be 10bf 15bf
00000100: c663 54be 53b2 91bd 6eee b9be 91bb f1be
00000110: 1a58 e4be 6603 07bf 0a0d d5be 55d1 17bf
00000120: cdf2 c5be 168f bebe 91e0 e6be 5f1f 2dbf
00000130: a8d0 01bf 7cdc 0bbf 11e0 6bbf 6260 67bf
00000140: d98b 5abf 3e00 3bbf 0dfa 57bf 854c 3cbf
00000150: 5a93 33bf 29ac 7a3d 4eae aebe 1bc2 46bf
00000160: 3fc2 4bbe 1313 52be 886f 44bf 466f babe
00000170: 954e 87be 8181 0dbf 4803 27bf 8e02 12bf
00000180: c67c 55be ffe6 32be 7332 b63d ca0a a8b9
00000190: e833 80bd 8283 45bd 13b8 663c 053f 95bd
000001a0: 499e e7bd bc61 74bd d214 663d 2d5c 063e
000001b0: be2e 4a3e 5529 30bf 5310 aa3d 648f 78bc
000001c0: 7b08 3d3f 5adc 21bf 358c bebe 3f11 af3e
000001d0: 0808 c93d 4c8c 9e3e dc3d 22bf 59f9 8fbe
000001e0: fe21 23be 1b5f 2b3d f041 513d f943 1cbd
000001f0: 34ef 143e 7f6f ce3d 54b7 dcbd 2423 903d
00000200: 2f14 563e 720d a5be 47cb a43d fc47 3d3e
00000210: f7e1 283d 8c04 2540 4f28 86c0 2749 f3bd
00000220: c5af 0f3d b25e fd3d 56db 67be 65fd 793e
00000230: 57cd b53d e6e5 133d 2c93 ccbd 06e0 a03d
00000240: a919 573e 2751 263e fa54 a5be 7910 323d
00000250: 9454 9d3d 3649 fb3d 5ced 32bd 0636 acbd
00000260: d57c 083e caf0 273e efc2 da3c 3e78 23be
00000270: 3031 7cbe 8df1 153f cdde 25be 0233 453e
00000280: 212e 3abf ebca 503f 164f 553e 20eb 42be
00000290: 98fe c53d 0a75 30be 1879 1b3f d58d 063e
000002a0: c5c7 6c3e 19b7 06be 50d5 e0bd bf8f d73c
000002b0: 6ce3 21be 5015 11bb e520 403e a72c d8bd
000002c0: a92d 7ebe 2ef0 953e 23cf aa3c f7aa 49be
000002d0: 6063 85be 3670 06c0 d0ac 8e40 b326 e13d
000002e0: 6bf9 8c3d caae c73d 465e 203e e1ba 93be
000002f0: daf2 4bbe 8be6 143e 9c40 cd3d 130b d33d
0.53659993 0.19273508 0.07575419 0.26844645 0.3491736 0.22562908 0.088581346 0.016828286
0.06292535 0.13613962 -0.06061273 -0.024794368 0.08155714 1.193669 0.2880402 0.12146862
0.07104738 -0.091047674 1.1426245 0.36700568 0.2748648 -0.08709485 1.3667492 0.24482849
-0.02114225 0.17384307 0.05245279 0.37070104 0.6751291 -0.032313813 0.002950597 0.32216802
-0.027628643 0.21837704 0.23812072 0.3405835 -0.42013034 -0.22625515 2.1894755 0.23920417
-0.16717829 0.38572794 0.3210934 0.12038017 -0.5320416 0.33464384 0.30031103 0.5145872
-0.964414 -0.8016178 -0.8138218 -0.735592 -0.7377991 -0.5762229 -0.3091118 -0.029465985
-0.06323705 -0.29762927 -0.05703098 -0.24990954 -0.6510707 -0.17860217 -0.44165248 -0.58494663
-0.20741186 -0.07114091 -0.3631472 -0.47213414 -0.44598466 -0.5273956 -0.4161151 -0.5930379
-0.38661805 -0.3721854 -0.45093206 -0.67625993 -0.5070901 -0.5463331 -0.92138773 -0.90381444
-0.8536964 -0.73047245 -0.8436592 -0.7355426 -0.70146716 0.06119934 -0.3411736 -0.7763993
-0.19898318 -0.20515089 -0.76732683 -0.3641302 -0.2642714 -0.5527573 -0.6523938 -0.5703515
-0.20848379 -0.1747093 0.08896341 -0.00032051496 -0.062599 -0.04822112 0.014081973 -0.07287411
-0.113094874 -0.05966352 0.0561722 0.131211 0.19744393 -0.6881307 0.08303895 -0.015170906
0.73841065 -0.63226855 -0.37216344 0.34192845 0.09815985 0.30966413 -0.6337564 -0.28119925
-0.15930936 0.041838747 0.051088274 -0.03815076 0.14544374 0.1007986 -0.107771546 0.070379525
0.20906137 -0.3223682 0.080465846 0.18484491 0.041231122 2.5784025 -4.1924205 -0.11879187
0.035079736 0.12371577 -0.22642264 0.24413069 0.08877056 0.03610792 -0.09989008 0.07855229
0.21005882 0.16241895 -0.32291394 0.04347274 0.076821476 0.12269823 -0.043683395 -0.08408742
0.1332887 0.16400447 0.02670428 -0.15963838 -0.24628139 0.585717 -0.16198273 0.19257739
-0.7272664 0.8155963 0.2083095 -0.19035006 0.096677005 -0.17232147 0.6073165 0.13140042
0.23123081 -0.13155784 -0.10978186 0.02631366 -0.15809411 -0.0022137947 0.18762548 -0.10555392
-0.24822105 0.29284805 0.020850724 -0.19694124 -0.2605238 -2.1005988 4.4585953 0.109937094
0.0688351 0.09750135 0.15660962 -0.28853515 -0.1991686 0.1454107 0.10022089 0.103048466

fc2.bias f4 [4]
00000000: 7511 c23e 61df f1be 8ac5 5c3d d9c9 aebd
0.37903944 -0.47240737 0.053899325 -0.08534593
