models/R25Tiny__1346.64max_1158.60avg_1038.27min__1732623697.pth (torch, 2655 bytes, 4 tensors)

conv1.weight f4 [8, 1, 3, 3]
0	0x3e98a263	0.2981139
1	0xbd0dfc67	-0.034664538
2	0x3eb260a6	0.34839362
3	0x3e8e39c9	0.27778462
4	0x3e341c3e	0.17588899
5	0xbd522ad2	-0.051310368
6	0xbeab23f0	-0.33425856
7	0x3ef4722e	0.47743362
8	0xbeb9beeb	-0.3627847
9	0x3e4aac4b	0.19792287
10	0xbcec0bfb	-0.028814306
11	0xbd2efcb9	-0.042721484
12	0xbf2842dd	-0.65727025
13	0x3e306ea1	0.17229702
14	0xbeb313d3	-0.34976062
15	0xbcec633b	-0.02885591
16	0x3d7dd666	0.061972044
17	0xbe223833	-0.15841751
18	0xbe90fce4	-0.2831794
19	0x3f067e2e	0.52536285
20	0x3eab0d94	0.33408797
21	0xbf1f0f8e	-0.6213311
22	0xbf6d315d	-0.9265345
23	0xbdcf68f9	-0.10127444
24	0x3f31c99c	0.69448256
25	0xbea44154	-0.3208109
26	0xbecb467e	-0.3970222
27	0x3ed17c5e	0.40915197
28	0xbef4ad57	-0.47788498
29	0xbf2094c7	-0.62727016
30	0xbe920608	-0.28520226
31	0xbf06e515	-0.526933
32	0xbf3d9680	-0.7405777
33	0xbe564a01	-0.20926668
34	0x3f052daf	0.5202283
35	0x3ed6d380	0.41958237
36	0x3ea60b83	0.32430658
37	0xbf1e0219	-0.6172195
38	0xbf44551e	-0.7669238
39	0xbe13dd4d	-0.14439888
40	0xbe0ea50a	-0.13930145
41	0xbf81ffad	-1.0156151
42	0xbe9d59a1	-0.30732444
43	0x3e30058b	0.17189614
44	0x3efe436c	0.49660814
45	0x3e83699a	0.25666505
46	0x3f2b30e4	0.66871476
47	0x3e7c34ea	0.2462956
48	0x3e03ad55	0.1285909
49	0xbeff2d86	-0.4983942
50	0x3ebc2cdf	0.36752984
51	0xbde8a6a1	-0.11359907
52	0x3e4c4efd	0.19952007
53	0xbc62aa9e	-0.013834624
54	0x3f0044df	0.5010509
55	0x3e2fad5d	0.17155977
56	0x3e35595c	0.17709869
57	0xbe86ecec	-0.26352632
58	0xbe1591a0	-0.14606333
59	0x3ec8cfc6	0.3922102
60	0xbf5ce6bf	-0.8628959
61	0xbd3e253a	-0.04642222
62	0x3ece6a31	0.40315393
63	0xbdb42964	-0.08796957
64	0x3d0af60e	0.033926062
65	0x3eac8b8f	0.33700225
66	0xbe43b608	-0.19112408
67	0xbdc5f55c	-0.09665939
68	0x3eb6801b	0.35644612
69	0xbeac2c99	-0.33627775
70	0x3f639057	0.8889212
71	0xbe01a732	-0.12661436

conv1.bias f4 [8]
0	0xbe07d67e	-0.13265416
1	0xbd58dea2	-0.052946694
2	0x3f298efb	0.66233796
3	0x3eff29c2	0.49836546
4	0x3ea8b6d8	0.32952
5	0xbea26ad1	-0.3172212
6	0x3e251e78	0.16124904
7	0xbeeed7c5	-0.46648994

fc2.weight f4 [4, 48]
0	0x3dae608f	0.08514511
1	0x3e1b6343	0.15174584
2	0x3e60c067	0.21948396
3	0x3e995154	0.2994486
4	0x3eab5d75	0.3346974
5	0x3e0aa06e	0.13537762
6	0x3d244fc1	0.04011512
7	0x3e1c5d55	0.15269978
8	0x3ead4f10	0.33849382
9	0x3e32eac4	0.17472368
10	0xbea70aa2	-0.326253
11	0xbe1c236a	-0.15247884
12	0x3d908419	0.07056446
13	0x3e704145	0.23462398
14	0x3d5c1d27	0.05373874
15	0x3ca22071	0.01979086
16	0x3c00201b	0.007820155
17	0xbee055b6	-0.43815392
18	0x3ea659ea	0.32490474
19	0x3e8377d5	0.25677362
20	0xbb140989	-0.0022588691
21	0x3ca16ea9	0.019706087
22	0x3e0f5d7d	0.14000507
23	0xbc8f01e4	-0.017456956
24	0x3df29b6d	0.11846051
25	0x3c6e8dce	0.014560176
26	0xbf3fc342	-0.74907315
27	0x3eccfa9d	0.40034953
28	0x3ec094a7	0.37613413
29	0x3db16f30	0.086637855
30	0x3e26cfc6	0.16290197
31	0x3ea56a50	0.32307673
32	0x3c7d0d24	0.0154450275
33	0x3d8ea9d6	0.069659874
34	0x3e8724f2	0.26395375
35	0x3e86a67d	0.26298895
36	0x3e64068f	0.22268127
37	0x3da4692a	0.08027871
38	0x3e0a0b35	0.13480838
39	0x3ea53a7b	0.3227118
40	0x3ef883a3	0.4853793
41	0x3e551a25	0.20810755
42	0x3e68c5ad	0.22731657
43	0x3e2bf8a9	0.16794075
44	0x3df356f8	0.11881822
45	0x3e967ce3	0.29392156
46	0x3e65ab4f	0.2242863
47	0x3e0b123f	0.13581179
48	0xbe167419	-0.14692725
49	0xbceb9084	-0.028755434
50	0xbf98c94a	-1.1936429
51	0xbde0a4da	-0.10968943
52	0xbe8533c6	-0.26016062
53	0xbeb191e7	-0.34681627
54	0xbe155bf7	-0.14585863
55	0x3e5579bd	0.2084722
56	0x3c5cf88c	0.013486993
57	0xbabe6ff5	-0.0014529215
58	0x3e76b56b	0.24092643
59	0xbeed260b	-0.46318087
60	0xc01cd2df	-2.4503706
61	0x3f4cc148	0.79982424
62	0xbe506aaa	-0.20353189
63	0xbe1cb262	-0.15302423
64	0xbf57da6b	-0.84317654
65	0x3ec6dc76	0.38840073
66	0xbe5ca797	-0.21548305
67	0xbf7bbb30	-0.983325
68	0x3e154246	0.14576063
69	0xc035c75b	-2.8402927
70	0x3f4e2bba	0.8053547
71	0x3e9ca2d7	0.30592987
72	0xbd2a751f	-0.0416156
73	0xbf5b8c4a	-0.8576094
74	0x3e5c49d4	0.21512538
75	0xbfbe5396	-1.4869258
76	0x3f4429a8	0.7662606
77	0xbeb54632	-0.35405117
78	0xbd6afec3	-0.057371866
79	0xbe0b4735	-0.13601382
80	0xbf19c1a5	-0.60061103
81	0x3d651f4d	0.055938054
82	0xbe2f11c7	-0.17096625
83	0xbf6cb6bd	-0.92466336
84	0xbea2c5b3	-0.31791458
85	0xbfe09838	-1.7546453
86	0x3f61b6a3	0.88169307
87	0xbe125692	-0.14290836
88	0xbe5ab417	-0.21357761
89	0xbfddf3d1	-1.7340032
90	0xbe371010	-0.17877221
91	0xbdbeab47	-0.09310012
92	0xc01c9501	-2.4465945
93	0xbdf3bb87	-0.119010024
94	0xbedb8715	-0.42876497
95	0xbefed03f	-0.49768254
96	0xbe5b7020	-0.21429491
97	0xbe496795	-0.1966842
98	0x3e4bffa1	0.19921733
99	0xbd8a9ffe	-0.06768797
100	0xbdcc98e8	-0.09990102
101	0xbdb307f8	-0.08741754
102	0xbbe24eba	-0.0069063576
103	0xbdaa4108	-0.08313185
104	0xbd246b88	-0.040141612
105	0x3e045477	0.12922846
106	0xbe10b1f9	-0.14130391
107	0x3e571b14	0.21006423
108	0x3e56d141	0.20978262
109	0xbed916fc	-0.42400348
110	0xbe68df5d	-0.22741456
111	0xbc9a4d62	-0.018835727
112	0x3f487b17	0.7831282
113	0xbe17e2b7	-0.14832579
114	0xbe606462	-0.21913293
115	0x3e11ba84	0.14231306
116	0xbe84244b	-0.2580894
117	0x3ded59cf	0.11589395
118	0xbfd59b5d	-1.6688038
119	0xbe68a6e3	-0.22719912
120	0x3e8a5a11	0.2702184
121	0xbb42d931	-0.0029731507
122	0xbdd28785	-0.102797545
123	0x3edc9c2d	0.43087903
124	0xbf904ca8	-1.1273394
125	0x3d15df6b	0.03659002
126	0xbe487259	-0.1957487
127	0x3d89a197	0.06720274
128	0x3e0d3957	0.13791405
129	0xbee71282	-0.45131308
130	0x3d321eb8	0.043486327
131	0x3e159750	0.14608502
132	0x3d5b6bf5	0.053569753
133	0x3f364191	0.71193796
134	0xbf658f2d	-0.89671594
135	0xbdb34c30	-0.08754766
136	0x3de4319f	0.11142277
137	0x3f0efcca	0.55854475
138	0xbe9c7944	-0.30561268
139	0x3c806da4	0.01567728
140	0x3ea8f3b8	0.32998443
141	0x3c0a5c5c	0.008444872
142	0xbe029909	-0.12753691
143	0x3d1e04f9	0.03857896
144	0x3e7cb3c3	0.24677949
145	0x3e2da480	0.16957283
146	0xbe6d9000	-0.23199463
147	0x3d597bbe	0.053096525
148	0x3e18f272	0.14936236
149	0x3ddf728e	0.109105214
150	0xbd46889c	-0.048470125
151	0xbd387fb9	-0.04504368
152	0x3d89abfd	0.06722257
153	0xbbb76ead	-0.0055979104
154	0x3eae4628	0.340379
155	0xbdeffae1	-0.11717773
156	0xbeb0b88e	-0.34515804
157	0x3f05047d	0.51959974
158	0x3dd92803	0.10603335
159	0x3e25f380	0.16206169
160	0xbf1902c0	-0.5976982
161	0x3d0e2ab8	0.03470871
162	0x3e806339	0.250757
163	0xbdd156f9	-0.10221667
164	0x3e973c96	0.2953841
165	0xbd0cae30	-0.034345806
166	0x3fd93d6e	1.6971872
167	0x3e3f1309	0.18659605
168	0xbe143895	-0.1447471
169	0x3da32352	0.07965721
170	0xbe46cf1f	-0.19414948
171	0xbf02ec60	-0.5114193
172	0x3fab5ef1	1.3388349
173	0x3d23500d	0.039871264
174	0x3ea50901	0.32233432
175	0xbcf03c6b	-0.029325685
176	0xbe568122	-0.20947698
177	0x3ef0301c	0.46911705
178	0x3d90d5fb	0.070720635
179	0xbe821b63	-0.2541152
180	0xbdb439b7	-0.08800071
181	0xbf26aa5c	-0.651037
182	0x3f26d309	0.65165764
183	0x3de2f031	0.11080969
184	0xbdda2e24	-0.10653332
185	0xbf25e283	-0.64798754
186	0x3e9c314a	0.30506355
187	0xbe039edc	-0.12853569
188	0xbeb8642a	-0.3601392
189	0x3e478310	0.1948359
190	0x3e1b27c1	0.15151884
191	0xbd227a34	-0.039667323

fc2.bias f4 [4]
0	0x3e90b460	0.28262615
1	0xbe2c0db9	-0.1680211
2	0x3c4840d7	0.01222249
3	0x3cb362f7	0.021897776
