models/R25Tiny__1787.44max_1555.64avg_1448.33min__1732623899.pth (torch, 2655 bytes, 4 tensors)

conv1.weight f4 [8, 1, 3, 3]
0	0x3e8b8457	0.27249405
1	0xbd651164	-0.055924788
2	0x3ea819e5	0.32832256
3	0x3e7fde11	0.24987055
4	0x3e117924	0.14206368
5	0xbd8461c8	-0.06463963
6	0xbec43932	-0.38324887
7	0x3ee8cdc9	0.45469502
8	0xbebb984a	-0.36639625
9	0x3e1909b5	0.14945109
10	0xbd946361	-0.072455175
11	0xbcab47c2	-0.02090824
12	0xbf2842dd	-0.65727025
13	0x3e451258	0.19245279
14	0xbeb313d3	-0.34976062
15	0xbd9e5dd3	-0.07732739
16	0x3c98912f	0.018623916
17	0xbe0be1f9	-0.1366042
18	0xbe915e18	-0.283921
19	0x3f1034c1	0.56330496
20	0x3eaa8b61	0.33309463
21	0xbf15baac	-0.58487964
22	0xbf65d144	-0.8977244
23	0xbdb5dbd3	-0.08879819
24	0x3f3251cf	0.6965608
25	0xbe9d3e51	-0.30711606
26	0xbed32700	-0.41240692
27	0x3ec555d9	0.3854206
28	0xbef3f010	-0.4764409
29	0xbf24fc31	-0.64447314
30	0xbe9c0224	-0.30470383
31	0xbf0b161b	-0.54330605
32	0xbf59bc6e	-0.85053146
33	0xbe726a93	-0.23673467
34	0x3ef853fe	0.4850158
35	0x3eba9721	0.36443427
36	0x3e5c8089	0.21533407
37	0xbf1e0219	-0.6172195
38	0xbf34ac53	-0.70575446
39	0xbe904235	-0.28175512
40	0xbead4267	-0.33839723
41	0xbf852dc4	-1.0404592
42	0xbeb94ec5	-0.3619291
43	0x3e2b6beb	0.16740386
44	0x3ef35936	0.47529
45	0x3e7d917d	0.2476253
46	0x3f2280d6	0.6347784
47	0x3e6b5069	0.22979893
48	0x3d9dac7f	0.07698917
49	0xbf011937	-0.504291
50	0x3eb46a67	0.3523743
51	0xbe21dc6f	-0.15806745
52	0x3df3a5cd	0.11896858
53	0xbd84ddf1	-0.064876445
54	0x3efb8d48	0.49131227
55	0x3e284e22	0.16436055
56	0x3e2524ae	0.16127273
57	0xbe857aba	-0.26070195
58	0xbe1745d1	-0.14772727
59	0x3ebe5ba6	0.37179297
60	0xbf59970e	-0.84996116
61	0xbd2e170b	-0.042502444
62	0x3ec5719a	0.38563234
63	0xbe1819cf	-0.14853595
64	0x3c2e0960	0.010622352
65	0x3e989486	0.29800814
66	0xbe6cbcc2	-0.2311888
67	0xbdfcb467	-0.123390965
68	0x3e9d79c2	0.30756956
69	0xbebf9f02	-0.37426
70	0x3f5b1987	0.85585827
71	0xbdf885fa	-0.12134929

conv1.bias f4 [8]
0	0xbe21b0e7	-0.15790139
1	0xbdcfb450	-0.10141814
2	0x3f22a59a	0.6353394
3	0x3eeaa158	0.4582622
4	0x3e92a091	0.28638127
5	0xbeb929ab	-0.36164603
6	0x3e18316e	0.14862606
7	0xbf01af83	-0.50658435

fc2.weight f4 [4, 48]
0	0x3deb1682	0.114789024
1	0x3e451404	0.19245917
2	0x3e95b433	0.29239044
3	0x3eca004c	0.39453351
4	0x3ecccb1a	0.39998704
5	0x3e473c7e	0.1945667
6	0x3d244fc1	0.04011512
7	0x3e1c5d55	0.15269978
8	0x3e82f8bf	0.25580403
9	0x3e488c8f	0.19584869
10	0xbe839240	-0.25697517
11	0xbe26c814	-0.16287261
12	0x3da2d193	0.07950129
13	0x3e56f39a	0.20991364
14	0x3dfa868b	0.12232693
15	0x3d46d0d0	0.048538983
16	0xbdc7d2ef	-0.09757029
17	0xbee0bd4e	-0.43894428
18	0x3e8a72f7	0.27040836
19	0x3e8377d5	0.25677362
20	0xbe149f78	-0.14513958
21	0xbce3505e	-0.027748283
22	0x3e1caf0c	0.1530115
23	0xbc135d63	-0.008994433
24	0x3df29b6d	0.11846051
25	0x3c6e8dce	0.014560176
26	0xbf3ed8bf	-0.7454948
27	0x3eb24ca4	0.34824097
28	0x3ec094a7	0.37613413
29	0x3dec29c3	0.11531403
30	0x3e5d7ca9	0.21629585
31	0x3ec118ff	0.37714383
32	0x3dae3f08	0.08508116
33	0x3e225031	0.15850903
34	0x3ea90f3e	0.3301944
35	0x3e9c0363	0.30471334
36	0x3e844746	0.25835627
37	0x3df8e43b	0.121529065
38	0x3dff726a	0.124729946
39	0x3ec99365	0.39370266
40	0x3f0e4ce1	0.5558606
41	0x3e8ec3f0	0.27883863
42	0x3e9c0b74	0.30477488
43	0x3e30ac1a	0.17253152
44	0x3df34d57	0.11879986
45	0x3eac480d	0.3364872
46	0x3e7311de	0.23737285
47	0x3e5e6edf	0.21721981
48	0xbeb49ccb	-0.35275874
49	0xbe70a8e2	-0.23501924
50	0xbfb86efa	-1.4408867
51	0xbea73f94	-0.32665694
52	0xbefa4e55	-0.48887888
53	0xbf10a60f	-0.56503385
54	0xbe155bf7	-0.14585863
55	0x3e5579bd	0.2084722
56	0xbbd33bfc	-0.0064463597
57	0xbabe6cdf	-0.0014528296
58	0x3e781c3a	0.24229518
59	0xbefd65a8	-0.4949162
60	0xc02b680d	-2.6782258
61	0x3f31bca6	0.6942848
62	0xbf0402cc	-0.5156677
63	0xbebfe45c	-0.37478912
64	0xbf5c7262	-0.86112034
65	0x3e8e4e69	0.27794197
66	0xbe817263	-0.25282583
67	0xbf7bbb30	-0.983325
68	0x3d2bbf03	0.04193021
69	0xc03c2cc6	-2.9402328
70	0x3f4e29a7	0.80532306
71	0x3e096257	0.1341642
72	0xbd2a751f	-0.0416156
73	0xbf5b8c4a	-0.8576094
74	0x3e5c6da0	0.21526194
75	0xbfbe58ee	-1.4870889
76	0x3f4429a8	0.7662606
77	0xbee0e7ad	-0.43926755
78	0xbe9c3692	-0.30510384
79	0xbeb85a30	-0.36006308
80	0xbf5316be	-0.82456577
81	0xbe213bff	-0.15745543
82	0xbecbbeb3	-0.3979393
83	0xbf90f953	-1.1326088
84	0xbf10f356	-0.566213
85	0xbfffe37c	-1.9991298
86	0x3f3dbb77	0.74114174
87	0xbebf5edc	-0.3737706
88	0xbee6472c	-0.44976175
89	0xbffbea23	-1.9680828
90	0xbece352a	-0.40274936
91	0xbe8e066f	-0.27739283
92	0xc024be24	-2.5741053
93	0xbeaf28eb	-0.34210905
94	0xbf1c79a3	-0.611231
95	0xbf161367	-0.58623356
96	0xbe5106ed	-0.20412798
97	0xbe34ef71	-0.17669465
98	0x3e5b2b2c	0.21403188
99	0xbd614ae8	-0.055003077
100	0xbdb839e1	-0.089954145
101	0xbdb4a707	-0.088209204
102	0xbbe24eba	-0.0069063576
103	0xbdaa4108	-0.08313185
104	0x3cb5947e	0.022165533
105	0x3e1928f0	0.14957023
106	0xbe2cf9fe	-0.1689224
107	0x3dde3bd1	0.10851253
108	0x3e5077c8	0.20358193
109	0xbea5a411	-0.32351735
110	0xbe5ebcc4	-0.21751696
111	0xbd0e5149	-0.03474549
112	0x3f31d0a3	0.6945898
113	0xbe4b888b	-0.19876306
114	0xbe3a3fc9	-0.18188395
115	0x3e11ba84	0.14231306
116	0xbe8b0763	-0.27154073
117	0x3e11045b	0.14161818
118	0xbfd0bf36	-1.6308353
119	0xbe4774b9	-0.1947812
120	0x3e8a5a11	0.2702184
121	0xbb42d931	-0.0029731507
122	0xbdb763b2	-0.08954562
123	0x3f09f68b	0.5389182
124	0xbf904ca8	-1.1273394
125	0x3c2ee876	0.01067554
126	0xbe4425ca	-0.1915504
127	0x3d9105ad	0.07081161
128	0x3df7da9b	0.121022426
129	0xbee2792a	-0.44233066
130	0x3d3785b7	0.044805255
131	0x3e06f2a8	0.13178504
132	0x3d20dbf8	0.03927228
133	0x3f2e5831	0.6810332
134	0xbf6633e1	-0.8992291
135	0xbde2915f	-0.110628836
136	0x3db9bd40	0.090693
137	0x3f08a114	0.53370786
138	0xbe99f800	-0.3007202
139	0x3d12037f	0.035647865
140	0x3e944f30	0.28966665
141	0x3b84cb68	0.004052568
142	0xbddf666f	-0.109082095
143	0x3c80d260	0.015725315
144	0x3e5e6d00	0.21721268
145	0x3e26e1b4	0.16297036
146	0xbe6909ed	-0.22757693
147	0x3d831b5d	0.064017035
148	0x3e1954e2	0.14973786
149	0x3de7ef90	0.1132499
150	0xbd46889c	-0.048470125
151	0xbd387fb9	-0.04504368
152	0x3d698118	0.05700788
153	0xbcd627e2	-0.026142064
154	0x3eacc3d1	0.33743146
155	0xbd127354	-0.035754517
156	0xbead9183	-0.3390008
157	0x3ee8d529	0.45475128
158	0x3dbe764d	0.09299908
159	0x3e355e38	0.17711723
160	0xbf0b8235	-0.54495555
161	0x3be8394c	0.0070869084
162	0x3e54848a	0.20753685
163	0xbdd156f9	-0.10221667
164	0x3e8afcce	0.27146
165	0x3b6b0375	0.0035860215
166	0x3fd9a4a4	1.7003369
167	0x3e383a30	0.17990947
168	0xbe143895	-0.1447471
169	0x3da32352	0.07965721
170	0xbe381f79	-0.17980756
171	0xbf0a3c64	-0.539984
172	0x3fab5ef1	1.3388349
173	0xba842113	-0.0010080658
174	0x3ea98939	0.33112505
175	0xbcef9155	-0.029244104
176	0xbe4e6f8f	-0.20159744
177	0x3ef1bfe5	0.47216716
178	0x3d930d34	0.07180253
179	0xbe818b23	-0.25301465
180	0xbd900379	-0.07031912
181	0xbf197ed5	-0.59959155
182	0x3f34e26d	0.70658
183	0x3e05a282	0.13050273
184	0xbd998892	-0.07496752
185	0xbf1d498f	-0.61440367
186	0x3e9d5600	0.30729675
187	0xbe096425	-0.13417108
188	0xbe93e9d9	-0.2888935
189	0x3e3bf62b	0.18355624
190	0x3e08aedc	0.13347954
191	0xbd3d0e49	-0.0461562

fc2.bias f4 [4]
0	0x3eb4b767	0.35296175
1	0xbed07a51	-0.4071832
2	0x3b324a44	0.002720491
3	0x3d1fbdc8	0.03899935
