models/R25XY__sector2.pth (torch, 7703 bytes, 6 tensors)

weight f4 [80, 4]
00000000: c616 a93e 646e bfbe de9f d03e 7acd a33e
00000010: cc17 d73e 1447 c4be e0d4 abbe 24a1 733e
00000020: 8d17 cdbf 9b2f e43e 51c0 28c0 6756 89bd
00000030: a4a2 17bf 602a 1b3e 57d0 13c0 65fc 32bf
00000040: 59d7 3f40 1544 103e e5ce 2dc0 c041 a640
00000050: d4d6 2d3e 6440 74be 6027 ebbe 36f0 913e
00000060: 5848 f33e 66be d1be 60d9 df3c 04b1 373e
00000070: a5e5 aebf cd6f 4abf 97fb a2bf 0b0b 5dc0
00000080: c725 c7bf 6e70 2ebf 0adc 47bf e38b 85c0
00000090: 127d f03e 2cd5 e0be 70fd 7bbd d23f f93e
000000a0: 44fa af3f 0aec 0bbf 97fd 10c0 808f 0f3f
000000b0: 4a82 2a40 ef48 56be 1f0f 2bbf 68d4 723f
000000c0: 0076 b63e c0e0 00be 08e7 cf3e 2039 2fbd
000000d0: e02a d3bd 5c82 7ebe 664d 883e 6c28 4f3e
000000e0: 3ed6 a23e fc99 a3be 781d 88be 4c42 f23e
000000f0: c909 3fc0 4080 e7bf ff7f 0ebd d002 963f
00000100: df06 84bf 9f07 8e3e 1ae2 28c0 0e9a 113f
00000110: d8e2 bd3e 26e3 a5be 3c6d c33e 843e 80be
00000120: 324f 89be 4ac7 e73e 1ee3 fdbf 15bd 20bf
00000130: be60 2340 b73f 2a3e 6708 92bf f4a4 48c0
00000140: 270d 913f 8d10 afbe 57f7 fabf 86e0 b1bf
00000150: b2f5 af3e 5659 b8be f25c 8dbe c077 1dbe
00000160: f0e2 883d c8bf 46be 4c38 9fbe 0807 bbbd
00000170: d098 f7be b705 b9be 4287 14c0 f8a0 f6bf
00000180: d14e 603f 800e ab3e 586a 2a3f 6992 eec0
00000190: bf17 00c0 9fc8 71bf da7a bdbe b620 1ac0
000001a0: 8051 42bd 845f 63be c0e7 b2be 600a e33d
000001b0: 38d6 e23f 9f4d 08bf f900 f4bf db3b 023f
000001c0: 89f1 c3bf 2707 34bf 53e1 4fbf 37d4 8cc0
000001d0: 625c 4fc0 2fee b9bf 51c8 0a3f 0f9b 99c0
000001e0: 00d1 1a3e e03b 62be b4ab b13e 50ff 3fbe
000001f0: 293e b9be 7d37 213f 8512 0dc0 285e 00c0
00000200: 346c 70c0 2450 14bf fd26 9fbf 2530 d4bf
00000210: 4515 983f da2b 92be 1d40 10c0 d06f b5bf
00000220: 3a48 bc3e 503e eebe f004 a03e 3e9e 99be
00000230: 68cf 9bbf c83d 453e fae0 20c0 39e2 2ebf
00000240: 7dc0 1640 1d7b b73d 07f4 71bf 9107 75c0
00000250: 80a4 2d3d c0a2 84be 5c36 babe 3450 053e
00000260: 5399 2b40 1fc4 a23d 7017 b5bf 1da1 40c0
00000270: 6016 febd 5eb5 f7be a03e 21bd e81c 7a3e
00000280: 9a9f b33f 2ffd a03d fb61 e1bf f8ef f5bf
00000290: a66f e63e 885d 983d 2068 aa3d b8be 4fbe
000002a0: 9bd3 0d40 22b2 293e 87c4 01c0 9f73 aebe
000002b0: 79c5 5b40 d1bc bf3f 33ca c13f 4121 ccbe
000002c0: 9ff8 43c0 7092 ffbf 630c abbe 8010 513e
000002d0: 4c67 00c0 72ef 38bf d175 603e 643d 8ac0
000002e0: 9fa1 0540 d18e 493e c5d8 e6bf 2f84 58be
000002f0: 10bc 8b3e f096 8fbe 1470 2cbe 409e 3b3c
00000300: 6aa6 2040 1769 f63d 1a5a f5bf bcee 82c0
00000310: 68e6 1240 c12d ad3d 85bc dfbf 98e8 12bf
00000320: 052a 25bf 68e6 94be 68c4 7bbf 54ec e2c0
00000330: 8aeb a03e 80ee b2bb 7c4d 863e d653 b33e
00000340: 5671 a33e 38cf f3be 0006 e83e 0862 073e
00000350: d33e 96bf 0820 d8be 470e fdbf 0d5b 70bf
00000360: 5afd ca3e 52da a8be 02be bdbe 1010 103d
00000370: 5be2 88be d8fc bcbe 4bda 1bc0 440d 893e
00000380: 21eb bf3f 9311 9dbe 1b56 09c0 e863 04c0
00000390: 08da 2a40 b630 9a3d 6df8 9dbf 3278 52c0
000003a0: 1ffa e23f e9ba 8bbd 6d4c 06c0 2b8f babf
000003b0: 3e64 8cbf 2475 7b3e 9127 28c0 3826 a43e
000003c0: 00ec 973e e1dc ac3c aee6 fa3d b669 993e
000003d0: 85e7 d53f ee20 083d 0934 e1bf dd6f 82bf
000003e0: 8804 2f3e c4f7 e6be ccc6 73be 3e53 ccbe
000003f0: 4c45 a540 d2a8 933f 155d 833f a815 95c0
0.33025187 -0.3738891 0.4074697 0.31992704 0.42010343 -0.38335478 -0.33560848 0.23791939
-1.6022812 0.4456757 -2.636738 -0.06705933 -0.59232545 0.15152884 -2.309591 -0.69916373
2.9975188 0.14088471 -2.7157528 5.195526 0.16976482 -0.23852688 -0.45928478 0.2850358
0.4751613 -0.40965575 0.027325332 0.1793862 -1.3663832 -0.79076844 -1.2733029 -3.453799
-1.5558404 -0.68140304 -0.7807013 -4.173326 0.4697042 -0.43912637 -0.061520994 0.48681504
1.374825 -0.5465704 -2.265478 0.5607834 2.6642022 -0.2092626 -0.6681995 0.94855356
0.35636902 -0.12585735 0.4060595 -0.042779088 -0.10310912 -0.24854416 0.2662155 0.20230263
0.3180408 -0.31953418 -0.26584983 0.47316206 -2.9849722 -1.8086014 -0.034790035 1.1719608
-1.0314597 0.2774019 -2.6388001 0.56875694 0.3708713 -0.32399863 0.38169277 -0.25047696
-0.26818234 0.45269233 -1.9834936 -0.62788516 2.5527797 0.16625868 -1.1408814 -3.135068
1.1332139 -0.34192315 -1.9606732 -1.3896644 0.34367138 -0.36005658 -0.27609974 -0.15377712
0.0668391 -0.19409096 -0.3109764 -0.091322005 -0.48358774 -0.36137173 -2.3207555 -1.9267874
0.87620264 0.334095 0.6656852 -7.4553723 -2.0014493 -0.9444675 -0.3700779 -2.4082465
-0.047441006 -0.22204405 -0.34942436 0.11085963 1.7721624 -0.5324344 -1.9062797 0.5087258
-1.5308086 -0.70323414 -0.8120319 -4.400905 -3.2400136 -1.4525813 0.5421191 -4.800178
0.1511879 -0.22093153 0.34701312 -0.18749738 -0.36180237 0.62975293 -2.2042553 -2.0057468
-3.7566042 -0.57934785 -1.2433773 -1.6577193 1.1881491 -0.2854908 -2.2539132 -1.4174747
0.36773854 -0.46531916 0.31253767 -0.30003542 -1.217267 0.19261849 -2.5137315 -0.6831394
2.3554986 0.08959029 -0.9451298 -3.8285868 0.042393208 -0.25905418 -0.36369598 0.13018876
2.6812332 0.079475634 -1.4147778 -3.0098336 -0.124066114 -0.4838056 -0.039366364 0.2442509
1.4033082 0.07860791 -1.7608026 -1.9213858 0.45007056 0.07439715 0.083206415 -0.20287597
2.2160404 0.16571859 -2.02762 -0.34072587 3.4339278 1.4979497 1.5139831 -0.3986912
-3.0620496 -1.9966564 -0.33407888 0.2041645 -2.0063047 -0.72240365 0.21919943 -4.319994
2.0879896 0.19683386 -1.8034903 -0.21144174 0.27291918 -0.28044844 -0.1683963 0.011451304
2.510157 0.12031763 -1.9168122 -4.0916424 2.295313 0.084559925 -1.7479407 -0.5738616
-0.6451724 -0.29082036 -0.9834657 -7.0913486 0.31429702 -0.0054605603 0.2623099 0.350249
0.31922406 -0.47619033 0.45317078 0.1322099 -1.1737922 -0.42211938 -1.9769982 -0.9388893
0.39646417 -0.32979065 -0.37059027 0.03517157 -0.26735196 -0.36911654 -2.4351985 0.26767933
1.4993631 -0.3067747 -2.1458805 -2.0685978 2.6695576 0.07528822 -1.2341439 -3.2885861
1.7732581 -0.0682276 -2.0984147 -1.4574941 -1.0968091 0.24556404 -2.627415 0.3206041
0.2967224 0.021101417 0.1225103 0.29963464 1.6711279 0.03323453 -1.7594005 -1.0190388
0.17091572 -0.45110905 -0.23806304 -0.3990726 5.164709 1.1535895 1.0262781 -4.6588936

bias f4 [80]
00000000: d862 bd3d 080b ccbd 07e7 93be c5d4 743e
00000010: 7d1a 2dbf f295 87be 4662 ea3e d8cb 16bf
00000020: e922 5bbf 1243 943e 2e60 73bc 8fd0 75be
00000030: 4c20 b1be 3264 f9be 9453 e5be 8161 69bf
00000040: d602 a3bc 80fc 2bbc 1af4 6fbd 215d 09bf
00000050: 92eb 68be 94c9 e53e f0e2 26be c86d 3dbf
00000060: 4b11 d73f 5b60 0a3f f822 ed3e 699e eabd
00000070: 3b1a afbe 60bb 1c3f 8880 963d bc3f d4bc
00000080: 51f0 f5be 3902 ceba 888d 16be b446 70be
00000090: fd29 b13d 209e 403e b6b6 ba3e 181e fcbd
000000a0: e89b 84be 9806 b0be a1c9 18bf 15ef d53e
000000b0: 4daa fabe 5eb3 debe aae2 2fbe d81b 1f3e
000000c0: 55e5 a93e 8260 093e 0f1d 323f a098 c2bc
000000d0: a853 57be 8bad 57bf d0c9 c03d a128 d6be
000000e0: 791e 91be 2882 98bd 1304 eabe 92a9 edbd
000000f0: 1918 efbe 31f9 68be 44d3 173e 0921 eb3f
00000100: 1392 f4bc a756 4cbe 4798 553f fd4c 8bbf
00000110: b870 a63e b43e 17be 9c1d 1fbf 58e9 8fbd
00000120: e24e 1dbe 6e14 d8be 3d6a 0f3f cc4c acbe
00000130: a336 5a3e c472 e7be 4606 83be f6b3 f2be
0.092473686 -0.099630415 -0.28887197 0.2390929 -0.6761854 -0.26481587 0.45778102 -0.5890479
-0.85600144 0.2895742 -0.014854474 -0.2400534 -0.34594953 -0.48709255 -0.44790328 -0.91164404
-0.019898813 -0.010497212 -0.058582403 -0.5365773 -0.22746113 0.44880354 -0.16297507 -0.7399564
1.6802152 0.54053277 0.46315742 -0.114559956 -0.341997 0.6122341 0.07348734 -0.025909297
-0.4803491 -0.0015717215 -0.14702427 -0.23464471 0.08650587 0.1881032 0.36467522 -0.123104274
-0.25900197 -0.3438003 -0.5968266 0.41783968 -0.48958054 -0.4349622 -0.17176309 0.15537965
0.3318278 0.13415721 0.6957559 -0.023754418 -0.21028006 -0.8424918 0.09413493 -0.41827872
-0.2834356 -0.074467 -0.45706233 -0.116046086 -0.46698073 -0.22751309 0.14826685 1.8369457
-0.02985481 -0.1995493 0.8343548 -1.088287 0.32507873 -0.14770013 -0.62154555 -0.07026929
-0.15362123 -0.42203087 0.5602148 -0.3365234 0.21309905 -0.45204747 -0.25590724 -0.47402924

weight f4 [10, 80]
00000000: de6c dcbd 7cfb d43d de77 cd3f 87ea 1740
00000010: c516 27c0 c6fe bbbd d03b 29bc a684 06c1
00000020: 2ea0 ffbf 7289 a83d 700f a2be 4afd 85c0
00000030: 72b7 06bd 284a 1e3d 5405 b1bc 0f5e 34c0
00000040: cd86 fb3f 9ef7 c83d a4dd e53f 6b2e 10c0
00000050: 80be bcbf c6df 9fbd 389c d6bd 5b0d 0040
00000060: 2a11 75c1 de60 9cbf 1807 793d 3039 0fc0
00000070: 47a9 7fc0 862d 05c1 14e8 c8bd e879 0240
00000080: 8e74 acbe 17c1 cabf 3cab d73d db13 c93f
00000090: 57d6 4440 d213 bb3d 08b4 a13f 16ca ccbd
000000a0: f362 1ac0 68ac a13d 23f0 2dc0 f180 4640
000000b0: 6b8b 8dbf f350 7fc0 e8f4 bcc0 b019 f63b
000000c0: 5845 6fc0 8b05 0dc0 f2a1 4ac0 182d 62bd
000000d0: 22d0 a33d bc7c ae3f b63e 7dbd 3c43 2f40
000000e0: efbd 75bf aad0 a6bf 2724 2cbf dd84 ef3f
000000f0: 9a15 b8bd e634 9cbf a8cb 2dbc d183 95c1
00000100: 779c 943f 47ef fabf 775d 99c0 795a 5cc0
00000110: 70b7 7bbd 1545 e2bd fe82 fcbf b8ab 70bc
00000120: 4258 01bf 5892 e93f 7efe 163e 9deb debd
00000130: 43b3 9fc0 aff4 76bd 8908 73bd 9e7e fbc0
00000140: 7018 d23c a0ff 0fbb 0054 2a3f 5705 ed3f
00000150: 6f85 d6bf 6959 c0bd 8004 1dbb acb0 cabf
00000160: 3510 e43f 902a 5a3c 1256 d13f 798f 263f
00000170: 408e 96bd 264f cb3d 11ba 54bd cf23 b4c1
00000180: 1150 693f 9f8c 86bd 4706 903f e37c 58c0
00000190: 7239 bd40 1c0c 273d 14f8 dc3d 3ce6 f73f
000001a0: 51c4 1fc0 3abb 7ac1 a4eb 3abd 64f1 2d40
000001b0: ffc7 fb3f ade1 86c0 c0b9 703c 30e6 f23f
000001c0: e431 113f 46a9 b640 e4e8 a83d 8618 403f
000001d0: 49d5 b1c0 5e3d 22bd 4879 d5c0 78ec 8cbd
000001e0: 646a f3be 20a9 e73b 595c aa3f 787c dfbf
000001f0: 7475 bdc1 ee8e 403f 856c c6bf 1875 1dbc
00000200: 70ea 90c0 22a3 bd3e 0d33 80bf 5cbe 9f3d
00000210: 8aba ab3d fedf 713f 6ee2 d43d eb35 533f
00000220: a9fd 6e3f bab2 98c0 54c7 e63f af9f 5c3f
00000230: 58e5 903c a924 fc3f 341f 35bd 331a 19c1
00000240: de76 8b3f 2b88 12c0 40d6 5ac0 b9b8 0a40
00000250: f807 80bd b288 a9bd 6f8a 0c3e 5da1 80bd
00000260: 42ce 8f40 8564 e73f 285a 193f a45f aa3d
00000270: 91e8 65bf 5b75 8fbd 30c1 103c e81c 2fc1
00000280: 5872 6cbd 6293 acbd d97f 073f a3ff 823f
00000290: 9d3a 6240 a031 bcbc a4d7 123d dd07 3240
000002a0: c364 4140 347a 233d b92f 3740 e523 9dbf
000002b0: 7ce2 1c3d 3086 803d a4b4 acbd 8d27 a7c1
000002c0: 70f0 293f 0835 553c c077 ab3e eb15 81c0
000002d0: 7c61 8340 3496 df3d 8eca 6abd 67b6 c73f
000002e0: 7bc7 28c0 82c1 12c1 8e4b c1bd 75d1 7340
000002f0: a1fd 4740 d131 13c0 f09d a83c ac4e 393f
00000300: 12f3 823f 83f5 4340 8061 433b fe1e 2b3f
00000310: 2a98 1cc1 20e5 d2bd b039 0fc1 da5e 8cbd
00000320: e478 14bf 5475 92bc 1792 0640 fa5b 4bc0
00000330: 0054 aec1 d82d dd3f c7cb 3e3d 483a 603d
00000340: 538c c2bf b1bd 00c0 0142 3fc0 fc56 a9bd
00000350: 7cf8 57bd 2624 983f 229c bbbd 6afa 883f
00000360: bb0d 283f 46d2 98c0 c953 3b3f 5f15 223f
00000370: ab6b 9dbd 3db3 853f 08e1 db3c 0016 87c1
00000380: 2576 653f 142d bbc0 7e04 9bc0 4f6a 1d40
00000390: 1aa7 10bd 1844 513c 15dc 5d3e 439c aebd
000003a0: 0933 5540 feeb 713f d54d 3e3f 6056 8bbc
000003b0: 19cd 0d3e d671 cbbd 442f 7c3d fd4b eec0
000003c0: 866a 02bd f4aa ecbc 52f4 18bd 845a 2ebd
000003d0: 0e96 babd 386b 313d 7010 e2bd ba4d 9c3d
000003e0: 74f9 8dbd 3ce3 bfbd cc92 12bd 131c 40bc
000003f0: e0c8 98bd 239c 84bd f32e d2bd 207b ca3c
-0.10762952 0.10399529 1.6052206 2.3736894 -2.6107647 -0.091794536 -0.010329202 -8.407385
-1.9970758 0.082293406 -0.31652403 -4.187169 -0.03288979 0.03864494 -0.021608986 -2.818241
1.9650513 0.09812854 1.7958264 -2.2528331 -1.4745636 -0.07806353 -0.10479015 2.0008152
-15.31669 -1.2217062 0.06079778 -2.2378654 -3.9947069 -8.323614 -0.098098904 2.0386906
-0.33682674 -1.5840176 0.10530707 1.5709184 3.0755823 0.0913464 1.2633066 -0.09999482
-2.4122894 0.07894212 -2.7177818 3.10162 -1.1058172 -3.9893157 -5.904896 0.0075103864
-3.7386074 -2.2034633 -3.1661344 -0.055218786 0.079986826 1.3631816 -0.061827384 2.7384787
-0.9599294 -1.3032429 -0.67242664 1.8712422 -0.08988495 -1.2203643 -0.010607637 -18.689363
1.1610249 -1.9604272 -4.7926593 -3.443022 -0.061454237 -0.110483326 -1.9727476 -0.014689378
-0.50525296 1.8247786 0.14745519 -0.108847834 -4.9906325 -0.060291942 -0.05933431 -7.859206
0.025646418 -0.0021972433 0.66534424 1.8517255 -1.6759471 -0.09392054 -0.002395898 -1.5835166
1.7817446 0.013315812 1.6354392 0.6506267 -0.07351351 0.09927206 -0.05193526 -22.517485
0.91137797 -0.0656979 1.1251916 -3.3826225 5.9132624 0.040783033 0.10789505 1.9367137
-2.4963572 -15.67071 -0.04563488 2.7178583 1.9670409 -4.2150483 0.014692724 1.8976498
0.5671675 5.7081633 0.08247545 0.7503742 -5.557286 -0.039609306 -6.671055 -0.0688104
-0.47542107 0.007069722 1.3309432 -1.745986 -23.68235 0.75218093 -1.5501868 -0.009610437
-4.528618 0.37038523 -1.001558 0.0779998 0.08385189 0.9448241 0.103947505 0.8250415
0.93355805 -4.771817 1.802958 0.8618116 0.017687485 1.9698688 -0.04421921 -9.568896
1.089565 -2.289561 -3.4193268 2.1675246 -0.0625152 -0.08278026 0.13724683 -0.062807776
4.493928 1.8077551 0.5990319 0.08319023 -0.89807993 -0.07004806 0.008835122 -10.944557
-0.057726234 -0.084265485 0.52929455 1.0234264 3.5348275 -0.022972882 0.035850182 2.78173
3.021775 0.039911464 2.8622878 -1.2276579 0.03830193 0.06275594 -0.08432892 -20.894312
0.66382504 0.013013132 0.334898 -4.0339255 4.10565 0.10917321 -0.057322077 1.560254
-2.6371753 -9.172243 -0.09438239 3.8096592 3.1248553 -2.2999156 0.020583123 0.7238567
1.0230429 3.0618598 0.0029812753 0.66844165 -9.787149 -0.102976084 -8.951584 -0.06854029
-0.57996964 -0.017878212 2.1026666 -3.1774888 -21.791016 1.7279615 0.046581056 0.05474308
-1.5199074 -2.0115778 -2.9884036 -0.08268544 -0.052727208 1.1886032 -0.09160639 1.070142
0.6564595 -4.775668 0.7317472 0.6331386 -0.07686552 1.0445324 0.026840702 -16.885742
0.896334 -5.8492527 -4.8442984 2.4596136 -0.03531561 0.0127725825 0.21665986 -0.08525898
3.33124 0.9450072 0.7433751 -0.01700896 0.1384777 -0.09933822 0.061568514 -7.446776
-0.03183987 -0.02889011 -0.037342377 -0.04256679 -0.09110652 0.043315142 -0.110382915 0.07632013
-0.06932345 -0.093695134 -0.035784528 -0.011725443 -0.07460189 -0.06475093 -0.10262861 0.024716914

bias f4 [10]
00000000: 5336 c73f 826f 113f f9b2 92bd f6f1 c1bb
00000010: 39c1 90bc 40a1 a6bf 54ed 943d 7e69 693d
00000020: 892a b9be 98e1 bf3f
1.5563453 0.5681077 -0.071630426 -0.0059187366 -0.01767026 -1.301796 0.07271829 0.05698537
-0.36165264 1.4990721

weight f4 [4, 10]
00000000: 8657 e9c0 0a55 7140 b306 ff3f 0c65 99be
00000010: cfa7 393e c770 4341 9104 8fbe 65bf 0ebd
00000020: 55f3 0441 4184 e8c0 813f b6c0 227e 3140
00000030: 1d59 a83f 6001 a23d 7c9b f43d 7790 4d41
00000040: 3a60 553e fd72 543d 8e84 0541 b946 cdc0
00000050: 35df b8c0 5ae5 d740 5c1e e83f 7041 eebd
00000060: bed4 98be 2210 2941 06d8 65be d540 54bd
00000070: 5798 c140 04b1 f2c0 2e3a 21c1 eae5 cc3e
00000080: c876 4340 109e 17be 1b03 743d 5d0e f540
00000090: 18ee f3bd 43b6 b43d 4edc 3441 a890 1ac1
-7.291934 3.7708154 1.992392 -0.29959905 0.1813042 12.215034 -0.2793317 -0.034850497
8.309407 -7.2661443 -5.695252 2.7733235 1.3152195 0.079104185 0.11943719 12.84777
0.20837489 0.051867474 8.344862 -6.414883 -5.777247 6.746747 1.8134265 -0.11633575
-0.2984981 10.566439 -0.22445688 -0.05181964 6.049846 -7.5841084 -10.076704 0.4001916
3.0541248 -0.1480639 0.059573274 7.6580033 -0.11910647 0.08823826 11.303785 -9.660316

bias f4 [4]
00000000: 229f 1141 567e 3e3f e1ca a8c0 9ab2 25c0
9.101351 0.74411523 -5.2747655 -2.589026
