models/R25XY__sector3.pth (torch, 7703 bytes, 6 tensors)

weight f4 [80, 4]
0.33025187 -0.3738891 0.4074697 0.31992704 0.42010343 -0.38335478 -0.33560848 0.23791939
-0.3587565 -0.09826344 -1.6231195 8.140151 -0.24461117 -0.3327682 -0.012465956 -0.47212356
0.48092693 0.15015864 -0.4433661 0.42011172 0.16976482 -0.23852688 -0.45928478 0.2850358
0.4751613 -0.40965575 0.027325332 0.1793862 -0.2887733 -0.19679186 0.11525969 -4.5166674
-1.1506617 -0.3875275 0.1770335 1.9844847 0.4697042 -0.43912637 -0.061520994 0.48681504
0.08187473 -0.14099878 -0.45030487 0.23267215 0.5585937 0.9137939 -0.12472358 0.98895
0.35636902 -0.12585735 0.4060595 -0.042779088 -0.10310912 -0.24854416 0.2662155 0.20230263
0.3180408 -0.31953418 -0.26584983 0.47316206 -1.1095866 -0.4154392 -0.29583022 2.680095
0.29705283 0.40562454 1.0394586 0.8098853 0.3708713 -0.32399863 0.38169277 -0.25047696
-0.73379356 0.21688962 0.8173104 3.5976734 0.99977773 0.23782875 -1.2255961 3.199204
-0.4489734 -0.5753175 -0.3839689 0.9094861 0.34367138 -0.36005658 -0.27609974 -0.15377712
0.0668391 -0.19409096 -0.3109764 -0.091322005 0.5182719 0.12956521 -0.4436014 3.4444292
-0.13881454 -0.11746251 0.44797796 0.41489244 -0.16135263 -0.4584114 -0.35764372 -0.38359195
-0.047441006 -0.22204405 -0.34942436 0.11085963 0.03217578 -0.0749585 -0.18125069 0.4261579
-0.9438009 -0.49111015 -0.66215706 3.8935819 -1.1696293 -0.56448317 -0.55201906 2.8145926
0.1511879 -0.22093153 0.34701312 -0.18749738 0.4463172 0.40030482 0.76399547 1.3106302
-0.51097554 -0.8205233 -0.8157449 0.10422898 0.7535579 0.41409126 -0.033890363 0.10507176
0.36773854 -0.46531916 0.31253767 -0.30003542 0.16686505 -0.44915238 -1.7671471 4.2682652
0.63988054 0.37677345 0.068128936 -0.07041779 0.042393208 -0.25905418 -0.36369598 0.13018876
0.69346297 0.5040183 1.079093 -1.6588831 -0.124066114 -0.4838056 -0.039366364 0.2442509
0.6903057 0.45968857 0.37938994 0.5882289 0.45007056 0.07439715 0.083206415 -0.20287597
1.111603 0.7178843 0.08045125 0.36222658 0.18045829 -0.09940872 -0.42797858 -0.4700484
-1.1681331 -0.42483506 -0.8715572 4.3879375 -0.74087584 -0.8489965 0.49290213 -1.3391076
1.3837377 0.7864774 0.118997276 0.12868035 0.27291918 -0.28044844 -0.1683963 0.011451304
0.63905483 0.71086746 -0.7933799 0.7941292 0.65744454 0.3333817 1.2447186 -3.135063
-0.7443689 -0.5627947 -1.3267752 2.5562844 0.31429702 -0.0054605603 0.2623099 0.350249
0.31922406 -0.47619033 0.45317078 0.1322099 -1.2707723 -0.44815105 -1.2704967 6.512487
0.39646417 -0.32979065 -0.37059027 0.03517157 -0.51611304 -0.3811371 -0.92269164 2.103323
0.8632809 0.4631669 -0.03540174 0.109626465 1.2086521 0.76269287 0.19135833 -0.22089213
0.95051926 -0.09770204 -1.1958948 -2.2926319 0.46568146 0.34555504 0.4536975 0.52285093
0.27255464 0.046149373 0.0975247 0.32526153 0.6095698 0.81410474 2.5732281 -2.1643205
0.17091572 -0.45110905 -0.23806304 -0.3990726 -1.2074 -0.4157752 -0.13735129 3.066075
00000000: c616 a93e 646e bfbe de9f d03e 7acd a33e
00000010: cc17 d73e 1447 c4be e0d4 abbe 24a1 733e
00000020: efae b7be 583e c9bd 61c2 cfbf 0f3e 0241
00000030: 5a7b 7abe 9860 aabe 023e 4cbc 2eba f1be
00000040: 0e3c f63e 30c3 193e e200 e3be e218 d73e
00000050: d4d6 2d3e 6440 74be 6027 ebbe 36f0 913e
00000060: 5848 f33e 66be d1be 60d9 df3c 04b1 373e
00000070: 18da 93be ce83 49be 460d ec3d 8a88 90c0
00000080: e248 93bf 016a c6be 4548 353e 9803 fe3f
00000090: 127d f03e 2cd5 e0be 70fd 7bbd d23f f93e
000000a0: f0ad a73d fc61 10be 5c8e e6be 9c41 6e3e
000000b0: ffff 0e3f 66ee 693f 146f ffbd d42b 7d3f
000000c0: 0076 b63e c0e0 00be 08e7 cf3e 2039 2fbd
000000d0: e02a d3bd 5c82 7ebe 664d 883e 6c28 4f3e
000000e0: 3ed6 a23e fc99 a3be 781d 88be 4c42 f23e
000000f0: ef06 8ebf 72b4 d4be 0f77 97be ad86 2b40
00000100: 4f17 983e 05ae cf3e fb0c 853f a554 4f3f
00000110: d8e2 bd3e 26e3 a5be 3c6d c33e 843e 80be
00000120: e5d9 3bbf 5018 5e3e 413b 513f 4840 6640
00000130: 6ff1 7f3f 6189 733e 55e0 9cbf c2bf 4c40
00000140: d7df e5be 0248 13bf 9297 c4be 15d4 683f
00000150: b2f5 af3e 5659 b8be f25c 8dbe c077 1dbe
00000160: f0e2 883d c8bf 46be 4c38 9fbe 0807 bbbd
00000170: 78ad 043f beac 043e b91f e3be 8771 5c40
00000180: 6625 0ebe 2f90 f0bd 5e5d e53e c86c d43e
00000190: a039 25be e6b4 eabe 141d b7be 2a66 c4be
000001a0: 8051 42bd 845f 63be c0e7 b2be 600a e33d
000001b0: c0ca 033d d883 99bd c899 39be 5e31 da3e
000001c0: f09c 71bf ca72 fbbe 2083 29bf 7230 7940
000001d0: 6ab6 95bf f881 10bf 1f51 0dbf 4922 3440
000001e0: 00d1 1a3e e03b 62be b4ab b13e 50ff 3fbe
000001f0: b083 e43e c1f4 cc3e 3595 433f bbc2 a73f
00000200: 4bcf 02bf d10d 52bf a8d4 50bf 0176 d53d
00000210: 2ce9 403f c503 d43e 9fd0 0abd dd2f d73d
00000220: 3a48 bc3e 503e eebe f004 a03e 3e9e 99be
00000230: acde 2a3e 4df7 e5be e031 e2bf a195 8840
00000240: 36cf 233f 73e8 c03e 2f87 8b3d 3437 90bd
00000250: 80a4 2d3d c0a2 84be 5c36 babe 3450 053e
00000260: ca86 313f 5807 013f b81f 8a3f 4856 d4bf
00000270: 6016 febd 5eb5 f7be a03e 21bd e81c 7a3e
00000280: e0b7 303f 4d5c eb3e 663f c23e 2b96 163f
00000290: a66f e63e 885d 983d 2068 aa3d b8be 4fbe
000002a0: 0249 8e3f 44c7 373f a0c3 a43d c375 b93e
000002b0: 0fca 383e cd96 cbbd 0220 dbbe 2faa f0be
000002c0: 6385 95bf fb83 d9be 5f1e 5fbf fc69 8c40
000002d0: 0aaa 3dbf d657 59bf ab5d fc3e e167 abbf
000002e0: 511e b13f 9556 493f d8b4 f33d c8c4 033e
000002f0: 10bc 8b3e f096 8fbe 1470 2cbe 409e 3b3c
00000300: 1999 233f 69fb 353f f21a 4bbf 0d4c 4b3f
00000310: 494e 283f 02b1 aa3e f052 9f3f dfa4 48c0
00000320: f68e 3ebf 5013 10bf c5d3 a9bf 2a9a 2340
00000330: 8aeb a03e 80ee b2bb 7c4d 863e d653 b33e
00000340: 5671 a33e 38cf f3be 0006 e83e 0862 073e
00000350: aba8 a2bf 0e74 e5be a39f a2bf 4b66 d040
00000360: 5afd ca3e 52da a8be 02be bdbe 1010 103d
00000370: fc1f 04bf 6724 c3be 8535 6cbf d89c 0640
00000380: faff 5c3f 3624 ed3e 6a01 11bd d783 e03d
00000390: 1db5 9a3f d73f 433f 70f3 433e 8c31 62be
000003a0: 3b55 733f 0218 c8bd 1513 99bf 7bba 12c0
000003b0: cd6d ee3e 97ec b03e 0a4b e83e 8fd9 053f
000003c0: 488c 8b3e 2007 3d3d 08bb c73d ae88 a63e
000003d0: c40c 1c3f 2b69 503f c5af 2440 3a84 0ac0
000003e0: 8804 2f3e c4f7 e6be ccc6 73be 3e53 ccbe
000003f0: 158c 9abf 7de0 d4be d1a5 0cbe 933a 4440

bias f4 [80]
0.092473686 -0.099630415 -3.6265433 -0.19951598 -0.47618133 -0.26481587 0.45778102 -2.6366043
0.3446711 0.2895742 0.48658794 3.2148497 -0.34594953 -0.48709255 -0.44790328 -2.622883
0.69519705 -0.010497212 2.2653184 1.4832246 -1.0890756 0.44880354 -0.16297507 -0.774182
0.38700393 0.3342715 0.46315742 0.41529685 0.6380406 0.9289795 0.07348734 0.7352962
-1.1799732 1.0230415 -0.14702427 -2.708192 0.99579936 0.1881032 1.032198 -0.123104274
0.69479674 -0.3438003 2.2347465 -0.49654847 -2.2905438 -1.4782926 2.9553359 0.15537965
3.1822505 0.9221075 1.0175091 -0.023754418 -0.21028006 -2.2236578 0.09413493 0.9684708
1.2703748 2.7331889 0.6399941 0.3816292 -0.4419194 0.88103986 0.14826685 -0.6934433
0.468403 0.58407295 1.057375 -3.3186631 0.32507873 -0.14770013 0.20457886 -0.07026929
1.0897537 0.30484405 -0.41406393 -0.3365234 2.4462874 -0.45204747 -0.25590724 -1.7623217
00000000: d862 bd3d 080b ccbd 4919 68c0 eb4d 4cbe
00000010: 0ace f3be f295 87be 4662 ea3e 20be 28c0
00000020: bb78 b03e 1243 943e 0e22 f93e 19c0 4d40
00000030: 4c20 b1be 3264 f9be 9453 e5be 51dd 27c0
00000040: 6ff8 313f 80fc 2bbc fafa 1040 4eda bd3f
00000050: d466 8bbf 94c9 e53e f0e2 26be cb30 46bf
00000060: 6125 c63e a225 ab3e f822 ed3e caa1 d43e
00000070: a156 233f 9ad1 6d3f 8880 963d 5f3c 3c3f
00000080: 5d09 97bf 06f3 823f 888d 16be 0553 2dc0
00000090: b5ec 7e3f 209e 403e 101f 843f 181e fcbd
000000a0: 33de 313f 9806 b0be 1606 0f40 9a3b febe
000000b0: 4598 12c0 b138 bdbf 3924 3d40 d81b 1f3e
000000c0: fea9 4b40 3d0f 6c3f bd3d 823f a098 c2bc
000000d0: a853 57be 6950 0ec0 d0c9 c03d b4ed 773f
000000e0: a49b a23f 91ec 2e40 a7d6 233f e764 c33e
000000f0: 4243 e2be d48b 613f 44d3 173e 8085 31bf
00000100: 85d2 ef3e ce85 153f 1058 873f fa64 54c0
00000110: b870 a63e b43e 17be 1f7d 513e 58e9 8fbd
00000120: 0d7d 8b3f 8514 9c3e 3000 d4be cc4c acbe
00000130: f98f 1c40 c472 e7be 4606 83be c293 e1bf

weight f4 [10, 80]
-0.10762952 0.10399529 -0.1468324 -0.0319055 -0.021397404 -0.091794536 -0.010329202 -0.14091933
-0.14470613 0.082293406 -0.07312183 0.0056680096 -0.03288979 0.03864494 -0.021608986 -0.013014717
0.06598253 0.09812854 0.0016016172 -0.07386564 0.03604059 -0.07806353 -0.10479015 0.06576662
-0.015962832 0.083972976 0.06079778 -0.023102641 -0.09909847 -0.11056758 -0.098098904 0.053820625
-0.095497705 0.010390867 0.10530707 -0.12242149 -0.09788269 0.0913464 -0.040891126 -0.09999482
0.0042057456 0.07894212 -0.11139034 0.0808959 0.028727138 0.0739481 0.023821838 0.0075103864
0.009217167 -0.037732854 -0.05640697 -0.055218786 0.079986826 -0.12936959 -0.061827384 -0.08759159
0.025658742 -0.01849895 -0.09611672 -0.0997096 -0.08988495 -0.124604434 -0.010607637 0.006421775
-0.08768813 -0.0018400401 -0.056306615 -0.14923073 -0.061454237 -0.110483326 -0.07008737 -0.014689378
-0.050755475 0.011769026 -0.08146539 -0.108847834 -0.061879467 -0.060291942 -0.05933431 0.027933808
0.025646418 -0.0021972433 -0.1125888 -0.110439375 0.095467135 -0.09392054 -0.002395898 -0.16609329
-0.14202476 0.013315812 -0.038037203 -0.1649617 -0.07351351 0.09927206 -0.05193526 0.052551962
0.07538499 -0.0656979 -0.049578562 0.05931438 -0.06472892 0.040783033 0.10789505 -0.13365318
0.07432333 0.108604416 -0.04563488 -0.1099922 -0.09035268 -0.10021803 0.014692724 -0.019082418
0.028059093 0.0013764508 0.08247545 -0.110931605 -0.036644503 -0.039609306 0.0015184958 -0.0688104
-0.114430085 0.007069722 -0.08035331 0.05346106 0.041191086 -0.08742735 -0.044321485 -0.009610437
-0.0862549 -0.028677149 -0.12023731 0.0779998 0.08385189 0.00751755 0.103947505 -0.013819981
-0.08081754 -0.09438807 -0.041682124 0.07354586 0.017687485 0.011219568 -0.04421921 0.018680789
0.07767533 -0.122923255 -0.14114234 -0.07193859 -0.0625152 -0.08278026 -0.002425236 -0.062807776
0.069306225 -0.05124306 -0.012898259 0.08319023 -0.06346355 -0.07004806 0.008835122 0.028500713
-0.057726234 -0.084265485 -0.13944566 -0.15000287 0.08154647 -0.022972882 0.035850182 -0.07000511
0.042242944 0.039911464 0.056595415 0.00010039607 0.03830193 0.06275594 -0.08432892 0.05171087
-0.041644953 0.013013132 -0.14755435 0.024760269 -0.064366385 0.10917321 -0.057322077 -0.13363633
-0.017593829 0.052813098 -0.09438239 -0.098004356 0.035193045 0.017190073 0.020583123 0.034570444
-0.15277587 0.0019990057 0.0029812753 -0.08100426 0.023629606 -0.102976084 0.061426416 -0.06854029
0.06557869 -0.017878212 -0.11921525 -0.061680496 -0.003246458 -0.017829185 0.054319087 0.05474308
-0.06705201 -0.11309667 -0.09088073 -0.08268544 -0.052727208 -0.11299449 -0.09160639 -0.051793065
-0.09933649 -0.067066915 -0.0023910357 -0.08594455 -0.07086003 -0.07774546 0.026840702 -0.052975804
0.026250167 0.034139868 0.05231856 0.04816269 -0.03531561 0.0127725825 0.073631324 -0.08525898
-0.019522492 -0.1521943 0.05224753 -0.01700896 0.036279086 -0.09933822 0.061568514 -0.15673234
-0.03183987 -0.02889011 -0.037342355 -0.04256679 -0.05934075 0.043315142 -0.110382915 0.012788574
-0.10108918 -0.093695134 -0.0040187538 -0.04349118 -0.07460189 -0.06475093 -0.10262861 -0.0070486884
00000000: de6c dcbd 7cfb d43d 3c5b 16be 57af 02bd
00000010: 9c49 afbc c6fe bbbd d03b 29bc 284d 10be
00000020: d82d 14be 7289 a83d e6c0 95bd b6ba b93b
00000030: 72b7 06bd 284a 1e3d 5405 b1bc ae3b 55bc
00000040: d921 873d 9ef7 c83d 5bed d13a de46 97bd
00000050: 4c9f 133d c6df 9fbd 389c d6bd a6b0 863d
00000060: 7cc4 82bc 06fa ab3d 1807 793d c041 bdbc
00000070: 23f4 cabd 4171 e2bd 14e8 c8bd 0473 5c3d
00000080: 4d94 c3bd 743e 2a3c 3cab d73d 1eb8 fabd
00000090: b876 c8bd d213 bb3d 747d 27bd 16ca ccbd
000000a0: 5ad0 893b 68ac a13d 9e20 e4bd c0ac a53d
000000b0: 2d55 eb3c 1a72 973d 0426 c33c b019 f63b
000000c0: 9a03 173c c48d 1abd ff0a 67bd 182d 62bd
000000d0: 22d0 a33d 7679 04be b63e 7dbd 3863 b3bd
000000e0: 4832 d23c 1c8b 97bc d8d8 c4bd 8c34 ccbd
000000f0: 9a15 b8bd 9c30 ffbd a8cb 2dbc c16d d23b
00000100: d695 b3bd 802d f1ba c4a1 66bd f1cf 18be
00000110: 70b7 7bbd 1545 e2bd f889 8fbd b8ab 70bc
00000120: f9e4 4fbd dfd2 403c 54d7 a6bd 9deb debd
00000130: 5375 7dbd aff4 76bd 8908 73bd 71d5 e43c
00000140: 7018 d23c a0ff 0fbb f594 e6bd 0a2e e2bd
00000150: 4684 c33d 6959 c0bd 8004 1dbb 5c14 2abe
00000160: f06e 11be 902a 5a3c e6cc 1bbd b8eb 28be
00000170: 408e 96bd 264f cb3d 11ba 54bd ba40 573d
00000180: 7263 9a3d 9f8c 86bd e412 4bbd a3f3 723d
00000190: 9990 84bd 1c0c 273d 14f8 dc3d 61dc 08be
000001a0: d436 983d fe6b de3d a4eb 3abd 9743 e1bd
000001b0: d30a b9bd 1c3f cdbd c0b9 703c bb52 9cbc
000001c0: 2fdc e53c 066a b43a e4e8 a83d 1c30 e3bd
000001d0: 8c18 16bd 5e3d 22bd 4408 c73a 78ec 8cbd
000001e0: 525a eabd 20a9 e73b 4790 a4bd fcf9 5a3d
000001f0: fcb7 283d 1c0d b3bd 728a 35bd 1875 1dbc
00000200: 69a6 b0bd 57ec eabc fb3e f6bd 5cbe 9f3d
00000210: 8aba ab3d c855 f63b 6ee2 d43d 346d 62bc
00000220: ab83 a5bd 884e c1bd e0ba 2abd 369f 963d
00000230: 58e5 903c 47d2 373c 341f 35bd 7408 993c
00000240: 3e14 9f3d 30bf fbbd 9e87 10be 8a54 93bd
00000250: f807 80bd b288 a9bd b5f0 1ebb 5da1 80bd
00000260: 6cf0 8d3d 3ee4 51bd 3853 53bc a45f aa3d
00000270: 2df9 81bd 5b75 8fbd 30c1 103c 547a e93c
00000280: 5872 6cbd 6293 acbd d8ca 0ebe 5a9a 19be
00000290: d601 a73d a031 bcbc a4d7 123d d75e 8fbd
000002a0: f006 2d3d 347a 233d 98d0 673d bb8b d238
000002b0: 7ce2 1c3d 3086 803d a4b4 acbd c7ce 533d
000002c0: e693 2abd 0835 553c 7d18 17be 0cd6 ca3c
000002d0: 86d2 83bd 3496 df3d 8eca 6abd f6d7 08be
000002e0: ef20 90bc 8c52 583d 8e4b c1bd 82b6 c8bd
000002f0: 9526 103d 32d2 8c3c f09d a83c bd99 0d3d
00000300: 4771 1cbe c001 033b 8061 433b 90e5 a5bd
00000310: e092 c13c 20e5 d2bd 449a 7b3d da5e 8cbd
00000320: 1f4e 863d 5475 92bc 2027 f4bd b0a4 7cbd
00000330: 87c2 54bb 830e 92bc b17d 5e3d 483a 603d
00000340: 9052 89bd 3a9f e7bd ad1f babd fc56 a9bd
00000350: 7cf8 57bd a869 e7bd 229c bbbd f724 54bd
00000360: ee70 cbbd 615a 89bd ecb2 1cbb b203 b0bd
00000370: 101f 91bd 0339 9fbd 08e1 db3c 28fd 58bd
00000380: 970a d73c 3fd6 0b3d fd4b 563d 3e46 453d
00000390: 1aa7 10bd 1844 513c 05cc 963d 439c aebd
000003a0: a2ed 9fbc d3d8 1bbe 8201 563d 6056 8bbc
000003b0: 6199 143d d671 cbbd 442f 7c3d 717e 20be
000003c0: 866a 02bd f4aa ecbc 4cf4 18bd 845a 2ebd
000003d0: 490f 73bd 386b 313d 7010 e2bd 2b87 513c
000003e0: d807 cfbd 3ce3 bfbd c0af 83bb cf23 32bd
000003f0: e0c8 98bd 239c 84bd f32e d2bd aff8 e6bb

bias f4 [10]
-0.030003544 -0.12461917 -0.11130758 -0.03768406 0.014254574 0.049683213 0.09040192 3.020709
-0.07277997 0.054759365
00000000: fec9 f5bc 5638 ffbd 3af5 e3bd 9a5a 1abd
00000010: 048c 693c a080 4b3d a424 b93d 4c53 4140
00000020: aa0d 95bd 5b4b 603d

weight f4 [4, 10]
-0.07467839 0.024958389 0.241586 -0.29959905 0.20303662 -0.24980019 -0.24756607 7.9956226
-0.24219075 -0.21445629 0.092170715 -0.23213159 0.2996745 0.079104185 0.08797415 0.28701898
0.24418184 8.429592 -0.11372393 -0.24259154 0.13108914 -0.061760083 -0.043349292 -0.11633935
-0.28429514 0.16554858 -0.2562227 5.43401 0.07271528 -0.11923227 0.21769522 -0.0045670983
0.07341171 -0.1163075 0.05848119 -0.03749488 -0.0873407 9.08161 0.006089063 -0.12770973
00000000: fcf0 98bd 8975 cc3c 5262 773e 0c65 99be
00000010: d5e8 4f3e 9fcb 7fbe f681 7dbe 24dc ff40
00000020: da00 78be 6e9a 5bbe 00c4 bc3d e7b3 6dbe
00000030: f06e 993e 6001 a23d cb2b b43d 27f4 923e
00000040: ce0a 7a3e 9cdf 0641 18e8 e8bd eb69 78be
00000050: 3b3c 063e 24f8 7cbd 078f 31bd 5343 eebd
00000060: 228f 91be 9185 293e 9f2f 83be 69e3 ad40
00000070: c0eb 943d 0c30 f4bd 7feb 5e3e 99a7 95bb
00000080: e158 963d a032 eebd f989 6f3d 3b94 19bd
00000090: aedf b2bd 464e 1141 c386 c73b 57c6 02be

bias f4 [4]
179.23006 168.16672 244.0568 144.35104
00000000: e53a 3343 ae2a 2843 8a0e 7443 de59 1043
