models/R25XY__sector1.pth (torch, 7703 bytes, 6 tensors)

weight f4 [80, 4]
0	0x3ea916c6	0.33025187
1	0xbebf6e64	-0.3738891
2	0x3ed09fde	0.4074697
3	0x3ea3cd7a	0.31992704
4	0x3f16a099	0.588388
5	0xbe6ad04b	-0.2293102
6	0xbf6d71d8	-0.92751837
7	0x3ebbc51f	0.3667383
8	0xbf6d64bf	-0.9273185
9	0x3f0ae821	0.5426045
10	0xbdf609b3	-0.12013569
11	0xbe7d7e47	-0.24755202
12	0xc006c0d6	-2.1055198
13	0x3fadb7a5	1.3571669
14	0xbe10330d	-0.14081974
15	0x3f3d68e9	0.73988205
16	0x3f019317	0.50615066
17	0x3c35a673	0.011087048
18	0xbf54b30b	-0.830857
19	0x3eb625d6	0.35575742
20	0x3ed9e08b	0.42554125
21	0xbe590a61	-0.21195365
22	0xbf7c8ec8	-0.98655367
23	0x3eb986f1	0.36235765
24	0x3f30c6fe	0.6905364
25	0xbe4d9824	-0.20077568
26	0xbf1f0fba	-0.6213337
27	0x3eca54f4	0.3951794
28	0xbe6a8c87	-0.2290517
29	0xbda39bdd	-0.07988713
30	0xbebc1e77	-0.36741993
31	0xbeabac2e	-0.335298
32	0xbec45159	-0.38343313
33	0xbda9224b	-0.08258494
34	0x3ebc8d94	0.36826766
35	0x3e6fd862	0.23422387
36	0x3f307c44	0.68939614
37	0xbe93b771	-0.28850892
38	0xbf1afd6d	-0.6054295
39	0x3f35f7f9	0.710815
40	0x3e95adb0	0.29234076
41	0xbe391d02	-0.18077472
42	0xbf70d4fa	-0.94074976
43	0x3e8ce06e	0.27514976
44	0x3ec06e0c	0.3758396
45	0xbd074b3a	-0.033030726
46	0x3ed96317	0.42458412
47	0xbe86f723	-0.26360425
48	0x3fcf2d25	1.6185652
49	0xbf4b6b63	-0.79460734
50	0x3f630c26	0.8869041
51	0xbee2cb94	-0.44295943
52	0xbdd32ae0	-0.10310912
53	0xbe7e825c	-0.24854416
54	0x3e884d66	0.2662155
55	0x3e4f286c	0.20230263
56	0x3ec45da2	0.38352686
57	0xbe8ec5ed	-0.2788538
58	0xbf33790e	-0.7010659
59	0x3f0ccc83	0.5499956
60	0xbe8e172e	-0.2775206
61	0xbe92005a	-0.28515893
62	0xbe08fdb4	-0.1337803
63	0xbe257bb8	-0.16160476
64	0xbec4a8e2	-0.38410097
65	0x3da88eba	0.08230348
66	0xbf3607fe	-0.71105945
67	0xbfc0c2d3	-1.5059456
68	0x3ebde2d8	0.3708713
69	0xbea5e326	-0.32399863
70	0x3ec36d3c	0.38169277
71	0xbe803e84	-0.25047696
72	0x3e11882e	0.14212105
73	0x3d6ac1b5	0.05731364
74	0x4003f136	2.0615973
75	0x3fe9ef8b	1.8276228
76	0x3e926ed2	0.28600174
77	0x3eb1eb55	0.34749857
78	0xbf04fc5b	-0.51947564
79	0xbe3879dc	-0.18015236
80	0xbd38f37e	-0.045154087
81	0xbe52b25d	-0.20575853
82	0x3fa8227b	1.3135523
83	0x4004fac9	2.0778067
84	0x3e9fb21b	0.3119057
85	0xbec89ced	-0.39182225
86	0xbe7a32af	-0.24433397
87	0xbe3dfef9	-0.18554296
88	0x3d88e2f0	0.0668391
89	0xbe46bfc8	-0.19409096
90	0xbe9f384c	-0.3109764
91	0xbdbb0708	-0.091322005
92	0xbf903784	-1.1266942
93	0x3ecfba9a	0.40572053
94	0xbf2c114d	-0.672139
95	0xbe731325	-0.23737772
96	0xbe3ce9ec	-0.18448609
97	0xbd8d72f0	-0.06906688
98	0x3ec9255a	0.3928631
99	0x3ea7dd76	0.3278615
100	0xbe2539a0	-0.16135263
101	0xbeeab4e6	-0.4584114
102	0xbeb71d14	-0.35764372
103	0xbec4662a	-0.38359195
104	0xbd425180	-0.047441006
105	0xbe635f84	-0.22204405
106	0xbeb2e7c0	-0.34942436
107	0x3de30a60	0.11085963
108	0xbddfec23	-0.109337114
109	0x3e395a12	0.18100765
110	0xbf988a98	-1.1917295
111	0xbfe1b782	-1.7634127
112	0xbec08762	-0.3760329
113	0xbdc402e5	-0.095708646
114	0x3e9ea149	0.30982426
115	0x3e9a54a6	0.30142707
116	0xbeff3df1	-0.49851945
117	0xbc71e5f4	-0.014764298
118	0x3eb4f93d	0.35346404
119	0x3c99e1b7	0.018784387
120	0x3e1ad100	0.1511879
121	0xbe623be0	-0.22093153
122	0x3eb1abb4	0.34701312
123	0xbe3fff50	-0.18749738
124	0xbf8f420d	-1.1192032
125	0x3f2ededa	0.68308794
126	0xbf30e7b2	-0.6910354
127	0xbf4ca3b0	-0.7993727
128	0x3dbe1614	0.09281555
129	0x3ecbf45c	0.3983487
130	0xbfe148a8	-1.7600298
131	0xc05118e6	-3.2671447
132	0xbff8fcb7	-1.9452122
133	0x3f08ba35	0.5340913
134	0xc001b550	-2.0266914
135	0xbed2c539	-0.41166094
136	0x3ebc483a	0.36773854
137	0xbeee3e50	-0.46531916
138	0x3ea004f0	0.31253767
139	0xbe999e3e	-0.30003542
140	0xbf5f075e	-0.87120616
141	0x3efd1b29	0.49434784
142	0xbd5c1405	-0.05373003
143	0x3e49eccf	0.19719242
144	0xc005db22	-2.0914998
145	0x3ea1c77f	0.31597516
146	0xbecdb6e4	-0.40178597
147	0xbec2fb7d	-0.38082495
148	0x3d2da480	0.042393208
149	0xbe84a2c0	-0.25905418
150	0xbeba365c	-0.36369598
151	0x3e055034	0.13018876
152	0x3e624067	0.2209488
153	0x3e509193	0.20368032
154	0xbf29e16f	-0.6635961
155	0xbf02877a	-0.5098797
156	0xbdfe1660	-0.124066114
157	0xbef7b55e	-0.4838056
158	0xbd213ea0	-0.039366364
159	0x3e7a1ce8	0.2442509
160	0xc018b192	-2.385838
161	0x3e9bb42a	0.30410892
162	0xbe445899	-0.19174422
163	0xbe6027e0	-0.21890211
164	0x3f33f999	0.7030273
165	0xbce25fd0	-0.027633578
166	0xbec08e8b	-0.37608752
167	0xbe800618	-0.2500465
168	0x3ee23f62	0.44188982
169	0xbd48c3ad	-0.049014736
170	0xbea6680c	-0.32501256
171	0x3e3ff04f	0.18744014
172	0x3e01eba5	0.12687548
173	0xbe20e4d9	-0.15712298
174	0xbebd90fa	-0.3702467
175	0xbf0604f8	-0.5235133
176	0xbec91908	-0.3927691
177	0xbed623d4	-0.4182421
178	0xbeaab774	-0.3334309
179	0xbe1519dc	-0.14560646
180	0xbed47f82	-0.4150353
181	0xbed60344	-0.41799366
182	0xbd63ef20	-0.05564797
183	0xbed7627c	-0.42067325
184	0x3edc4714	0.43022978
185	0xbd9d3ce1	-0.07677627
186	0xbfa33f41	-1.2753679
187	0xbfeffbbc	-1.8748698
188	0x3f04485f	0.5167293
189	0xbe1434df	-0.14473294
190	0xbf4d6c65	-0.8024352
191	0x3e30c3d2	0.172622
192	0x3f07ecae	0.5309552
193	0x3c554c63	0.0130187
194	0xbf1d3c47	-0.614201
195	0xbe92b2cd	-0.2865204
196	0xbee543f3	-0.44778404
197	0x3e8b2dd0	0.2718339
198	0xbf53e2b9	-0.82767826
199	0xbeea3a8b	-0.4574779
200	0xbf2b17b9	-0.6683307
201	0x3e3c42e9	0.18384899
202	0xbf072c3d	-0.5280188
203	0x3e1a0e1a	0.15044442
204	0x3fbee451	1.4913427
205	0xbf4bc492	-0.7959682
206	0x3f591c3e	0.8480872
207	0xbe574551	-0.21022536
208	0x3ea37156	0.31922406
209	0xbef3cf38	-0.47619033
210	0x3ee80600	0.45317078
211	0x3e076208	0.1322099
212	0xbf237407	-0.6384892
213	0x3e9bb995	0.30415025
214	0x3d9a239b	0.075263225
215	0x3f439ad8	0.7640815
216	0x3f1aa500	0.6040802
217	0xbe40b316	-0.18818316
218	0xbf7a1a64	-0.9769652
219	0x3e1d9cc0	0.15391827
220	0xbcb6a6a4	-0.022296257
221	0x3c474643	0.012162748
222	0xbf44f46b	-0.7693545
223	0x3e7b0337	0.24512945
224	0xbc2c54c3	-0.010518256
225	0xbddebaa0	-0.1087544
226	0xbe432079	-0.19055356
227	0xbcbed355	-0.02329413
228	0x3ec16e2f	0.37779376
229	0x3e717751	0.23580672
230	0xbf1c18b5	-0.609752
231	0xbefd0ff0	-0.49426222
232	0x3e7bf64b	0.24605672
233	0x3e3ec731	0.18630673
234	0xbf59fb8d	-0.8514946
235	0xbe847211	-0.25868276
236	0x3f626724	0.8843863
237	0xbd70af39	-0.058760855
238	0x3f1b4ef5	0.60667354
239	0x3f59eaf3	0.8512413
240	0x3e11b095	0.14227517
241	0xbdea5576	-0.11442082
242	0x3fbcffc8	1.4765558
243	0x3fe67fb3	1.8007721
244	0xbf5a393e	-0.85243595
245	0x3ec03563	0.3754073
246	0x3da83294	0.08212772
247	0x3ee4d78a	0.44695693
248	0x3e2f0488	0.17091572
249	0xbee6f7c4	-0.45110905
250	0xbe73c6cc	-0.23806304
251	0xbecc533e	-0.3990726
252	0xbdb5481c	-0.088516444
253	0xbdc2838f	-0.09497749
254	0x3e86b724	0.263116
255	0xbeac5b92	-0.33663613

bias f4 [80]
0	0x3dbd62d8	0.092473686
1	0x3eb6026d	0.35548726
2	0xbee4ab33	-0.44661865
3	0x3f98347d	1.1891018
4	0xbe8b37c4	-0.27190983
5	0x3e043d1b	0.12913935
6	0x3f75d800	0.96032715
7	0xbe8db247	-0.27675077
8	0xbf00376f	-0.50084585
9	0x3f3d653f	0.73982614
10	0x3f511271	0.81668764
11	0x3ea1af4e	0.3157906
12	0xbe436896	-0.19082865
13	0xbef96432	-0.48709255
14	0xbdf54f87	-0.11978059
15	0xbc85cc20	-0.016332686
16	0x3d744a7f	0.059641358
17	0xbc2bfc80	-0.010497212
18	0xbf16c0fa	-0.5888821
19	0x39e69c0d	0.00043985285
20	0xbf023e88	-0.50876665
21	0x3ed585fe	0.4170379
22	0xbe26e2f0	-0.16297507
23	0xbe908f94	-0.2823454
24	0x3edef0e0	0.43543148
25	0x3eab25a2	0.3342715
26	0x3eed22f8	0.46315742
27	0x3f53bc7d	0.82709485
28	0xbda03882	-0.07823278
29	0x3ea9d0e9	0.33167198
30	0x3d968088	0.07348734
31	0x3e50abf7	0.203781
32	0x3f128359	0.5723167
33	0x3f6daa46	0.9283794
34	0xbe168d88	-0.14702427
35	0xbe533f41	-0.20629598
36	0x3ed0227b	0.40651307
37	0x3e409e20	0.1881032
38	0x3f380a05	0.7189029
39	0xbdfc1e18	-0.123104274
40	0x3d43d3ae	0.047809295
41	0xbd2f438f	-0.04278904
42	0xbe9985d8	-0.29984927
43	0xbf0de836	-0.5543245
44	0x3ee0b832	0.4389053
45	0xbeb8c6ee	-0.3608927
46	0x3e2479e9	0.1606213
47	0x3f1f6f0b	0.62278813
48	0x3f081a0e	0.53164756
49	0x3f220dbe	0.6330222
50	0x3ede8ee8	0.43468404
51	0xbc495f55	-0.012290795
52	0xbe5753a8	-0.21028006
53	0xbf2f8b06	-0.6857151
54	0x3f0db63c	0.5535619
55	0x3eaedbc0	0.3415203
56	0xbe18e24d	-0.14930077
57	0x3ed79fe6	0.4211418
58	0x3e5c2507	0.214985
59	0xbe706b6f	-0.23478483
60	0xbf57a200	-0.8423157
61	0xbd9a4cac	-0.07534155
62	0x3e17d344	0.14826685
63	0xbe71a60e	-0.23598501
64	0x3da7d731	0.081953414
65	0xbdcd6bc6	-0.10030322
66	0x3ee3b9b1	0.4447761
67	0xbf380c07	-0.7189335
68	0x3e84cd2a	0.25937778
69	0xbe173eb4	-0.14770013
70	0xbe1efd45	-0.15526302
71	0x3eeb778d	0.45989648
72	0x3f17b6b5	0.59263164
73	0xbc885ad0	-0.016644865
74	0xbeac8140	-0.3369236
75	0xbeac4ccc	-0.3365234
76	0x3f1fb0a2	0.62378895
77	0xbf00b697	-0.5027861
78	0x390956a1	0.0001309761
79	0xbefb3578	-0.4906423

weight f4 [10, 80]
0	0xbddc6cde	-0.10762952
1	0x3dd4fb7c	0.10399529
2	0xbda1a262	-0.078923
3	0xbd02af6f	-0.031905588
4	0xbcaf499c	-0.021397404
5	0xbdbbfec6	-0.091794536
6	0xbc293bd0	-0.010329202
7	0xbdff6106	-0.124696776
8	0xbd85c1d8	-0.065311134
9	0x3da88972	0.082293406
10	0xbd95c0e6	-0.07312183
11	0x3d2fed04	0.042950645
12	0xbd06b772	-0.03288979
13	0x3d1e4a28	0.03864494
14	0xbcb10554	-0.021608986
15	0x3d8be1f0	0.068302035
16	0x3d8721d1	0.06598247
17	0x3dc8f79e	0.09812854
18	0x3dad4016	0.08459489
19	0xbd967cff	-0.0734806
20	0x3d8ade0a	0.06780632
21	0xbd9fdfc6	-0.07806353
22	0xbdd69c38	-0.10479015
23	0x3d86b09d	0.06576655
24	0xbc82c47c	-0.015962832
25	0x3dabfa06	0.083972976
26	0x3d790718	0.06079778
27	0xbd60bdbc	-0.054868445
28	0xbc883dd4	-0.016631044
29	0xbd4fcfce	-0.050735287
30	0xbdc8e814	-0.098098904
31	0x3d5c72ec	0.053820536
32	0xbdc39456	-0.09549777
33	0x3c2a3e0b	0.010390769
34	0x3dd7ab3c	0.10530707
35	0xbdfab828	-0.12242156
36	0xbdc876c4	-0.09788278
37	0x3dbb13d2	0.0913464
38	0xbd277d8e	-0.040891223
39	0xbdccca16	-0.09999482
40	0x3b89cf40	0.0042056143
41	0x3da1ac68	0.07894212
42	0xbd9842f4	-0.07434645
43	0x3d493caf	0.049130138
44	0x3dde13e0	0.108436346
45	0x3dd8807a	0.1057138
46	0x3d08a974	0.033364728
47	0x3bf619b0	0.0075103864
48	0x3d339544	0.043843523
49	0xbd8e554f	-0.06949865
50	0xbc71469f	-0.01472631
51	0xbd622d18	-0.055218786
52	0x3da3d022	0.079986826
53	0xbd8ebbeb	-0.06969436
54	0xbd7d3eb6	-0.061827384
55	0xbd437fa5	-0.047729153
56	0xbbc81d7e	-0.0061070314
57	0xbc87e764	-0.016589828
58	0xbdc4d8e1	-0.09611679
59	0xbd8b262c	-0.0679439
60	0xbdb8159a	-0.08988495
61	0xbda1bc56	-0.0789725
62	0xbc2dcba8	-0.010607637
63	0x3d51e49b	0.051243406
64	0xbdb395df	-0.0876882
65	0xbd09a648	-0.033605844
66	0xbdb45f4c	-0.08807239
67	0xbdad5752	-0.08463921
68	0xbd7bb770	-0.061454237
69	0xbde24515	-0.110483326
70	0xbdd09861	-0.10185314
71	0xbc70abb8	-0.014689378
72	0xbc2080bd	-0.009796319
73	0x3c40d279	0.011768931
74	0xbda6d754	-0.08146539
75	0xbddeeb9d	-0.108847834
76	0xbdbfc910	-0.093645215
77	0xbd76f4af	-0.060291942
78	0xbd730889	-0.05933431
79	0x3ce4d547	0.02793373
80	0x3cd21870	0.025646418
81	0xbcfb0778	-0.03064321
82	0xbdf15508	-0.117837965
83	0xbdda3ca1	-0.10656095
84	0x3d77d6e7	0.06050768
85	0xbded4675	-0.11585704
86	0xbcfca66b	-0.030841073
87	0xbdc96f70	-0.09835708
88	0xbde388a2	-0.11110045
89	0xbc77dfc2	-0.015129032
90	0xbd957ed5	-0.07299582
91	0xbe103783	-0.14083676
92	0xbdd79c9b	-0.10527917
93	0x3dcb4f26	0.09927206
94	0xbda49eb2	-0.08038081
95	0x3dab9494	0.083779484
96	0x3dccbc34	0.099968344
97	0xbd868c9f	-0.0656979
98	0xbd4a9348	-0.049456865
99	0x3d6547f1	0.05597681
100	0xbc228117	-0.009918473
101	0x3d270c1c	0.040783033
102	0x3ddcf814	0.10789505
103	0xbde60495	-0.11231343
104	0x3cc98108	0.02459766
105	0x3dde6bfe	0.108604416
106	0xbd3aeba4	-0.04563488
107	0xbdee9909	-0.11650283
108	0xbd75fe28	-0.060056835
109	0xbd8a469e	-0.067517504
110	0x3c70b9c0	0.014692724
111	0x3bd82561	0.006596253
112	0x3cf0cf49	0.029395716
113	0xbc5ac3db	-0.01335236
114	0x3da8e8e4	0.08247545
115	0xbdede12a	-0.11615212
116	0xbc206ca2	-0.009791525
117	0xbd223d5e	-0.039609306
118	0x3ab861b6	0.0014067206
119	0xbd8cec78	-0.0688104
120	0xbdb84782	-0.08998014
121	0xbce46ee6	-0.027884912
122	0xbdb67fce	-0.089110956
123	0x3d5af9fc	0.05346106
124	0x3d8d0eb6	0.068875715
125	0xbd60207f	-0.05471849
126	0xbd883640	-0.06650972
127	0xbd1be186	-0.038056873
128	0xbdb1207b	-0.08648773
129	0xbcfed291	-0.031106265
130	0xbe03c401	-0.12867738
131	0x3d580ade	0.05274474
132	0x3dabba8a	0.08385189
133	0x3b0240e4	0.0019875104
134	0x3d9aa083	0.075501464
135	0xbc978afe	-0.018498894
136	0xbd8cc52b	-0.06873544
137	0xbdc38274	-0.09546366
138	0xbd39221d	-0.04519855
139	0x3d8de65c	0.06928703
140	0x3c371eed	0.011176807
141	0x3b88708f	0.0041638087
142	0xbd351f34	-0.04421921
143	0x3d677cf8	0.056515664
144	0x3d98abc5	0.074546374
145	0xbe02e3cc	-0.1278221
146	0xbe0f2e2c	-0.13982457
147	0xbd2f8c82	-0.042858608
148	0xbd8007f8	-0.0625152
149	0xbda988b2	-0.08278026
150	0xbb181b7f	-0.0023209748
151	0xbdbae315	-0.09125344
152	0x3d84d108	0.06485182
153	0xbccfccad	-0.025366152
154	0xbc535338	-0.012898259
155	0x3daa5fa4	0.08319023
156	0xbd9df1c5	-0.077121295
157	0xbdd76be7	-0.105186276
158	0xbcd5f93e	-0.026119824
159	0x3d7df0e8	0.061997324
160	0xbd6c7258	-0.057726234
161	0x3eec0ba0	0.4610262
162	0x3e3f0ace	0.18656465
163	0xbffa6081	-1.9560701
164	0x3e885e3d	0.26634398
165	0x3f12698d	0.5719231
166	0x3ed883d9	0.42288092
167	0x3bfffe1a	0.0078122737
168	0x3daa4fbd	0.0831599
169	0x3e99ed5f	0.30063912
170	0x3f311c3d	0.69183713
171	0x3e053ea0	0.13012171
172	0x400e983c	2.2280416
173	0x3d808630	0.06275594
174	0x3e9559fc	0.29170215
175	0x3dc901e0	0.09814811
176	0xc00bf239	-2.186659
177	0x3c553508	0.013013132
178	0xc0b9d857	-5.8076587
179	0x3e2cf4e7	0.16890298
180	0xc13cace8	-11.792213
181	0x3d9e87d0	0.07740748
182	0xbd6aca8e	-0.057322077
183	0xbf86b362	-1.0523493
184	0xbd7f833c	-0.062381014
185	0x3d58528c	0.052813098
186	0xbdc14b8e	-0.09438239
187	0xc07d31ba	-3.95616
188	0x3c91e7b4	0.01781068
189	0x3d8300ba	0.06396623
190	0x3ca89df0	0.020583123
191	0xbfbe493f	-1.4866103
192	0xc1017a0f	-8.092299
193	0x400815b0	2.1263237
194	0x3b436180	0.0029812753
195	0x3ed78849	0.42096165
196	0x3fc2bfef	1.5214823
197	0xbdd2e520	-0.102976084
198	0x3f031a8c	0.5121238
199	0xbd8c5eda	-0.06854029
200	0x3fda3bc0	1.7049484
201	0x3ed9005e	0.42383093
202	0x3d8dc101	0.06921578
203	0xbc8dfd3d	-0.017332667
204	0x3d2f8dec	0.042859957
205	0x3ceccde8	0.028906778
206	0xc073d0b2	-3.8096128
207	0x3f307359	0.68926007
208	0x3e90bdb5	0.28269735
209	0x3f974390	1.1817493
210	0x3ecc510e	0.3990559
211	0x3f5aeca3	0.8551733
212	0xbd57f87c	-0.052727208
213	0xbd6010b7	-0.05470344
214	0x3f21218a	0.629418
215	0x3e515891	0.20443942
216	0xbc1c0564	-0.00952277
217	0x3e28f63b	0.1650018
218	0x3e9d1473	0.30679664
219	0x3e0d1321	0.13776828
220	0xc100fed7	-8.062217
221	0x3f0a02fe	0.53910816
222	0x3cdbe108	0.026840702
223	0xbbc04330	-0.0058673844
224	0xbe8838f4	-0.26605952
225	0x40212e77	2.518461
226	0xbee61bd0	-0.44943094
227	0x404352ae	3.0519214
228	0x3cc9487e	0.0245707
229	0x3c514418	0.0127725825
230	0x3f0efdb4	0.5585587
231	0x3f053f23	0.52049464
232	0x3e81472a	0.25249606
233	0xbfc7ee54	-1.5619607
234	0x3b5ccce0	0.003369145
235	0xbc8b5660	-0.01700896
236	0x3e98bb96	0.29830617
237	0xbf578035	-0.84180003
238	0x3eaa9070	0.33313322
239	0xbda08150	-0.078371644
240	0xbd026a86	-0.03183987
241	0xbcecaaf4	-0.02889011
242	0xbbb6bbc0	-0.0055765808
243	0xbd2e5a84	-0.04256679
244	0xbd730f49	-0.05934075
245	0x3d316b38	0.043315142
246	0xbde21070	-0.110382915
247	0x3d9c4dba	0.07632013
248	0xbd8df974	-0.06932345
249	0xbdbfe33c	-0.093695134
250	0xbb83afc0	-0.0040187538
251	0x3ca42bb8	0.020040378
252	0xbd98c8e0	-0.07460189
253	0xbd849c23	-0.06475093
254	0xbdd22ef3	-0.10262861
255	0x3cca7b20	0.024716914

bias f4 [10]
0	0x3beef518	0.007292401
1	0xbe008e74	-0.12554342
2	0x3e830992	0.2559324
3	0x3cd3bcd0	0.025846869
4	0x3d395180	0.04524374
5	0x3e99137d	0.2989768
6	0x3db924a4	0.09040192
7	0x3d818f77	0.06326192
8	0xbd7fbf20	-0.06243813
9	0x3d604cac	0.05476062

weight f4 [4, 10]
0	0xbd1e32c0	-0.038622618
1	0x3dd95d3b	0.106134854
2	0x40732f02	3.7997441
3	0xbe99650c	-0.29959905
4	0x3e598a16	0.21244082
5	0x4071f581	3.7806094
6	0xbe7d81f6	-0.24756607
7	0xbd9ba94e	-0.07600652
8	0xbe70c7c4	-0.23513705
9	0xbe5b9a6e	-0.21445629
10	0x3e0ce19e	0.13757941
11	0xbe36ba6a	-0.17844549
12	0x4074b667	3.823633
13	0x3da20160	0.079104185
14	0x3df49b7c	0.11943719
15	0x4076d212	3.8565717
16	0x3e7a0ace	0.24418184
17	0x3df1441a	0.117805675
18	0xbde0131a	-0.10941143
19	0xbe7869eb	-0.24259154
20	0x3e08fc9d	0.13377614
21	0xbcd95d90	-0.026533872
22	0x40552143	3.3301551
23	0xbe17a79c	-0.14810032
24	0xbe98d4be	-0.2984981
25	0x4093de26	4.6208677
26	0xbe832f9f	-0.2562227
27	0xbd8ce414	-0.0687944
28	0x3d889f25	0.066709794
29	0xbdf42c76	-0.11922543
30	0x3e95206f	0.29126307
31	0x3db5c939	0.08876271
32	0x40706a64	3.7564936
33	0xbe179e10	-0.1480639
34	0x3dbb0fe8	0.09133893
35	0x406f9467	3.7434328
36	0xbdb2dfae	-0.0873407
37	0x3d324920	0.04352677
38	0xbc88a081	-0.016678097
39	0xbe02c657	-0.12770973

bias f4 [4]
0	0x406e279f	3.7211683
1	0x404d0557	3.203451
2	0x41ecd112	29.602085
3	0x40ecd40d	7.400885
