models/R25XY__sector4.pth (torch, 7703 bytes, 6 tensors)

weight f4 [80, 4]
00000000: c616 a93e 646e bfbe de9f d03e 7acd a33e
00000010: cc17 d73e 1447 c4be e0d4 abbe 24a1 733e
00000020: ca50 42bf 9f0a a1be 392e 8cbf f97a b240
00000030: 5a7b 7abe 9860 aabe 023e 4cbc 2eba f1be
00000040: 0e3c f63e 30c3 193e e200 e3be e218 d73e
00000050: d4d6 2d3e 6440 74be 6027 ebbe 36f0 913e
00000060: 5848 f33e 66be d1be 60d9 df3c 04b1 373e
00000070: 88b4 dabe c47e 8fbe 8c63 30bd b932 6cc0
00000080: 17f1 7ebf 27d3 f1be 1340 f73e 2d74 8d3f
00000090: 127d f03e 2cd5 e0be 70fd 7bbd d23f f93e
000000a0: f0ad a73d fc61 10be 5c8e e6be 9c41 6e3e
000000b0: 68c8 2f3f 732b 5f3f 4b26 d73d e8df e73d
000000c0: 0076 b63e c0e0 00be 08e7 cf3e 2039 2fbd
000000d0: e02a d3bd 5c82 7ebe 664d 883e 6c28 4f3e
000000e0: 3ed6 a23e fc99 a3be 781d 88be 4c42 f23e
000000f0: 887d 52bf cb20 0bbf 8cee fabe 2a67 2440
00000100: 4f17 983e 05ae cf3e fb0c 853f a554 4f3f
00000110: d8e2 bd3e 26e3 a5be 3c6d c33e 843e 80be
00000120: 0500 24bf d39f 543d 6cdd 883f 86e7 0240
00000130: 2b43 563f 4d0e 1e3f 2f99 fdbe 1cee ee3e
00000140: d7df e5be 0248 13bf 9297 c4be 15d4 683f
00000150: b2f5 af3e 5659 b8be f25c 8dbe c077 1dbe
00000160: f0e2 883d c8bf 46be 4c38 9fbe 0807 bbbd
00000170: 78ad 043f beac 043e b91f e3be 8771 5c40
00000180: 6625 0ebe 2f90 f0bd 5e5d e53e c86c d43e
00000190: a039 25be e6b4 eabe 141d b7be 2a66 c4be
000001a0: 8051 42bd 845f 63be c0e7 b2be 600a e33d
000001b0: c0ca 033d d883 99bd c899 39be 5e31 da3e
000001c0: e12b 67bf 6e35 04bf 6baf bcbd 45fd f23f
000001d0: 7952 70bf b2f4 11bf c28a 983c 3306 8a3f
000001e0: 00d1 1a3e e03b 62be b4ab b13e 50ff 3fbe
000001f0: b083 e43e c1f4 cc3e 3595 433f bbc2 a73f
00000200: f99e 11bf 3a6a 44bf 9bed 60bf 6ad2 373d
00000210: 2ce9 403f c503 d43e 9fd0 0abd dd2f d73d
00000220: 3a48 bc3e 503e eebe f004 a03e 3e9e 99be
00000230: 5b02 dbbe 6fb8 b1be 9bc2 cbbf 8333 9e40
00000240: 36cf 233f 73e8 c03e 2f87 8b3d 3437 90bd
00000250: 80a4 2d3d c0a2 84be 5c36 babe 3450 053e
00000260: ca86 313f 5807 013f b81f 8a3f 4856 d4bf
00000270: 6016 febd 5eb5 f7be a03e 21bd e81c 7a3e
00000280: e0b7 303f 4d5c eb3e 663f c23e 2b96 163f
00000290: a66f e63e 885d 983d 2068 aa3d b8be 4fbe
000002a0: 0e6d 383f 7c83 3e3f 44d9 f8be b6c6 473f
000002b0: 0fca 383e cd96 cbbd 0220 dbbe 2faa f0be
000002c0: 06e4 8abf 490b 61bf 3e90 01bf f0f6 0b40
000002d0: 4eeb 4cbf 9216 4abf 21db dd3e 8208 b3bf
000002e0: 672a 933f 38af 3d3f 3fc3 473e 560f 19be
000002f0: 10bc 8b3e f096 8fbe 1470 2cbe 409e 3b3c
00000300: 2976 393f e6d5 363f ccb6 1bbf 3faf fcbd
00000310: 0c09 103f b945 db3e 1a2b 933f 66b6 4ec0
00000320: 3cdd 36bf ddfe 10bf 2cd9 35bf 0e65 873f
00000330: 8aeb a03e 80ee b2bb 7c4d 863e d653 b33e
00000340: 5671 a33e 38cf f3be 0006 e83e 0862 073e
00000350: 6e05 2cbf 6c40 63bf acc5 5abf 28b9 a340
00000360: 5afd ca3e 52da a8be 02be bdbe 1010 103d
00000370: a666 03bf 1bf1 91be f752 54bf c798 8e3f
00000380: ee2c 5a3f 3cca f23e 3eb2 44bd 914c bb3d
00000390: 7d5d 4a3f fce0 4c3f d6ad fabe f2e7 fabc
000003a0: 43c5 423f 7ccf 4a3e 4031 a3bf 1b8e 8bbf
000003b0: 3a2a de3e 2e30 c13e 7e07 d83e 6270 fb3e
000003c0: 488c 8b3e 2007 3d3d 08bb c73d ae88 a63e
000003d0: fd2a fd3e ca89 153f ffa3 aa3f 4b78 06c0
000003e0: 8804 2f3e c4f7 e6be ccc6 73be 3e53 ccbe
000003f0: 9a1c 2bbf cc71 d1be 2c18 08bf d812 a43e
0.33025187 -0.3738891 0.4074697 0.31992704 0.42010343 -0.38335478 -0.33560848 0.23791939
-0.75904524 -0.31453416 -1.0951606 5.5775113 -0.24461117 -0.3327682 -0.012465956 -0.47212356
0.48092693 0.15015864 -0.4433661 0.42011172 0.16976482 -0.23852688 -0.45928478 0.2850358
0.4751613 -0.40965575 0.027325332 0.1793862 -0.4271586 -0.28026402 -0.043063685 -3.6905959
-0.99586624 -0.4723141 0.48291072 1.1051079 0.4697042 -0.43912637 -0.061520994 0.48681504
0.08187473 -0.14099878 -0.45030487 0.23267215 0.6866517 0.87175673 0.10505351 0.113220036
0.35636902 -0.12585735 0.4060595 -0.042779088 -0.10310912 -0.24854416 0.2662155 0.20230263
0.3180408 -0.31953418 -0.26584983 0.47316206 -0.82222795 -0.54346913 -0.49010122 2.5687966
0.29705283 0.40562454 1.0394586 0.8098853 0.3708713 -0.32399863 0.38169277 -0.25047696
-0.6406253 0.051910233 1.0692573 2.045381 0.8369624 0.6174057 -0.49530932 0.46666038
-0.4489734 -0.5753175 -0.3839689 0.9094861 0.34367138 -0.36005658 -0.27609974 -0.15377712
0.0668391 -0.19409096 -0.3109764 -0.091322005 0.5182719 0.12956521 -0.4436014 3.4444292
-0.13881454 -0.11746251 0.44797796 0.41489244 -0.16135263 -0.4584114 -0.35764372 -0.38359195
-0.047441006 -0.22204405 -0.34942436 0.11085963 0.03217578 -0.0749585 -0.18125069 0.4261579
-0.9030133 -0.5164403 -0.09213146 1.8983542 -0.93875843 -0.57014 0.018620852 1.0783142
0.1511879 -0.22093153 0.34701312 -0.18749738 0.4463172 0.40030482 0.76399547 1.3106302
-0.568832 -0.7672459 -0.8786256 0.0448784 0.7535579 0.41409126 -0.033890363 0.10507176
0.36773854 -0.46531916 0.31253767 -0.30003542 -0.42775235 -0.34711024 -1.5918764 4.943788
0.63988054 0.37677345 0.068128936 -0.07041779 0.042393208 -0.25905418 -0.36369598 0.13018876
0.69346297 0.5040183 1.079093 -1.6588831 -0.124066114 -0.4838056 -0.039366364 0.2442509
0.6903057 0.45968857 0.37938994 0.5882289 0.45007056 0.07439715 0.083206415 -0.20287597
0.72041404 0.7441938 -0.4860326 0.78037584 0.18045829 -0.09940872 -0.42797858 -0.4700484
-1.0850837 -0.87907845 -0.5061072 2.1869469 -0.80046546 -0.7894069 0.43331245 -1.3986971
1.1497315 0.7409549 0.19508074 -0.14947256 0.27291918 -0.28044844 -0.1683963 0.011451304
0.72445923 0.71420133 -0.608258 -0.12338113 0.56263804 0.42826632 1.1497529 -3.2298827
-0.71431327 -0.5663889 -0.71034503 1.0577714 0.31429702 -0.0054605603 0.2623099 0.350249
0.31922406 -0.47619033 0.45317078 0.1322099 -0.67195785 -0.88770175 -0.85457873 5.116352
0.39646417 -0.32979065 -0.37059027 0.03517157 -0.51328504 -0.2850426 -0.82939094 1.1140374
0.8522481 0.47419918 -0.048021547 0.09145463 0.790489 0.800308 -0.4896075 -0.030628178
0.7608225 0.19805712 -1.2749405 -1.0902742 0.4339159 0.3773207 0.42193216 0.4910918
0.27255464 0.046149373 0.0975247 0.32526153 0.4944686 0.58413374 1.3331298 -2.101092
0.17091572 -0.45110905 -0.23806304 -0.3990726 -0.6684052 -0.40907133 -0.53161883 0.32045627

bias f4 [80]
00000000: d862 bd3d 080b ccbd 4076 11c0 eb4d 4cbe
00000010: 0ace f3be f295 87be 4662 ea3e 19d1 b2bf
00000020: 968e 84bf 1243 943e 0e22 f93e 559a ef3f
00000030: 4c20 b1be 3264 f9be 9453 e5be ea56 b9bf
00000040: 6ff8 313f 80fc 2bbc 4b5c 493f 6f27 703f
00000050: d466 8bbf 94c9 e53e f0e2 26be cb30 46bf
00000060: 6125 c63e a225 ab3e f822 ed3e caa1 d43e
00000070: 2df3 24bf 41d4 bcbe 8880 963d 5f3c 3c3f
00000080: 014b 90bf 06f3 823f 888d 16be 260b 04c0
00000090: b5ec 7e3f 209e 403e 101f 843f 181e fcbd
000000a0: 33de 313f 9806 b0be 8898 923f 9a3b febe
000000b0: caeb 95bf 1098 b5bf bf35 f63f d81b 1f3e
000000c0: fb35 f13f 672b 823f f236 6cbe a098 c2bc
000000d0: a853 57be a83e 08c0 d0c9 c03d f8f8 72be
000000e0: 6b03 a43f e955 d23f 71c8 443f eca7 d33e
000000f0: 4243 e2be 1d8e 4d3f 44d3 173e 2af7 26bf
00000100: 85d2 ef3e ce85 153f 1058 873f 2986 e9bf
00000110: b870 a63e b43e 17be 1f7d 513e 58e9 8fbd
00000120: 4ad0 28be 8514 9c3e 3000 d4be cc4c acbe
00000130: 07a8 e83f c472 e7be 4606 83be bd31 ddbf
0.092473686 -0.099630415 -2.2728424 -0.19951598 -0.47618133 -0.26481587 0.45778102 -1.3970062
-1.0356014 0.2895742 0.48658794 1.8718973 -0.34594953 -0.48709255 -0.44790328 -1.4479649
0.69519705 -0.010497212 0.7865645 0.9381017 -1.0890756 0.44880354 -0.16297507 -0.774182
0.38700393 0.3342715 0.46315742 0.41529685 -0.64433557 -0.36880687 0.07348734 0.7352962
-1.1272889 1.0230415 -0.14702427 -2.0631804 0.99579936 0.1881032 1.032198 -0.123104274
0.69479674 -0.3438003 1.1452799 -0.49654847 -1.1712582 -1.4187031 1.9235152 0.15537965
1.8844599 1.0169495 -0.23067835 -0.023754418 -0.21028006 -2.1288242 0.09413493 -0.23727787
1.2813543 1.6432468 0.7686835 0.41339052 -0.4419194 0.8029497 0.14826685 -0.6522089
0.468403 0.58407295 1.057375 -1.8244067 0.32507873 -0.14770013 0.20457886 -0.07026929
-0.16485706 0.30484405 -0.41406393 -0.3365234 1.8176278 -0.45204747 -0.25590724 -1.7280804

weight f4 [10, 80]
00000000: de6c dcbd 7cfb d43d 58a2 a1bd 57af 02bd
00000010: 9c49 afbc c6fe bbbd d03b 29bc fd60 ffbd
00000020: 38d0 c6bd 7289 a83d e6c0 95bd 04ed 2f3d
00000030: 72b7 06bd 284a 1e3d 5405 b1bc 1ba7 153d
00000040: d921 873d 9ef7 c83d 6563 583d 26dd 2abd
00000050: 4c9f 133d c6df 9fbd 389c d6bd a6b0 863d
00000060: 7cc4 82bc 06fa ab3d 1807 793d c041 bdbc
00000070: af3b 46bd b9cf 4fbd 14e8 c8bd 0473 5c3d
00000080: 4d94 c3bd 743e 2a3c 3cab d73d 1eb8 fabd
00000090: b876 c8bd d213 bb3d 747d 27bd 16ca ccbd
000000a0: 5ad0 893b 68ac a13d f442 98bd c0ac a53d
000000b0: 7f05 9d3d 1a72 973d 2863 853d b019 f63b
000000c0: 4495 333d c48d 1abd 3a46 71bc 182d 62bd
000000d0: 22d0 a33d dfbb 8ebd b63e 7dbd 907f 43bd
000000e0: 4832 d23c b0a4 783c d8d8 c4bd 8c34 ccbd
000000f0: 9a15 b8bd 4cbc a1bd a8cb 2dbc 94e4 513d
00000100: d695 b3bd 802d f1ba c4a1 66bd 4b57 adbd
00000110: 70b7 7bbd 1545 e2bd f889 8fbd b8ab 70bc
00000120: 5f80 20bc dfd2 403c 54d7 a6bd 9deb debd
00000130: 5375 7dbd aff4 76bd 8908 73bd 71d5 e43c
00000140: 7018 d23c a0ff 0fbb f594 e6bd 0a2e e2bd
00000150: 4684 c33d 6959 c0bd 8004 1dbb 5c14 2abe
00000160: f06e 11be 902a 5a3c e6cc 1bbd b8eb 28be
00000170: 408e 96bd 264f cb3d 11ba 54bd ba40 573d
00000180: 7263 9a3d 9f8c 86bd e412 4bbd a3f3 723d
00000190: 9990 84bd 1c0c 273d 14f8 dc3d 61dc 08be
000001a0: d436 983d fe6b de3d a4eb 3abd 9743 e1bd
000001b0: d30a b9bd 1c3f cdbd c0b9 703c bb52 9cbc
000001c0: 2fdc e53c 066a b43a e4e8 a83d 1c30 e3bd
000001d0: 8c18 16bd 5e3d 22bd 4408 c73a 78ec 8cbd
000001e0: 525a eabd 20a9 e73b 4790 a4bd fcf9 5a3d
000001f0: fcb7 283d 1c0d b3bd 728a 35bd 1875 1dbc
00000200: 69a6 b0bd 57ec eabc fb3e f6bd 5cbe 9f3d
00000210: 8aba ab3d c855 f63b 6ee2 d43d 346d 62bc
00000220: ab83 a5bd 884e c1bd e0ba 2abd 369f 963d
00000230: 58e5 903c 47d2 373c 341f 35bd 7408 993c
00000240: 3e14 9f3d 30bf fbbd 9e87 10be 8a54 93bd
00000250: f807 80bd b288 a9bd b5f0 1ebb 5da1 80bd
00000260: 6cf0 8d3d 3ee4 51bd 3853 53bc a45f aa3d
00000270: 2df9 81bd 5b75 8fbd 30c1 103c 547a e93c
00000280: 5872 6cbd 6293 acbd d8ca 0ebe 5a9a 19be
00000290: d601 a73d a031 bcbc a4d7 123d d75e 8fbd
000002a0: f006 2d3d 347a 233d 98d0 673d bb8b d238
000002b0: 7ce2 1c3d 3086 803d a4b4 acbd c7ce 533d
000002c0: e693 2abd 0835 553c 7d18 17be 0cd6 ca3c
000002d0: 86d2 83bd 3496 df3d 8eca 6abd f6d7 08be
000002e0: ef20 90bc 8c52 583d 8e4b c1bd 82b6 c8bd
000002f0: 9526 103d 32d2 8c3c f09d a83c bd99 0d3d
00000300: 4771 1cbe c001 033b 8061 433b 90e5 a5bd
00000310: e092 c13c 20e5 d2bd 449a 7b3d da5e 8cbd
00000320: 1f4e 863d 5475 92bc 2027 f4bd b0a4 7cbd
00000330: 87c2 54bb 830e 92bc b17d 5e3d 483a 603d
00000340: 9052 89bd 3a9f e7bd ad1f babd fc56 a9bd
00000350: 7cf8 57bd a869 e7bd 229c bbbd f724 54bd
00000360: ee70 cbbd 615a 89bd ecb2 1cbb b203 b0bd
00000370: 101f 91bd 0339 9fbd 08e1 db3c 28fd 58bd
00000380: 970a d73c 3fd6 0b3d fd4b 563d 3e46 453d
00000390: 1aa7 10bd 1844 513c 05cc 963d 439c aebd
000003a0: a2ed 9fbc d3d8 1bbe 8201 563d 6056 8bbc
000003b0: 6199 143d d671 cbbd 442f 7c3d 717e 20be
000003c0: 866a 02bd f4aa ecbc 4cf4 18bd 845a 2ebd
000003d0: 490f 73bd 386b 313d 7010 e2bd ab7e 363d
000003e0: 74f9 8dbd 3ce3 bfbd c0af 83bb d91b 40bc
000003f0: e0c8 98bd 239c 84bd f32e d2bd aff8 e6bb
-0.10762952 0.10399529 -0.07892293 -0.0319055 -0.021397404 -0.091794536 -0.010329202 -0.12469671
-0.09707683 0.082293406 -0.07312183 0.042950645 -0.03288979 0.03864494 -0.021608986 0.036536317
0.06598253 0.09812854 0.052829165 -0.04171481 0.03604059 -0.07806353 -0.10479015 0.06576662
-0.015962832 0.083972976 0.06079778 -0.023102641 -0.048396762 -0.05073521 -0.098098904 0.053820625
-0.095497705 0.010390867 0.10530707 -0.12242149 -0.09788269 0.0913464 -0.040891126 -0.09999482
0.0042057456 0.07894212 -0.07434645 0.0808959 0.07667064 0.0739481 0.06513053 0.0075103864
0.043843523 -0.037732854 -0.014726216 -0.055218786 0.079986826 -0.06969427 -0.061827384 -0.047729075
0.025658742 0.015175983 -0.09611672 -0.0997096 -0.08988495 -0.07897243 -0.010607637 0.05124338
-0.08768813 -0.0018400401 -0.056306615 -0.084639154 -0.061454237 -0.110483326 -0.07008737 -0.014689378
-0.009796231 0.011769026 -0.08146539 -0.108847834 -0.061879467 -0.060291942 -0.05933431 0.027933808
0.025646418 -0.0021972433 -0.1125888 -0.110439375 0.095467135 -0.09392054 -0.002395898 -0.16609329
-0.14202476 0.013315812 -0.038037203 -0.1649617 -0.07351351 0.09927206 -0.05193526 0.052551962
0.07538499 -0.0656979 -0.049578562 0.05931438 -0.06472892 0.040783033 0.10789505 -0.13365318
0.07432333 0.108604416 -0.04563488 -0.1099922 -0.09035268 -0.10021803 0.014692724 -0.019082418
0.028059093 0.0013764508 0.08247545 -0.110931605 -0.036644503 -0.039609306 0.0015184958 -0.0688104
-0.114430085 0.007069722 -0.08035331 0.05346106 0.041191086 -0.08742735 -0.044321485 -0.009610437
-0.0862549 -0.028677149 -0.12023731 0.0779998 0.08385189 0.00751755 0.103947505 -0.013819981
-0.08081754 -0.09438807 -0.041682124 0.07354586 0.017687485 0.011219568 -0.04421921 0.018680789
0.07767533 -0.122923255 -0.14114234 -0.07193859 -0.0625152 -0.08278026 -0.002425236 -0.062807776
0.069306225 -0.05124306 -0.012898259 0.08319023 -0.06346355 -0.07004806 0.008835122 0.028500713
-0.057726234 -0.084265485 -0.13944566 -0.15000287 0.08154647 -0.022972882 0.035850182 -0.07000511
0.042242944 0.039911464 0.056595415 0.00010039607 0.03830193 0.06275594 -0.08432892 0.05171087
-0.041644953 0.013013132 -0.14755435 0.024760269 -0.064366385 0.10917321 -0.057322077 -0.13363633
-0.017593829 0.052813098 -0.09438239 -0.098004356 0.035193045 0.017190073 0.020583123 0.034570444
-0.15277587 0.0019990057 0.0029812753 -0.08100426 0.023629606 -0.102976084 0.061426416 -0.06854029
0.06557869 -0.017878212 -0.11921525 -0.061680496 -0.003246458 -0.017829185 0.054319087 0.05474308
-0.06705201 -0.11309667 -0.09088073 -0.08268544 -0.052727208 -0.11299449 -0.09160639 -0.051793065
-0.09933649 -0.067066915 -0.0023910357 -0.08594455 -0.07086003 -0.07774546 0.026840702 -0.052975804
0.026250167 0.034139868 0.05231856 0.04816269 -0.03531561 0.0127725825 0.073631324 -0.08525898
-0.019522492 -0.1521943 0.05224753 -0.01700896 0.036279086 -0.09933822 0.061568514 -0.15673234
-0.03183987 -0.02889011 -0.037342355 -0.04256679 -0.05934075 0.043315142 -0.110382915 0.044554394
-0.06932345 -0.093695134 -0.0040187538 -0.011725389 -0.07460189 -0.06475093 -0.10262861 -0.0070486884

bias f4 [10]
00000000: 80f5 ee3b 5638 ffbd 3af5 e3bd e5ef c1bb
00000010: 048c 693c a080 4b3d a424 b93d 6d86 cb3f
00000020: aa0d 95bd 5b4b 603d
0.0072924495 -0.12461917 -0.11130758 -0.0059184902 0.014254574 0.049683213 0.09040192 1.5900398
-0.07277997 0.054759365

weight f4 [4, 10]
00000000: c032 1ebd 8975 cc3c 5262 773e 0c65 99be
00000010: d5e8 4f3e 9fcb 7fbe f681 7dbe 4530 8e40
00000020: da00 78be 6e9a 5bbe 9ee1 0c3e e7b3 6dbe
00000030: f06e 993e 6001 a23d cb2b b43d 27f4 923e
00000040: ce0a 7a3e 843a 9440 18e8 e8bd eb69 78be
00000050: cc83 293e 24f8 7cbd 078f 31bd 9ca7 17be
00000060: 228f 91be 9185 293e 9f2f 83be 0fc1 5e40
00000070: c0eb 943d 0c30 f4bd 93dd 843e 99a7 95bb
00000080: e158 963d a032 eebd f989 6f3d 3b94 19bd
00000090: aedf b2bd e1e3 9240 c386 c73b 57c6 02be
-0.038622618 0.024958389 0.241586 -0.29959905 0.20303662 -0.24980019 -0.24756607 4.4433923
-0.24219075 -0.21445629 0.13757941 -0.23213159 0.2996745 0.079104185 0.08797415 0.28701898
0.24418184 4.632143 -0.11372393 -0.24259154 0.16554183 -0.061760083 -0.043349292 -0.14810032
-0.28429514 0.16554858 -0.2562227 3.4805334 0.07271528 -0.11923227 0.25950298 -0.0045670983
0.07341171 -0.1163075 0.05848119 -0.03749488 -0.0873407 4.5903172 0.006089063 -0.12770973

bias f4 [4]
00000000: a756 9042 c0c3 c042 2c76 1743 3d0a a442
72.16924 96.382324 151.46161 82.02
