models/R25XY__sector0.pth (torch, 7703 bytes, 6 tensors)

weight f4 [80, 4]
000000 96 b4 40 3f e9 17 0b be 03 c0 28 3f 6a 7a 1b bf
       0.7527555 -0.1358334 0.65917987 -0.60733664
000010 81 ef 33 3f 78 85 e6 be 7d df 7e bf 80 ed 62 3f
       0.7028733 -0.45023704 -0.99559766 0.88643646
000020 05 85 25 bf 53 e7 1f 3f 1f f9 23 3f e9 7c 3c 3f
       -0.64656097 0.6246235 0.64052004 0.736281
000030 d9 4c 18 c0 59 50 5c 3d 4a b6 88 bd e5 44 0a bf
       -2.3796904 0.053787563 -0.06675394 -0.54011375
000040 2d 71 41 3e 8e 8d ce 3b 19 88 bd bf 59 ce 85 3e
       0.1889083 0.0063034957 -1.4807159 0.26133993
000050 ef b0 00 3f b0 d3 e4 be 01 e1 1e bf 48 e2 a8 3f
       0.5026998 -0.44692755 -0.6206208 1.3194056
000060 12 c6 1d 3f 91 5b da be 9f d6 1e bf 7a 91 d6 bf
       0.61630356 -0.42647985 -0.62046236 -1.6763146
000070 44 c9 71 be 10 0f e0 bd 58 f0 aa be a8 0e 72 be
       -0.23611933 -0.10940373 -0.33386493 -0.23638403
000080 12 24 36 c0 96 3b ec 3a f2 04 3c bd 51 26 8c be
       -2.8459516 0.0018023129 -0.045903154 -0.27372983
000090 24 4f 27 3f 9e 34 ce bf ff e3 12 3f f5 c6 db 3d
       0.65355134 -1.6109807 0.57379144 0.107313074
0000a0 29 a9 93 3e ef 7b bd be f0 0e df be d0 7e 94 3f
       0.28839996 -0.37008616 -0.43566084 1.16012
0000b0 7d 3b c2 3e cb 91 b3 3e 6d ea b7 3f 35 3b 50 3f
       0.3793601 0.3507217 1.4368416 0.8134034
0000c0 3c ef 25 3f 63 2e 39 be 57 62 a3 3e 10 18 96 3f
       0.6481817 -0.18084101 0.31910965 1.1726093
0000d0 e0 2a d3 bd 5c 82 7e be 66 4d 88 3e 6c 28 4f 3e
       -0.10310912 -0.24854416 0.2662155 0.20230263
0000e0 84 30 0c 3f 65 d9 e9 be 45 5a 8a bf 5d ac 66 3f
       0.5476153 -0.4567367 -1.0808798 0.90106755
0000f0 2e 17 8e be 5a 00 92 be b4 fd 08 be b8 7b 25 be
       -0.2775206 -0.28515893 -0.1337803 -0.16160476
000100 4d 27 25 bf 71 dd ed 3e f5 16 85 bd 8d 3b 1a 3f
       -0.64513093 0.4645801 -0.06498519 0.6024712
000110 46 a8 26 3f 11 1e 87 be a0 93 b0 be 7f 42 08 c0
       0.65100515 -0.26390126 -0.3448763 -2.1290586
000120 6b 98 20 3d 74 73 ad 3e 6d fa e6 3f 65 6c 42 3f
       0.039207857 0.33877146 1.8045174 0.75946647
000130 65 0e 54 be 90 de 87 3e 7a 90 9e bf 2d d9 58 bf
       -0.20708616 0.2653699 -1.2387841 -0.84706384
000140 ef f5 25 c0 86 b3 14 bd 08 c0 6c be 08 f7 a5 be
       -2.5931356 -0.03630402 -0.23120129 -0.32415032
000150 fa 07 21 3f 4b ce b3 be 93 4b be bf de 42 72 3d
       0.62902796 -0.35118327 -1.4866813 0.0591458
000160 19 37 10 3f bc b0 1a 3e 9a 0b ab 3e dc 2b 61 bf
       0.5633407 0.15106481 0.3340729 -0.8795755
000170 d3 07 56 bf 8b 86 a0 3d 5b a5 d8 be 99 f3 d0 bc
       -0.8360569 0.07838162 -0.42313656 -0.025506781
000180 ec e9 3c be f0 72 8d bd 5a 25 c9 3e 76 dd a7 3e
       -0.18448609 -0.06906688 0.3928631 0.3278615
000190 a0 39 25 be e6 b4 ea be 14 1d b7 be 2a 66 c4 be
       -0.16135263 -0.4584114 -0.35764372 -0.38359195
0001a0 80 51 42 bd 84 5f 63 be c0 e7 b2 be 60 0a e3 3d
       -0.047441006 -0.22204405 -0.34942436 0.11085963
0001b0 45 a7 8a 3e 09 45 56 bd ec fc 32 3f 43 25 9b 3f
       0.27080742 -0.05231193 0.6991718 1.2120746
0001c0 ba 71 38 c0 d2 14 e4 bc 68 59 64 bd c5 aa 4d be
       -2.8819413 -0.02784196 -0.055749327 -0.20084675
0001d0 f2 b6 de be 50 59 a0 bd f6 7f d5 3e 80 90 a8 3d
       -0.4349895 -0.07829535 0.4169919 0.08230686
0001e0 e2 5c 45 3f 0a 20 84 3e 9f 2b 80 3f 08 61 49 bf
       0.7709485 0.25805694 1.0013312 -0.7866368
0001f0 54 94 5d bf e0 d1 26 3f d2 4b bb bc a6 cb 63 3e
       -0.86554456 0.65163994 -0.022863302 0.22245654
000200 f6 68 b2 be b8 a8 e2 bd d4 a8 c4 be 98 3e ac be
       -0.34845704 -0.11067337 -0.38410056 -0.33641505
000210 89 16 94 be 84 31 48 bd 2f b1 b7 bf 1a c4 2a 3f
       -0.28923443 -0.048875347 -1.4350947 0.6670548
000220 74 35 25 3f dd 2c 40 be 93 2b 98 3c 43 54 f3 bf
       0.6453469 -0.18767114 0.018575465 -1.901009
000230 3f 25 41 bf a0 c0 08 3f d5 27 a0 be 5f 17 a8 bd
       -0.7544746 0.5341892 -0.3128039 -0.08207583
000240 f7 47 1d bf e0 14 da 3e c3 98 03 be 34 1d 89 3d
       -0.61437935 0.4259405 -0.12851243 0.06695023
000250 49 31 22 3c 68 5a 95 be c1 cb a8 be 30 d9 c7 3d
       0.009899446 -0.29170537 -0.32967952 0.09758222
000260 1c ee dc bd f6 9d b8 3d 98 90 a4 bf f7 cd 84 bf
       -0.10787603 0.09014504 -1.2856627 -1.0375355
000270 60 16 fe bd 5e b5 f7 be a0 3e 21 bd e8 1c 7a 3e
       -0.124066114 -0.4838056 -0.039366364 0.2442509
000280 d5 d8 9e be 26 d6 a7 3e 07 0f 63 be 32 85 04 3f
       -0.31024805 0.3278057 -0.22173701 0.5176574
000290 75 f9 31 3f f0 70 bc 3d a6 e0 99 3f d5 24 88 3e
       0.69521266 0.092012286 1.2021682 0.265906
0002a0 c3 8e fd 3e e2 c2 93 3e 79 6e 20 3f 16 06 8e 3f
       0.4952298 0.2885962 0.6266857 1.1095607
0002b0 2c 3d ef 3e c0 af e2 bd e7 b8 8c bf 48 3e 25 c0
       0.46726358 -0.11068678 -1.0993928 -2.5819263
0002c0 08 19 c9 be d4 23 d6 be 74 b7 aa be dc 19 15 be
       -0.3927691 -0.4182421 -0.3334309 -0.14560646
0002d0 82 7f d4 be 44 03 d6 be 20 ef 63 bd 7c 62 d7 be
       -0.4150353 -0.41799366 -0.05564797 -0.42067325
0002e0 25 d9 98 be 45 96 e3 3d cb 1d 1e bf 43 56 b4 3e
       -0.29853168 0.11112646 -0.6176421 0.35222062
0002f0 bf 9e 10 3f 4b 10 ba be a6 94 a7 bf d8 22 6b 3e
       0.5649223 -0.36340556 -1.3092239 0.2296251
000300 f3 e3 18 3f d1 7d 01 3e 54 94 8a 3f 5d 61 42 3d
       0.5972282 0.12645651 1.0826516 0.047456134
000310 93 01 f0 3e 2a 89 52 3e 27 cf 20 3f 8d 91 26 bf
       0.468762 0.20560136 0.6281609 -0.6506584
000320 c9 0e 2a c0 d6 7d 3e bd 5d 82 e0 be cc 08 0b bf
       -2.6571524 -0.046506725 -0.4384946 -0.543103
000330 95 71 02 3f 8c 9e f8 3d 26 5b be 3f f8 ca 12 3f
       0.5095456 0.121396154 1.4871566 0.57340956
000340 fb 4f 59 3f f5 45 90 be 22 2b 0a 3f 7b 0f 0f c0
       0.84887666 -0.28178373 0.53972065 -2.2353199
000350 ed 13 34 c0 ee 5d 35 bd fb 9c 9d be 80 d9 ac be
       -2.8137162 -0.04427903 -0.3078383 -0.3375969
000360 5a e9 2b 3f 2d 29 e2 be 4d 7b 27 bf ea 61 9a 3f
       0.6715294 -0.4417204 -0.6542252 1.2061131
000370 ca 23 90 be 36 12 6d 3d 7d 27 2c bf e7 5f 0f 3f
       -0.28152305 0.057878695 -0.67247754 0.5600571
000380 44 f7 db 3c 27 ab 39 3c b5 39 a6 bf 21 cc c4 bf
       0.026851304 0.01133231 -1.2986361 -1.5374795
000390 2c 24 94 3e cb 42 60 3e a9 de 35 3e 01 02 81 bf
       0.28933847 0.2190048 0.1776072 -1.0078737
0003a0 14 40 2e be 71 a7 0a 3e 35 01 c3 bf 72 dc 6c bf
       -0.17016631 0.13540436 -1.5234743 -0.9252387
0003b0 7f a5 20 bf 26 2a ee 3e 55 34 26 bc a6 6f 1a 3f
       -0.62752527 0.46516532 -0.010144313 0.6032661
0003c0 82 8e d0 3e 8e 08 24 3e 67 7c b0 3f 22 fb ee 3e
       0.40733725 0.16018888 1.3787965 0.46675974
0003d0 f3 2a 1c bf 1b 13 df 3e 19 c0 e0 bd c0 b9 e7 3e
       -0.61003035 0.43569264 -0.1097414 0.45258904
0003e0 6f b7 20 3f 26 c0 8a be b0 85 12 3c 71 d8 de bf
       0.627799 -0.27099723 0.008943006 -1.7409803
0003f0 38 b2 1b be d0 cd 00 bd 74 60 4c 3e fe e1 cc be
       -0.15204704 -0.031446278 0.19958669 -0.40016168

bias f4 [80]
000000 b4 8c 08 3f 9e 16 01 be f1 61 f7 be 05 33 dc 3e
       0.53339696 -0.12606284 -0.4831691 0.43007675
000010 4d 58 03 bf 60 8b c4 be 81 90 3b 3f 64 f9 9d be
       -0.5130661 -0.38387585 0.7326737 -0.30854332
000020 75 b9 c4 be 2b 5b a8 3d 0d 3b a1 3e a7 31 1a 3e
       -0.38422742 0.08220514 0.31490365 0.15058003
000030 aa bb cc be 32 64 f9 be 69 24 ff be 20 cc 85 bc
       -0.39986926 -0.48709255 -0.49832466 -0.016332686
000040 bd 49 1b bb da c1 ce 3e 1b 4e d4 bd bf d6 96 be
       -0.0023695074 0.40382272 -0.1036646 -0.29460713
000050 1a 3a 8f 3c ec b3 1c 3f 33 ff 9e 3e f5 b6 cd be
       0.01748376 0.6121204 0.31054077 -0.40178648
000060 e0 f0 de 3e a2 25 ab 3e f8 22 ed 3e ca f6 ab 3e
       0.43543148 0.3342715 0.46315742 0.33586723
000070 12 87 98 3c 9e 4d 89 3e cf 97 30 3f 48 24 d4 3d
       0.018619094 0.2681703 0.6898164 0.103584826
000080 00 de ce 3c f4 21 72 3e c2 47 a9 3e 8d 18 0d be
       0.025252342 0.23645765 0.3306256 -0.13778897
000090 7c ec 1a 3e 40 4c 1f 3e 9d 72 f3 3e 18 1e fc bd
       0.15129274 0.15556431 0.4754838 -0.123104274
0000a0 dd 89 4f be 5e 91 cd be 75 46 dc be 87 e0 52 bd
       -0.20267434 -0.4014997 -0.43022504 -0.051483657
0000b0 32 b8 e0 3e ee c6 b8 be a3 9d 12 be 9a 3a 7f 3e
       0.4389053 -0.3608927 -0.14317946 0.24924698
0000c0 64 18 22 3e 4d 2b c3 3e ac d3 d4 3e 75 c5 ed bc
       0.15829617 0.38118973 0.41567743 -0.029024819
0000d0 3b 75 d7 3e 6a 62 22 bf cf a3 fe 3b eb fc 0f bd
       0.42081627 -0.6343142 0.0077709923 -0.03515331
0000e0 83 4c 3e 3e 7d 1e fb 3d 96 5d 0b 3b 0a 05 11 be
       0.18583874 0.122616746 0.0021265498 -0.14162078
0000f0 12 c3 f6 be e0 d5 05 bd cf 8c 25 3f 74 9c 30 be
       -0.48195702 -0.03267467 0.6466798 -0.17247182
000100 38 e2 5d 3c 4c ba d4 be 18 13 50 3e 49 ad 2e bf
       0.013542704 -0.41548383 0.20319784 -0.6823316
000110 72 15 2d 3f c9 2d 02 be 26 cc ee be 89 b6 54 bd
       0.6761085 -0.12712778 -0.46640128 -0.05193189
000120 e8 52 a6 3e ce 12 cb be 40 81 ac be 45 d3 e9 be
       0.32485127 -0.39662784 -0.3369236 -0.45668998
000130 7b 5b b7 3e 25 15 f1 be 85 85 d5 be 1c ef ea be
       0.35811982 -0.47086444 -0.4170343 -0.4588555

weight f4 [10, 80]
000000 de 6c dc bd 7c fb d4 3d ee 27 41 bd 00 94 12 b9
       -0.10762952 0.10399529 -0.04715722 -0.0001397878
000010 9c 49 af bc c6 fe bb bd d0 3b 29 bc 9d 52 be bd
       -0.021397404 -0.091794536 -0.010329202 -0.09293101
000020 d8 c1 85 bd 72 89 a8 3d e6 c0 95 bd 04 ed 2f 3d
       -0.065311134 0.082293406 -0.07312183 0.042950645
000030 72 b7 06 bd 28 4a 1e 3d 54 05 b1 bc f0 e1 8b 3d
       -0.03288979 0.03864494 -0.021608986 0.068302035
000040 3a 30 c8 3d 9e f7 c8 3d 16 40 ad 3d 26 dd 2a bd
       0.097748235 0.09812854 0.08459489 -0.04171481
000050 0a de 8a 3d c6 df 9f bd 38 9c d6 bd 06 bf c7 3d
       0.06780632 -0.07806353 -0.10479015 0.09753232
000060 7c c4 82 bc 06 fa ab 3d 18 07 79 3d c0 41 bd bc
       -0.015962832 0.083972976 0.06079778 -0.023102641
000070 d4 3d 88 bc e8 65 9b bc 14 e8 c8 bd e4 47 af 3d
       -0.016631044 -0.018969491 -0.098098904 0.08558634
000080 ed 85 82 bd 64 ac 2c 3d 3c ab d7 3d be a9 b9 bd
       -0.063732006 0.042156592 0.10530707 -0.09065579
000090 58 68 87 bd d2 13 bb 3d c8 82 15 bc 16 ca cc bd
       -0.06611699 0.0913464 -0.009125419 -0.09999482
0000a0 c8 56 13 3d 68 ac a1 3d f4 42 98 bd c0 ac a5 3d
       0.035971433 0.07894212 -0.07434645 0.0808959
0000b0 e0 13 de 3d 7a 80 d8 3d 28 63 85 3d b0 19 f6 3b
       0.108436346 0.1057138 0.06513053 0.0075103864
0000c0 44 95 33 3d c4 8d 1a bd 70 96 8b 3c 18 2d 62 bd
       0.043843523 -0.037732854 0.017039508 -0.055218786
0000d0 22 d0 a3 3d fc 5a 1b bd b6 3e 7d bd 94 c5 82 bc
       0.079986826 -0.037928566 -0.061827384 -0.015963353
0000e0 48 32 d2 3c b0 a4 78 3c 78 ca 83 bd 2c 26 8b bd
       0.025658742 0.015175983 -0.06435102 -0.0679439
0000f0 9a 15 b8 bd d6 5b 41 bd a8 cb 2d bc ac 00 aa 3d
       -0.08988495 -0.047206722 -0.010607637 0.083009094
000100 e9 0e 65 bd 80 2d f1 ba c4 a1 66 bd d3 91 58 bd
       -0.055922423 -0.0018400401 -0.056306615 -0.052873444
000110 70 b7 7b bd 15 45 e2 bd f8 89 8f bd b8 ab 70 bc
       -0.061454237 -0.110483326 -0.07008737 -0.014689378
000120 60 f9 b3 3c 80 51 32 3d 54 d7 a6 bd 9d eb de bd
       0.021969497 0.043534756 -0.08146539 -0.108847834
000130 53 75 7d bd af f4 76 bd 89 08 73 bd 80 87 74 3d
       -0.061879467 -0.060291942 -0.05933431 0.059699535
000140 70 18 d2 3c a0 ff 0f bb d7 79 d8 bd 96 5f 92 bd
       0.025646418 -0.0021972433 -0.10570114 -0.07147138
000150 a1 fb 8d 3d 69 59 c0 bd 80 04 1d bb 70 6f c9 bd
       0.0693276 -0.09392054 -0.002395898 -0.09835708
000160 b2 87 0c be 90 2a 5a 3c b2 59 83 bd 76 30 07 be
       -0.13723639 0.013315812 -0.064135924 -0.1320208
000170 40 8e 96 bd 26 4f cb 3d 11 ba 54 bd 94 94 ab 3d
       -0.07351351 0.09927206 -0.05193526 0.083779484
000180 00 89 a4 3d 9f 8c 86 bd 81 a7 26 bd 27 b5 84 3d
       0.08033943 -0.0656979 -0.040687088 0.064798646
000190 48 10 10 bd 1c 0c 27 3d 14 f8 dc 3d 23 af d8 bd
       -0.035171777 0.040783033 0.10789505 -0.1058028
0001a0 08 81 c9 3c fe 6b de 3d a4 eb 3a bd db 65 0b be
       0.02459766 0.108604416 -0.04563488 -0.13613074
0001b0 72 86 b0 bd 9e 46 8a bd c0 b9 70 3c d5 86 55 bc
       -0.086193934 -0.067517504 0.014692724 -0.013032635
0001c0 c0 83 7a 3d ff 4b 9f ba e4 e8 a8 3d fd 05 d5 bd
       0.061160803 -0.0012153386 0.08247545 -0.10401533
0001d0 ef 02 f1 bc 5e 3d 22 bd 63 98 27 3c 78 ec 8c bd
       -0.029420344 -0.039609306 0.010229203 -0.0688104
0001e0 b4 7a e0 bd c7 37 9c bc 85 70 a4 bd fc f9 5a 3d
       -0.10960904 -0.019069565 -0.08029274 0.05346106
0001f0 b6 0e 8d 3d 7f 20 60 bd 0b 57 6c bd 18 75 1d bc
       0.068875715 -0.05471849 -0.0577002 -0.009610437
000200 39 11 9f bd 59 47 b6 bc 2c 24 b9 bd c8 6b 54 3d
       -0.07766957 -0.022250818 -0.09040102 0.0518606
000210 8a ba ab 3d 3d 5e 32 3c 6e e2 d4 3d df 84 1e bc
       0.08385189 0.010886726 0.103947505 -0.009675234
000220 b9 f7 b4 bd b1 71 b1 bd 3a ff 14 bd 2c f3 9f 3d
       -0.08836312 -0.08664263 -0.036376216 0.07810053
000230 ba 78 0a bc 40 89 85 3c 34 1f 35 bd f8 7c 67 3d
       -0.008451635 0.016300797 -0.04421921 0.056515664
000240 79 e6 aa 3d 56 2e be bd 94 10 06 be 1a f2 7f bd
       0.083447404 -0.09286182 -0.13092262 -0.062486745
000250 f8 07 80 bd b2 88 a9 bd 83 08 d5 3b 5d a1 80 bd
       -0.0625152 -0.08278026 0.006501259 -0.062807776
000260 79 e2 96 3d 5a 4c 38 bd 38 53 53 bc a4 5f aa 3d
       0.07367415 -0.04499469 -0.012898259 0.08319023
000270 05 e1 8b bd e5 fd c4 bd 30 c1 10 3c e8 f0 7d 3d
       -0.068300284 -0.09618739 0.008835122 0.061997324
000280 30 e5 ae bf 8c a3 70 3f b0 5b 27 bf a4 39 c3 3f
       -1.3663692 0.9399955 -0.6537428 1.5251966
000290 a9 12 fe 3e 48 93 a9 3f 0a 74 94 bf c8 81 e9 bc
       0.49623612 1.3248072 -1.1597912 -0.028504267
0002a0 41 d2 d5 3f ef 90 42 3e 97 8d 85 3f fb d7 a7 be
       1.6704789 0.190006 1.0433835 -0.32781968
0002b0 d9 f7 bb 3e 30 86 80 3d 80 a6 91 3f e0 01 c9 3d
       0.3671253 0.06275594 1.1378937 0.09814811
0002c0 6a 6c 22 be 8d 7e a0 bf 87 ae a0 bf fb fc 8c 3e
       -0.15861669 -1.253862 -1.2553262 0.2753676
0002d0 3c b6 d9 3f c9 45 96 3f 46 0a c8 bf 9c de a3 be
       1.7008739 1.1740047 -1.5628135 -0.32005775
0002e0 3c 83 7f bd 8c 52 58 3d 8e 4b c1 bd 8e a5 6d be
       -0.062381014 0.052813098 -0.09438239 -0.23207685
0002f0 33 38 cc 3f ba 00 83 3d 6d 82 02 c0 af 9c b1 bd
       1.5954651 0.06396623 -2.0392106 -0.08672463
000300 00 09 da bd 29 75 1c 3f a0 84 f2 bf 4b d5 00 bd
       -0.10646248 0.6111627 -1.8946724 -0.031453412
000310 64 b2 57 bd 03 c5 8b bd 93 d5 1a 3f da 5e 8c bd
       -0.05266036 -0.068246864 0.6048214 -0.06854029
000320 7b cd e8 3d 61 5b 01 bf f0 e3 c7 bd 70 8b 11 c0
       0.11367317 -0.5053006 -0.097602725 -2.2741356
000330 ec 8d 2f 3d e8 cd ec 3c 9e 5d 3e 3e 33 ea 94 3f
       0.042859957 0.028906778 0.185904 1.1633972
000340 32 64 ba be 03 1c 64 bf 83 32 d1 3f 55 5b 40 bf
       -0.36404568 -0.8910524 1.634354 -0.7513936
000350 9d 5c a8 bf e5 cc ba 3f 77 6f 8d 3f 55 2c 84 3e
       -1.3153263 1.4593779 1.1049641 0.25815073
000360 8d 9b f9 bf 42 8b 34 bf 6c 78 03 3f a0 dd 54 be
       -1.9500595 -0.7052499 0.51355624 -0.20787668
000370 e8 99 55 bf 27 f7 0d be 63 8f ff bf 30 43 c0 bb
       -0.8343797 -0.13863812 -1.9965633 -0.0058673844
000380 67 4d 94 3f d3 c4 f1 3f c2 4f be 3f b0 33 9f 3f
       1.1586121 1.8888191 1.486809 1.2437649
000390 25 50 ff bf 95 4b ea 3f 81 a2 23 3f 72 00 74 be
       -1.9946333 1.8304316 0.63919836 -0.23828295
0003a0 9e fb d6 3e e2 a9 de bd e0 cc 5c 3b 7a 37 f3 3f
       0.41988844 -0.10872246 0.003369145 1.9001305
0003b0 e6 09 6e 3f f1 75 5f bf 5d 01 b3 3e 1f 8f e1 bd
       0.92983854 -0.8728934 0.34961978 -0.11013626
0003c0 f9 2f 3b bd 14 85 93 bd bb e0 be bc bb f6 30 bc
       -0.045700047 -0.07203117 -0.02330052 -0.010801013
0003d0 ab 29 be bd 54 dd 91 3c f0 9b 13 be ba 4d 9c 3d
       -0.09285291 0.017805733 -0.14414954 0.07632013
0003e0 18 d6 19 bd 00 e3 ed bd 16 d7 dc bc 0e 1e d4 bc
       -0.03755769 -0.116155624 -0.02695803 -0.025893237
0003f0 71 b3 dd bd 23 9c 84 bd 9a dc 18 be 20 7b ca 3c
       -0.10825241 -0.06475093 -0.14927903 0.024716914

bias f4 [10]
000000 74 fb 1f 3d 2c 09 ef bd c3 97 c7 3c c9 f3 a4 bc
       0.039058164 -0.11671671 0.024364358 -0.020135777
000010 80 51 39 3d 55 a2 9e 3c a4 24 b9 3d 18 09 86 3d
       0.04524374 0.019364515 0.09040192 0.06544703
000020 ae 1a 5d bd f8 33 b1 3d
       -0.05398052 0.086524904

weight f4 [4, 10]
000000 c0 32 1e bd e4 6e 8d 3d 32 95 e2 3f a0 72 90 be
       -0.038622618 0.06905916 1.7701781 -0.28212452
000010 16 8a 59 3e 22 11 09 40 f6 81 7d be a8 a6 2e bd
       0.21244082 2.1416707 -0.24756607 -0.042639405
000020 da 00 78 be 6e 9a 5b be 9e e1 0c 3e 82 41 43 be
       -0.24219075 -0.21445629 0.13757941 -0.19067958
000030 d1 0f eb 3f 04 9a 68 3d 7c 9b f4 3d e7 19 1a 40
       1.8364202 0.056787506 0.11943719 2.407831
000040 ce 0a 7a 3e c4 33 5a 3d 18 e8 e8 bd eb 69 78 be
       0.24418184 0.053272024 -0.11372393 -0.24259154
000050 cc 83 29 3e 90 5d d9 bc c4 6a d3 3f 93 1a 58 bd
       0.16554183 -0.026533872 1.6516957 -0.05275972
000060 be d4 98 be a4 46 08 40 9f 2f 83 be 08 99 53 bd
       -0.2984981 2.1293116 -0.2562227 -0.051659614
000070 c0 eb 94 3d 5a 9d 1a be 6f 20 95 3e a8 75 69 3d
       0.07271528 -0.15099087 0.29126307 0.05699697
000080 cd 48 e8 3f 7f 72 2c be e8 0f bb 3d 74 00 0d 40
       1.8147217 -0.16840552 0.09133893 2.2031527
000090 ae df b2 bd e8 50 b3 3d 00 40 50 bc 57 c6 02 be
       -0.0873407 0.08755666 -0.012710571 -0.12770973

bias f4 [4]
000000 4b 87 8f be 4c 45 c0 bf 6d 9d 56 c0 a2 47 5b c0
       -0.28032908 -1.5021148 -3.3533585 -3.4262471
